…
I0204 18:35:31.069278  4609 net.cpp:275] The NetState phase (0) differed from the phase (1) specified by a rule in layer data
I0204 18:35:31.069314  4609 net.cpp:275] The NetState phase (0) differed from the phase (1) specified by a rule in layer accuracy
I0204 18:35:31.069599  4609 net.cpp:39] Initializing net from parameters: 
name: "LogisticRegressionNet"
layers {
  top: "data"
  top: "label"
  top: "sample_weight"
  name: "data"
  type: HDF5_DATA
  hdf5_data_param {
    source: "/share/project/shapes/caffe-weighted-samples/examples/singleNet/trainFileList.txt"
    batch_size: 100
  }
  include {
    phase: TRAIN
  }
}
layers {
  bottom: "data"
  top: "conv1"
  name: "conv1"
  type: CONVOLUTION
  blobs_lr: 1
  blobs_lr: 2
  convolution_param {
    num_output: 96
    kernel_size: 4
    stride: 1
    weight_filler {
      type: "xavier"
    }
    bias_filler {
      type: "constant"
    }
  }
}
layers {
  bottom: "conv1"
  top: "conv1"
  name: "relu_conv1"
  type: RELU
}
layers {
  bottom: "conv1"
  top: "pool1"
  name: "pool1"
  type: POOLING
  pooling_param {
    pool: MAX
    kernel_size: 2
    stride: 2
  }
}
layers {
  bottom: "pool1"
  top: "conv2"
  name: "conv2"
  type: CONVOLUTION
  blobs_lr: 1
  blobs_lr: 2
  convolution_param {
    num_output: 256
    kernel_size: 3
    stride: 1
    weight_filler {
      type: "xavier"
    }
    bias_filler {
      type: "constant"
    }
  }
}
layers {
  bottom: "conv2"
  top: "conv2"
  name: "relu_conv2"
  type: RELU
}
layers {
  bottom: "conv2"
  top: "pool2"
  name: "pool2"
  type: POOLING
  pooling_param {
    pool: MAX
    kernel_size: 2
    stride: 2
  }
}
layers {
  bottom: "pool2"
  top: "conv3"
  name: "conv3"
  type: CONVOLUTION
  blobs_lr: 1
  blobs_lr: 2
  convolution_param {
    num_output: 64
    kernel_size: 4
    stride: 1
    weight_filler {
      type: "xavier"
    }
    bias_filler {
      type: "constant"
    }
  }
}
layers {
  bottom: "conv3"
  top: "conv3"
  name: "relu_conv3"
  type: RELU
}
layers {
  bottom: "conv3"
  top: "ip1"
  name: "ip1"
  type: INNER_PRODUCT
  blobs_lr: 1
  blobs_lr: 2
  inner_product_param {
    num_output: 256
    weight_filler {
      type: "xavier"
    }
    bias_filler {
      type: "constant"
    }
  }
}
layers {
  bottom: "ip1"
  top: "ip1"
  name: "relu1"
  type: RELU
}
layers {
  bottom: "ip1"
  top: "ip2"
  name: "ip2"
  type: INNER_PRODUCT
  blobs_lr: 1
  blobs_lr: 2
  inner_product_param {
    num_output: 1024
    weight_filler {
      type: "xavier"
    }
    bias_filler {
      type: "constant"
    }
  }
}
layers {
  bottom: "ip2"
  top: "ip2"
  name: "relu2"
  type: RELU
}
layers {
  bottom: "ip2"
  top: "ip3"
  name: "ip3"
  type: INNER_PRODUCT
  blobs_lr: 1
  blobs_lr: 2
  inner_product_param {
    num_output: 2
    weight_filler {
      type: "xavier"
    }
    bias_filler {
      type: "constant"
    }
  }
}
layers {
  bottom: "ip3"
  bottom: "label"
  bottom: "sample_weight"
  top: "loss"
  name: "loss"
  type: SOFTMAX_LOSS
}
state {
  phase: TRAIN
}
I0204 18:35:31.069877  4609 net.cpp:67] Creating Layer data
I0204 18:35:31.069895  4609 net.cpp:356] data -> data
I0204 18:35:31.069936  4609 net.cpp:356] data -> label
I0204 18:35:31.069964  4609 net.cpp:356] data -> sample_weight
I0204 18:35:31.069979  4609 net.cpp:96] Setting up data
I0204 18:35:31.069993  4609 hdf5_data_layer.cpp:63] Loading filename from /share/project/shapes/caffe-weighted-samples/examples/singleNet/trainFileList.txt
I0204 18:35:31.213927  4609 hdf5_data_layer.cpp:75] Number of files: 15
I0204 18:35:31.213966  4609 hdf5_data_layer.cpp:29] Loading HDF5 file/scratch/stephenchen/shapes/singleNet/hdf5/train_batch_35x35/trainHDF_1_35x35.h5
I0204 18:36:14.458052  4609 hdf5_data_layer.cpp:55] Successully loaded 220600 rows
I0204 18:36:14.458627  4609 hdf5_data_layer.cpp:89] output data size: 100,4,35,35
I0204 18:36:14.458701  4609 net.cpp:103] Top shape: 100 4 35 35 (490000)
I0204 18:36:14.458716  4609 net.cpp:103] Top shape: 100 1 1 1 (100)
I0204 18:36:14.458726  4609 net.cpp:103] Top shape: 100 1 1 1 (100)
I0204 18:36:14.458750  4609 net.cpp:67] Creating Layer conv1
I0204 18:36:14.458760  4609 net.cpp:394] conv1 <- data
I0204 18:36:14.458791  4609 net.cpp:356] conv1 -> conv1
I0204 18:36:14.458811  4609 net.cpp:96] Setting up conv1
I0204 18:36:14.460031  4609 net.cpp:103] Top shape: 100 96 32 32 (9830400)
I0204 18:36:14.460119  4609 net.cpp:67] Creating Layer relu_conv1
I0204 18:36:14.460131  4609 net.cpp:394] relu_conv1 <- conv1
I0204 18:36:14.460144  4609 net.cpp:345] relu_conv1 -> conv1 (in-place)
I0204 18:36:14.460156  4609 net.cpp:96] Setting up relu_conv1
I0204 18:36:14.460165  4609 net.cpp:103] Top shape: 100 96 32 32 (9830400)
I0204 18:36:14.460178  4609 net.cpp:67] Creating Layer pool1
I0204 18:36:14.460186  4609 net.cpp:394] pool1 <- conv1
I0204 18:36:14.460198  4609 net.cpp:356] pool1 -> pool1
I0204 18:36:14.460212  4609 net.cpp:96] Setting up pool1
I0204 18:36:14.460242  4609 net.cpp:103] Top shape: 100 96 16 16 (2457600)
I0204 18:36:14.460258  4609 net.cpp:67] Creating Layer conv2
I0204 18:36:14.460268  4609 net.cpp:394] conv2 <- pool1
I0204 18:36:14.460279  4609 net.cpp:356] conv2 -> conv2
I0204 18:36:14.460294  4609 net.cpp:96] Setting up conv2
I0204 18:36:14.464609  4609 net.cpp:103] Top shape: 100 256 14 14 (5017600)
I0204 18:36:14.464637  4609 net.cpp:67] Creating Layer relu_conv2
I0204 18:36:14.464648  4609 net.cpp:394] relu_conv2 <- conv2
I0204 18:36:14.464659  4609 net.cpp:345] relu_conv2 -> conv2 (in-place)
I0204 18:36:14.464671  4609 net.cpp:96] Setting up relu_conv2
I0204 18:36:14.464680  4609 net.cpp:103] Top shape: 100 256 14 14 (5017600)
I0204 18:36:14.464691  4609 net.cpp:67] Creating Layer pool2
I0204 18:36:14.464699  4609 net.cpp:394] pool2 <- conv2
I0204 18:36:14.464710  4609 net.cpp:356] pool2 -> pool2
I0204 18:36:14.464723  4609 net.cpp:96] Setting up pool2
I0204 18:36:14.464733  4609 net.cpp:103] Top shape: 100 256 7 7 (1254400)
I0204 18:36:14.464746  4609 net.cpp:67] Creating Layer conv3
I0204 18:36:14.464756  4609 net.cpp:394] conv3 <- pool2
I0204 18:36:14.464766  4609 net.cpp:356] conv3 -> conv3
I0204 18:36:14.464778  4609 net.cpp:96] Setting up conv3
I0204 18:36:14.469938  4609 net.cpp:103] Top shape: 100 64 4 4 (102400)
I0204 18:36:14.469970  4609 net.cpp:67] Creating Layer relu_conv3
I0204 18:36:14.469980  4609 net.cpp:394] relu_conv3 <- conv3
I0204 18:36:14.469992  4609 net.cpp:345] relu_conv3 -> conv3 (in-place)
I0204 18:36:14.470005  4609 net.cpp:96] Setting up relu_conv3
I0204 18:36:14.470015  4609 net.cpp:103] Top shape: 100 64 4 4 (102400)
I0204 18:36:14.470026  4609 net.cpp:67] Creating Layer ip1
I0204 18:36:14.470034  4609 net.cpp:394] ip1 <- conv3
I0204 18:36:14.470046  4609 net.cpp:356] ip1 -> ip1
I0204 18:36:14.470060  4609 net.cpp:96] Setting up ip1
I0204 18:36:14.475188  4609 net.cpp:103] Top shape: 100 256 1 1 (25600)
I0204 18:36:14.475220  4609 net.cpp:67] Creating Layer relu1
I0204 18:36:14.475317  4609 net.cpp:394] relu1 <- ip1
I0204 18:36:14.475335  4609 net.cpp:345] relu1 -> ip1 (in-place)
I0204 18:36:14.475348  4609 net.cpp:96] Setting up relu1
I0204 18:36:14.475358  4609 net.cpp:103] Top shape: 100 256 1 1 (25600)
I0204 18:36:14.475370  4609 net.cpp:67] Creating Layer ip2
I0204 18:36:14.475378  4609 net.cpp:394] ip2 <- ip1
I0204 18:36:14.475390  4609 net.cpp:356] ip2 -> ip2
I0204 18:36:14.475404  4609 net.cpp:96] Setting up ip2
I0204 18:36:14.479213  4609 net.cpp:103] Top shape: 100 1024 1 1 (102400)
I0204 18:36:14.479233  4609 net.cpp:67] Creating Layer relu2
I0204 18:36:14.479238  4609 net.cpp:394] relu2 <- ip2
I0204 18:36:14.479244  4609 net.cpp:345] relu2 -> ip2 (in-place)
I0204 18:36:14.479251  4609 net.cpp:96] Setting up relu2
I0204 18:36:14.479256  4609 net.cpp:103] Top shape: 100 1024 1 1 (102400)
I0204 18:36:14.479262  4609 net.cpp:67] Creating Layer ip3
I0204 18:36:14.479267  4609 net.cpp:394] ip3 <- ip2
I0204 18:36:14.479274  4609 net.cpp:356] ip3 -> ip3
I0204 18:36:14.479280  4609 net.cpp:96] Setting up ip3
I0204 18:36:14.479310  4609 net.cpp:103] Top shape: 100 2 1 1 (200)
I0204 18:36:14.479323  4609 net.cpp:67] Creating Layer loss
I0204 18:36:14.479328  4609 net.cpp:394] loss <- ip3
I0204 18:36:14.479333  4609 net.cpp:394] loss <- label
I0204 18:36:14.479339  4609 net.cpp:394] loss <- sample_weight
I0204 18:36:14.479346  4609 net.cpp:356] loss -> loss
I0204 18:36:14.479353  4609 net.cpp:96] Setting up loss
I0204 18:36:14.479362  4609 net.cpp:103] Top shape: 1 1 1 1 (1)
I0204 18:36:14.479367  4609 net.cpp:109]     with loss weight 1
I0204 18:36:14.479435  4609 net.cpp:170] loss needs backward computation.
I0204 18:36:14.479441  4609 net.cpp:170] ip3 needs backward computation.
I0204 18:36:14.479446  4609 net.cpp:170] relu2 needs backward computation.
I0204 18:36:14.479450  4609 net.cpp:170] ip2 needs backward computation.
I0204 18:36:14.479455  4609 net.cpp:170] relu1 needs backward computation.
…
I0204 18:36:15.109961  4609 solver.cpp:151] Creating test net (#0) specified by net file: examples/singleNet/train_val_v0.2.prototxt
I0204 18:36:15.110031  4609 net.cpp:275] The NetState phase (1) differed from the phase (0) specified by a rule in layer data
I0204 18:36:15.110311  4609 net.cpp:39] Initializing net from parameters: 
name: "LogisticRegressionNet"
layers {
  top: "data"
  top: "label"
  top: "sample_weight"
  name: "data"
  type: HDF5_DATA
  hdf5_data_param {
    source: "/share/project/shapes/caffe-weighted-samples/examples/singleNet/testFileList.txt"
    batch_size: 10
  }
  include {
    phase: TEST
  }
}
layers {
  bottom: "data"
  top: "conv1"
  name: "conv1"
  type: CONVOLUTION
  blobs_lr: 1
  blobs_lr: 2
  convolution_param {
    num_output: 96
    kernel_size: 4
    stride: 1
    weight_filler {
      type: "xavier"
    }
    bias_filler {
      type: "constant"
    }
  }
}
layers {
  bottom: "conv1"
  top: "conv1"
  name: "relu_conv1"
  type: RELU
}
layers {
  bottom: "conv1"
  top: "pool1"
  name: "pool1"
  type: POOLING
  pooling_param {
    pool: MAX
    kernel_size: 2
    stride: 2
  }
}
layers {
  bottom: "pool1"
  top: "conv2"
  name: "conv2"
  type: CONVOLUTION
  blobs_lr: 1
  blobs_lr: 2
  convolution_param {
    num_output: 256
    kernel_size: 3
    stride: 1
    weight_filler {
      type: "xavier"
    }
    bias_filler {
      type: "constant"
    }
  }
}
layers {
  bottom: "conv2"
  top: "conv2"
  name: "relu_conv2"
  type: RELU
}
layers {
  bottom: "conv2"
  top: "pool2"
  name: "pool2"
  type: POOLING
  pooling_param {
    pool: MAX
    kernel_size: 2
    stride: 2
  }
}
layers {
  bottom: "pool2"
  top: "conv3"
  name: "conv3"
  type: CONVOLUTION
  blobs_lr: 1
  blobs_lr: 2
  convolution_param {
    num_output: 64
    kernel_size: 4
    stride: 1
    weight_filler {
      type: "xavier"
    }
    bias_filler {
      type: "constant"
    }
  }
}
layers {
  bottom: "conv3"
  top: "conv3"
  name: "relu_conv3"
  type: RELU
}
layers {
  bottom: "conv3"
  top: "ip1"
  name: "ip1"
  type: INNER_PRODUCT
  blobs_lr: 1
  blobs_lr: 2
  inner_product_param {
    num_output: 256
    weight_filler {
      type: "xavier"
    }
    bias_filler {
      type: "constant"
    }
  }
}
layers {
  bottom: "ip1"
  top: "ip1"
  name: "relu1"
  type: RELU
}
layers {
  bottom: "ip1"
  top: "ip2"
  name: "ip2"
  type: INNER_PRODUCT
  blobs_lr: 1
  blobs_lr: 2
  inner_product_param {
    num_output: 1024
    weight_filler {
      type: "xavier"
    }
    bias_filler {
      type: "constant"
    }
  }
}
layers {
  bottom: "ip2"
  top: "ip2"
  name: "relu2"
  type: RELU
}
layers {
  bottom: "ip2"
  top: "ip3"
  name: "ip3"
  type: INNER_PRODUCT
  blobs_lr: 1
  blobs_lr: 2
  inner_product_param {
    num_output: 2
    weight_filler {
      type: "xavier"
    }
    bias_filler {
      type: "constant"
    }
  }
}
layers {
  bottom: "ip3"
  bottom: "label"
  top: "accuracy"
  name: "accuracy"
  type: ACCURACY
  include {
    phase: TEST
  }
}
layers {
  bottom: "ip3"
  bottom: "label"
  bottom: "sample_weight"
  top: "loss"
  name: "loss"
  type: SOFTMAX_LOSS
}
state {
  phase: TEST
}
I0204 18:36:15.110684  4609 net.cpp:67] Creating Layer data
I0204 18:36:15.110702  4609 net.cpp:356] data -> data
I0204 18:36:15.110721  4609 net.cpp:356] data -> label
I0204 18:36:15.110736  4609 net.cpp:356] data -> sample_weight
I0204 18:36:15.110750  4609 net.cpp:96] Setting up data
I0204 18:36:15.110759  4609 hdf5_data_layer.cpp:63] Loading filename from /share/project/shapes/caffe-weighted-samples/examples/singleNet/testFileList.txt
I0204 18:36:15.120187  4609 hdf5_data_layer.cpp:75] Number of files: 4
I0204 18:36:15.120208  4609 hdf5_data_layer.cpp:29] Loading HDF5 file/scratch/stephenchen/shapes/singleNet/hdf5/test_batch_35x35/testHDF_1_35x35.h5
I0204 18:36:39.421224  4609 hdf5_data_layer.cpp:55] Successully loaded 112600 rows
I0204 18:36:39.421255  4609 hdf5_data_layer.cpp:89] output data size: 10,4,35,35
I0204 18:36:39.421267  4609 net.cpp:103] Top shape: 10 4 35 35 (49000)
I0204 18:36:39.421274  4609 net.cpp:103] Top shape: 10 1 1 1 (10)
I0204 18:36:39.421283  4609 net.cpp:103] Top shape: 10 1 1 1 (10)
I0204 18:36:39.421298  4609 net.cpp:67] Creating Layer label_data_1_split
I0204 18:36:39.421308  4609 net.cpp:394] label_data_1_split <- label
I0204 18:36:39.421319  4609 net.cpp:356] label_data_1_split -> label_data_1_split_0
I0204 18:36:39.421334  4609 net.cpp:356] label_data_1_split -> label_data_1_split_1
I0204 18:36:39.421345  4609 net.cpp:96] Setting up label_data_1_split
I0204 18:36:39.421355  4609 net.cpp:103] Top shape: 10 1 1 1 (10)
I0204 18:36:39.421362  4609 net.cpp:103] Top shape: 10 1 1 1 (10)
I0204 18:36:39.421375  4609 net.cpp:67] Creating Layer conv1
I0204 18:36:39.421382  4609 net.cpp:394] conv1 <- data
I0204 18:36:39.421392  4609 net.cpp:356] conv1 -> conv1
I0204 18:36:39.421403  4609 net.cpp:96] Setting up conv1
I0204 18:36:39.421514  4609 net.cpp:103] Top shape: 10 96 32 32 (983040)
I0204 18:36:39.421535  4609 net.cpp:67] Creating Layer relu_conv1
I0204 18:36:39.421541  4609 net.cpp:394] relu_conv1 <- conv1
I0204 18:36:39.421579  4609 net.cpp:345] relu_conv1 -> conv1 (in-place)
I0204 18:36:39.421591  4609 net.cpp:96] Setting up relu_conv1
I0204 18:36:39.421597  4609 net.cpp:103] Top shape: 10 96 32 32 (983040)
I0204 18:36:39.421609  4609 net.cpp:67] Creating Layer pool1
I0204 18:36:39.421617  4609 net.cpp:394] pool1 <- conv1
I0204 18:36:39.421625  4609 net.cpp:356] pool1 -> pool1
I0204 18:36:39.421635  4609 net.cpp:96] Setting up pool1
I0204 18:36:39.421644  4609 net.cpp:103] Top shape: 10 96 16 16 (245760)
I0204 18:36:39.421655  4609 net.cpp:67] Creating Layer conv2
I0204 18:36:39.421663  4609 net.cpp:394] conv2 <- pool1
I0204 18:36:39.421671  4609 net.cpp:356] conv2 -> conv2
I0204 18:36:39.421682  4609 net.cpp:96] Setting up conv2
I0204 18:36:39.425139  4609 net.cpp:103] Top shape: 10 256 14 14 (501760)
I0204 18:36:39.425161  4609 net.cpp:67] Creating Layer relu_conv2
I0204 18:36:39.425169  4609 net.cpp:394] relu_conv2 <- conv2
I0204 18:36:39.425179  4609 net.cpp:345] relu_conv2 -> conv2 (in-place)
I0204 18:36:39.425194  4609 net.cpp:96] Setting up relu_conv2
I0204 18:36:39.425200  4609 net.cpp:103] Top shape: 10 256 14 14 (501760)
I0204 18:36:39.425209  4609 net.cpp:67] Creating Layer pool2
I0204 18:36:39.425216  4609 net.cpp:394] pool2 <- conv2
I0204 18:36:39.425225  4609 net.cpp:356] pool2 -> pool2
I0204 18:36:39.425236  4609 net.cpp:96] Setting up pool2
I0204 18:36:39.425246  4609 net.cpp:103] Top shape: 10 256 7 7 (125440)
I0204 18:36:39.425258  4609 net.cpp:67] Creating Layer conv3
I0204 18:36:39.425266  4609 net.cpp:394] conv3 <- pool2
I0204 18:36:39.425274  4609 net.cpp:356] conv3 -> conv3
I0204 18:36:39.425286  4609 net.cpp:96] Setting up conv3
I0204 18:36:39.428902  4609 net.cpp:103] Top shape: 10 64 4 4 (10240)
I0204 18:36:39.428921  4609 net.cpp:67] Creating Layer relu_conv3
I0204 18:36:39.428927  4609 net.cpp:394] relu_conv3 <- conv3
I0204 18:36:39.428935  4609 net.cpp:345] relu_conv3 -> conv3 (in-place)
I0204 18:36:39.428941  4609 net.cpp:96] Setting up relu_conv3
I0204 18:36:39.428946  4609 net.cpp:103] Top shape: 10 64 4 4 (10240)
I0204 18:36:39.428953  4609 net.cpp:67] Creating Layer ip1
I0204 18:36:39.428958  4609 net.cpp:394] ip1 <- conv3
I0204 18:36:39.428966  4609 net.cpp:356] ip1 -> ip1
I0204 18:36:39.428973  4609 net.cpp:96] Setting up ip1
I0204 18:36:39.431931  4609 net.cpp:103] Top shape: 10 256 1 1 (2560)
I0204 18:36:39.431946  4609 net.cpp:67] Creating Layer relu1
I0204 18:36:39.431951  4609 net.cpp:394] relu1 <- ip1
I0204 18:36:39.431958  4609 net.cpp:345] relu1 -> ip1 (in-place)
I0204 18:36:39.431965  4609 net.cpp:96] Setting up relu1
I0204 18:36:39.431970  4609 net.cpp:103] Top shape: 10 256 1 1 (2560)
I0204 18:36:39.431978  4609 net.cpp:67] Creating Layer ip2
I0204 18:36:39.431983  4609 net.cpp:394] ip2 <- ip1
I0204 18:36:39.431989  4609 net.cpp:356] ip2 -> ip2
I0204 18:36:39.431998  4609 net.cpp:96] Setting up ip2
I0204 18:36:39.434942  4609 net.cpp:103] Top shape: 10 1024 1 1 (10240)
I0204 18:36:39.434960  4609 net.cpp:67] Creating Layer relu2
I0204 18:36:39.434967  4609 net.cpp:394] relu2 <- ip2
I0204 18:36:39.434973  4609 net.cpp:345] relu2 -> ip2 (in-place)
I0204 18:36:39.434980  4609 net.cpp:96] Setting up relu2
I0204 18:36:39.434985  4609 net.cpp:103] Top shape: 10 1024 1 1 (10240)
I0204 18:36:39.434993  4609 net.cpp:67] Creating Layer ip3
I0204 18:36:39.434996  4609 net.cpp:394] ip3 <- ip2
I0204 18:36:39.435003  4609 net.cpp:356] ip3 -> ip3
I0204 18:36:39.435010  4609 net.cpp:96] Setting up ip3
I0204 18:36:39.435039  4609 net.cpp:103] Top shape: 10 2 1 1 (20)
I0204 18:36:39.435048  4609 net.cpp:67] Creating Layer ip3_ip3_0_split
I0204 18:36:39.435053  4609 net.cpp:394] ip3_ip3_0_split <- ip3
I0204 18:36:39.435060  4609 net.cpp:356] ip3_ip3_0_split -> ip3_ip3_0_split_0
I0204 18:36:39.435066  4609 net.cpp:356] ip3_ip3_0_split -> ip3_ip3_0_split_1
I0204 18:36:39.435073  4609 net.cpp:96] Setting up ip3_ip3_0_split
I0204 18:36:39.435078  4609 net.cpp:103] Top shape: 10 2 1 1 (20)
I0204 18:36:39.435083  4609 net.cpp:103] Top shape: 10 2 1 1 (20)
I0204 18:36:39.435091  4609 net.cpp:67] Creating Layer accuracy
I0204 18:36:39.435096  4609 net.cpp:394] accuracy <- ip3_ip3_0_split_0
I0204 18:36:39.435102  4609 net.cpp:394] accuracy <- label_data_1_split_0
I0204 18:36:39.435108  4609 net.cpp:356] accuracy -> accuracy
I0204 18:36:39.435116  4609 net.cpp:96] Setting up accuracy
I0204 18:36:39.435120  4609 net.cpp:103] Top shape: 1 1 1 1 (1)
I0204 18:36:39.435128  4609 net.cpp:67] Creating Layer loss
I0204 18:36:39.435132  4609 net.cpp:394] loss <- ip3_ip3_0_split_1
I0204 18:36:39.435138  4609 net.cpp:394] loss <- label_data_1_split_1
I0204 18:36:39.435143  4609 net.cpp:394] loss <- sample_weight
I0204 18:36:39.435149  4609 net.cpp:356] loss -> loss
I0204 18:36:39.435158  4609 net.cpp:96] Setting up loss
I0204 18:36:39.435165  4609 net.cpp:103] Top shape: 1 1 1 1 (1)
I0204 18:36:39.435170  4609 net.cpp:109]     with loss weight 1
I0204 18:36:39.435189  4609 net.cpp:170] loss needs backward computation.
I0204 18:36:39.435194  4609 net.cpp:172] accuracy does not need backward computation.
I0204 18:36:39.435202  4609 net.cpp:170] ip3_ip3_0_split needs backward computation.
I0204 18:36:39.435207  4609 net.cpp:170] ip3 needs backward computation.
I0204 18:36:39.435212  4609 net.cpp:170] relu2 needs backward computation.
…
