…
I0204 14:26:15.864269 25319 net.cpp:275] The NetState phase (0) differed from the phase (1) specified by a rule in layer data
I0204 14:26:15.864306 25319 net.cpp:275] The NetState phase (0) differed from the phase (1) specified by a rule in layer accuracy
I0204 14:26:15.864559 25319 net.cpp:39] Initializing net from parameters: 
name: "LogisticRegressionNet"
layers {
  top: "data"
  top: "label"
  top: "sample_weight"
  name: "data"
  type: HDF5_DATA
  hdf5_data_param {
    source: "/share/project/shapes/caffe-weighted-samples/examples/singleNet/trainFileList.txt"
    batch_size: 100
  }
  include {
    phase: TRAIN
  }
}
layers {
  bottom: "data"
  top: "conv1"
  name: "conv1"
  type: CONVOLUTION
  blobs_lr: 1
  blobs_lr: 2
  convolution_param {
    num_output: 96
    kernel_size: 5
    stride: 1
    weight_filler {
      type: "xavier"
    }
    bias_filler {
      type: "constant"
    }
  }
}
layers {
  bottom: "conv1"
  top: "pool1"
  name: "pool1"
  type: POOLING
  pooling_param {
    pool: MAX
    kernel_size: 2
    stride: 2
  }
}
layers {
  bottom: "pool1"
  top: "conv2"
  name: "conv2"
  type: CONVOLUTION
  blobs_lr: 1
  blobs_lr: 2
  convolution_param {
    num_output: 256
    kernel_size: 3
    stride: 1
    weight_filler {
      type: "xavier"
    }
    bias_filler {
      type: "constant"
    }
  }
}
layers {
  bottom: "conv2"
  top: "pool2"
  name: "pool2"
  type: POOLING
  pooling_param {
    pool: MAX
    kernel_size: 2
    stride: 2
  }
}
layers {
  bottom: "pool2"
  top: "conv3"
  name: "conv3"
  type: CONVOLUTION
  blobs_lr: 1
  blobs_lr: 2
  convolution_param {
    num_output: 64
    kernel_size: 3
    stride: 1
    weight_filler {
      type: "xavier"
    }
    bias_filler {
      type: "constant"
    }
  }
}
layers {
  bottom: "conv3"
  top: "ip1"
  name: "ip1"
  type: INNER_PRODUCT
  blobs_lr: 1
  blobs_lr: 2
  inner_product_param {
    num_output: 1024
    weight_filler {
      type: "xavier"
    }
    bias_filler {
      type: "constant"
    }
  }
}
layers {
  bottom: "ip1"
  top: "ip1"
  name: "relu1"
  type: RELU
}
layers {
  bottom: "ip1"
  top: "ip2"
  name: "ip2"
  type: INNER_PRODUCT
  blobs_lr: 1
  blobs_lr: 2
  inner_product_param {
    num_output: 1024
    weight_filler {
      type: "xavier"
    }
    bias_filler {
      type: "constant"
    }
  }
}
layers {
  bottom: "ip2"
  top: "ip2"
  name: "relu2"
  type: RELU
}
layers {
  bottom: "ip2"
  top: "ip3"
  name: "ip3"
  type: INNER_PRODUCT
  blobs_lr: 1
  blobs_lr: 2
  inner_product_param {
    num_output: 2
    weight_filler {
      type: "xavier"
    }
    bias_filler {
      type: "constant"
    }
  }
}
layers {
  bottom: "ip3"
  bottom: "label"
  bottom: "sample_weight"
  top: "loss"
  name: "loss"
  type: SOFTMAX_LOSS
}
state {
  phase: TRAIN
}
I0204 14:26:15.864810 25319 net.cpp:67] Creating Layer data
I0204 14:26:15.864828 25319 net.cpp:356] data -> data
I0204 14:26:15.864866 25319 net.cpp:356] data -> label
I0204 14:26:15.864893 25319 net.cpp:356] data -> sample_weight
I0204 14:26:15.864907 25319 net.cpp:96] Setting up data
I0204 14:26:15.864922 25319 hdf5_data_layer.cpp:63] Loading filename from /share/project/shapes/caffe-weighted-samples/examples/singleNet/trainFileList.txt
I0204 14:26:15.878778 25319 hdf5_data_layer.cpp:75] Number of files: 15
I0204 14:26:15.878813 25319 hdf5_data_layer.cpp:29] Loading HDF5 file/scratch/stephenchen/shapes/singleNet/hdf5/train_batch_35x35/trainHDF_1_35x35.h5
I0204 14:26:58.390626 25319 hdf5_data_layer.cpp:55] Successully loaded 220600 rows
I0204 14:26:58.391239 25319 hdf5_data_layer.cpp:89] output data size: 100,4,35,35
I0204 14:26:58.409428 25319 net.cpp:103] Top shape: 100 4 35 35 (490000)
I0204 14:26:58.409448 25319 net.cpp:103] Top shape: 100 1 1 1 (100)
I0204 14:26:58.409487 25319 net.cpp:103] Top shape: 100 1 1 1 (100)
I0204 14:26:58.409513 25319 net.cpp:67] Creating Layer conv1
I0204 14:26:58.409524 25319 net.cpp:394] conv1 <- data
I0204 14:26:58.409581 25319 net.cpp:356] conv1 -> conv1
I0204 14:26:58.409603 25319 net.cpp:96] Setting up conv1
I0204 14:26:58.473695 25319 net.cpp:103] Top shape: 100 96 31 31 (9225600)
I0204 14:26:58.483970 25319 net.cpp:67] Creating Layer pool1
I0204 14:26:58.483983 25319 net.cpp:394] pool1 <- conv1
I0204 14:26:58.483993 25319 net.cpp:356] pool1 -> pool1
I0204 14:26:58.484004 25319 net.cpp:96] Setting up pool1
I0204 14:26:58.484030 25319 net.cpp:103] Top shape: 100 96 16 16 (2457600)
I0204 14:26:58.484040 25319 net.cpp:67] Creating Layer conv2
I0204 14:26:58.484045 25319 net.cpp:394] conv2 <- pool1
I0204 14:26:58.484052 25319 net.cpp:356] conv2 -> conv2
I0204 14:26:58.484061 25319 net.cpp:96] Setting up conv2
I0204 14:26:58.486639 25319 net.cpp:103] Top shape: 100 256 14 14 (5017600)
I0204 14:26:58.486660 25319 net.cpp:67] Creating Layer pool2
I0204 14:26:58.486665 25319 net.cpp:394] pool2 <- conv2
I0204 14:26:58.486673 25319 net.cpp:356] pool2 -> pool2
I0204 14:26:58.486681 25319 net.cpp:96] Setting up pool2
I0204 14:26:58.486687 25319 net.cpp:103] Top shape: 100 256 7 7 (1254400)
I0204 14:26:58.486696 25319 net.cpp:67] Creating Layer conv3
I0204 14:26:58.486701 25319 net.cpp:394] conv3 <- pool2
I0204 14:26:58.486707 25319 net.cpp:356] conv3 -> conv3
I0204 14:26:58.486714 25319 net.cpp:96] Setting up conv3
I0204 14:26:58.488397 25319 net.cpp:103] Top shape: 100 64 5 5 (160000)
I0204 14:26:58.488416 25319 net.cpp:67] Creating Layer ip1
I0204 14:26:58.488422 25319 net.cpp:394] ip1 <- conv3
I0204 14:26:58.488430 25319 net.cpp:356] ip1 -> ip1
I0204 14:26:58.488438 25319 net.cpp:96] Setting up ip1
I0204 14:26:58.507148 25319 net.cpp:103] Top shape: 100 1024 1 1 (102400)
I0204 14:26:58.507194 25319 net.cpp:67] Creating Layer relu1
I0204 14:26:58.507200 25319 net.cpp:394] relu1 <- ip1
I0204 14:26:58.507208 25319 net.cpp:345] relu1 -> ip1 (in-place)
I0204 14:26:58.507217 25319 net.cpp:96] Setting up relu1
I0204 14:26:58.507222 25319 net.cpp:103] Top shape: 100 1024 1 1 (102400)
I0204 14:26:58.507232 25319 net.cpp:67] Creating Layer ip2
I0204 14:26:58.507237 25319 net.cpp:394] ip2 <- ip1
I0204 14:26:58.507244 25319 net.cpp:356] ip2 -> ip2
I0204 14:26:58.507256 25319 net.cpp:96] Setting up ip2
I0204 14:26:58.519593 25319 net.cpp:103] Top shape: 100 1024 1 1 (102400)
I0204 14:26:58.519625 25319 net.cpp:67] Creating Layer relu2
I0204 14:26:58.519631 25319 net.cpp:394] relu2 <- ip2
I0204 14:26:58.519642 25319 net.cpp:345] relu2 -> ip2 (in-place)
I0204 14:26:58.519651 25319 net.cpp:96] Setting up relu2
I0204 14:26:58.519656 25319 net.cpp:103] Top shape: 100 1024 1 1 (102400)
I0204 14:26:58.519665 25319 net.cpp:67] Creating Layer ip3
I0204 14:26:58.519668 25319 net.cpp:394] ip3 <- ip2
I0204 14:26:58.519675 25319 net.cpp:356] ip3 -> ip3
I0204 14:26:58.519683 25319 net.cpp:96] Setting up ip3
I0204 14:26:58.519716 25319 net.cpp:103] Top shape: 100 2 1 1 (200)
I0204 14:26:58.519732 25319 net.cpp:67] Creating Layer loss
I0204 14:26:58.519738 25319 net.cpp:394] loss <- ip3
I0204 14:26:58.519743 25319 net.cpp:394] loss <- label
I0204 14:26:58.519749 25319 net.cpp:394] loss <- sample_weight
I0204 14:26:58.519759 25319 net.cpp:356] loss -> loss
I0204 14:26:58.519767 25319 net.cpp:96] Setting up loss
I0204 14:26:58.519778 25319 net.cpp:103] Top shape: 1 1 1 1 (1)
I0204 14:26:58.519783 25319 net.cpp:109]     with loss weight 1
I0204 14:26:58.519862 25319 net.cpp:170] loss needs backward computation.
I0204 14:26:58.519868 25319 net.cpp:170] ip3 needs backward computation.
I0204 14:26:58.519872 25319 net.cpp:170] relu2 needs backward computation.
I0204 14:26:58.519877 25319 net.cpp:170] ip2 needs backward computation.
I0204 14:26:58.519884 25319 net.cpp:170] relu1 needs backward computation.
…
I0204 14:26:58.713184 25319 solver.cpp:151] Creating test net (#0) specified by net file: examples/singleNet/train_val.prototxt
I0204 14:26:58.713232 25319 net.cpp:275] The NetState phase (1) differed from the phase (0) specified by a rule in layer data
I0204 14:26:58.719152 25319 net.cpp:39] Initializing net from parameters: 
name: "LogisticRegressionNet"
layers {
  top: "data"
  top: "label"
  top: "sample_weight"
  name: "data"
  type: HDF5_DATA
  hdf5_data_param {
    source: "/share/project/shapes/caffe-weighted-samples/examples/singleNet/testFileList.txt"
    batch_size: 10
  }
  include {
    phase: TEST
  }
}
layers {
  bottom: "data"
  top: "conv1"
  name: "conv1"
  type: CONVOLUTION
  blobs_lr: 1
  blobs_lr: 2
  convolution_param {
    num_output: 96
    kernel_size: 5
    stride: 1
    weight_filler {
      type: "xavier"
    }
    bias_filler {
      type: "constant"
    }
  }
}
layers {
  bottom: "conv1"
  top: "pool1"
  name: "pool1"
  type: POOLING
  pooling_param {
    pool: MAX
    kernel_size: 2
    stride: 2
  }
}
layers {
  bottom: "pool1"
  top: "conv2"
  name: "conv2"
  type: CONVOLUTION
  blobs_lr: 1
  blobs_lr: 2
  convolution_param {
    num_output: 256
    kernel_size: 3
    stride: 1
    weight_filler {
      type: "xavier"
    }
    bias_filler {
      type: "constant"
    }
  }
}
layers {
  bottom: "conv2"
  top: "pool2"
  name: "pool2"
  type: POOLING
  pooling_param {
    pool: MAX
    kernel_size: 2
    stride: 2
  }
}
layers {
  bottom: "pool2"
  top: "conv3"
  name: "conv3"
  type: CONVOLUTION
  blobs_lr: 1
  blobs_lr: 2
  convolution_param {
    num_output: 64
    kernel_size: 3
    stride: 1
    weight_filler {
      type: "xavier"
    }
    bias_filler {
      type: "constant"
    }
  }
}
layers {
  bottom: "conv3"
  top: "ip1"
  name: "ip1"
  type: INNER_PRODUCT
  blobs_lr: 1
  blobs_lr: 2
  inner_product_param {
    num_output: 1024
    weight_filler {
      type: "xavier"
    }
    bias_filler {
      type: "constant"
    }
  }
}
layers {
  bottom: "ip1"
  top: "ip1"
  name: "relu1"
  type: RELU
}
layers {
  bottom: "ip1"
  top: "ip2"
  name: "ip2"
  type: INNER_PRODUCT
  blobs_lr: 1
  blobs_lr: 2
  inner_product_param {
    num_output: 1024
    weight_filler {
      type: "xavier"
    }
    bias_filler {
      type: "constant"
    }
  }
}
layers {
  bottom: "ip2"
  top: "ip2"
  name: "relu2"
  type: RELU
}
layers {
  bottom: "ip2"
  top: "ip3"
  name: "ip3"
  type: INNER_PRODUCT
  blobs_lr: 1
  blobs_lr: 2
  inner_product_param {
    num_output: 2
    weight_filler {
      type: "xavier"
    }
    bias_filler {
      type: "constant"
    }
  }
}
layers {
  bottom: "ip3"
  bottom: "label"
  top: "accuracy"
  name: "accuracy"
  type: ACCURACY
  include {
    phase: TEST
  }
}
layers {
  bottom: "ip3"
  bottom: "label"
  bottom: "sample_weight"
  top: "loss"
  name: "loss"
  type: SOFTMAX_LOSS
}
state {
  phase: TEST
}
I0204 14:26:58.719347 25319 net.cpp:67] Creating Layer data
I0204 14:26:58.719357 25319 net.cpp:356] data -> data
I0204 14:26:58.719369 25319 net.cpp:356] data -> label
I0204 14:26:58.719378 25319 net.cpp:356] data -> sample_weight
I0204 14:26:58.719387 25319 net.cpp:96] Setting up data
I0204 14:26:58.719391 25319 hdf5_data_layer.cpp:63] Loading filename from /share/project/shapes/caffe-weighted-samples/examples/singleNet/testFileList.txt
I0204 14:26:58.739492 25319 hdf5_data_layer.cpp:75] Number of files: 4
I0204 14:26:58.739514 25319 hdf5_data_layer.cpp:29] Loading HDF5 file/scratch/stephenchen/shapes/singleNet/hdf5/test_batch_35x35/testHDF_1_35x35.h5
I0204 14:27:23.183648 25319 hdf5_data_layer.cpp:55] Successully loaded 112600 rows
I0204 14:27:23.183679 25319 hdf5_data_layer.cpp:89] output data size: 10,4,35,35
I0204 14:27:23.183691 25319 net.cpp:103] Top shape: 10 4 35 35 (49000)
I0204 14:27:23.183698 25319 net.cpp:103] Top shape: 10 1 1 1 (10)
I0204 14:27:23.183704 25319 net.cpp:103] Top shape: 10 1 1 1 (10)
I0204 14:27:23.183722 25319 net.cpp:67] Creating Layer label_data_1_split
I0204 14:27:23.183730 25319 net.cpp:394] label_data_1_split <- label
I0204 14:27:23.183742 25319 net.cpp:356] label_data_1_split -> label_data_1_split_0
I0204 14:27:23.183758 25319 net.cpp:356] label_data_1_split -> label_data_1_split_1
I0204 14:27:23.183768 25319 net.cpp:96] Setting up label_data_1_split
I0204 14:27:23.183776 25319 net.cpp:103] Top shape: 10 1 1 1 (10)
I0204 14:27:23.183784 25319 net.cpp:103] Top shape: 10 1 1 1 (10)
I0204 14:27:23.183796 25319 net.cpp:67] Creating Layer conv1
I0204 14:27:23.183804 25319 net.cpp:394] conv1 <- data
I0204 14:27:23.183814 25319 net.cpp:356] conv1 -> conv1
I0204 14:27:23.183825 25319 net.cpp:96] Setting up conv1
I0204 14:27:23.183984 25319 net.cpp:103] Top shape: 10 96 31 31 (922560)
I0204 14:27:23.184005 25319 net.cpp:67] Creating Layer pool1
I0204 14:27:23.184012 25319 net.cpp:394] pool1 <- conv1
I0204 14:27:23.184021 25319 net.cpp:356] pool1 -> pool1
I0204 14:27:23.184032 25319 net.cpp:96] Setting up pool1
I0204 14:27:23.184041 25319 net.cpp:103] Top shape: 10 96 16 16 (245760)
I0204 14:27:23.184053 25319 net.cpp:67] Creating Layer conv2
I0204 14:27:23.184061 25319 net.cpp:394] conv2 <- pool1
I0204 14:27:23.184069 25319 net.cpp:356] conv2 -> conv2
I0204 14:27:23.184080 25319 net.cpp:96] Setting up conv2
I0204 14:27:23.187578 25319 net.cpp:103] Top shape: 10 256 14 14 (501760)
I0204 14:27:23.187602 25319 net.cpp:67] Creating Layer pool2
I0204 14:27:23.187609 25319 net.cpp:394] pool2 <- conv2
I0204 14:27:23.187619 25319 net.cpp:356] pool2 -> pool2
I0204 14:27:23.187631 25319 net.cpp:96] Setting up pool2
I0204 14:27:23.187644 25319 net.cpp:103] Top shape: 10 256 7 7 (125440)
I0204 14:27:23.187652 25319 net.cpp:67] Creating Layer conv3
I0204 14:27:23.187657 25319 net.cpp:394] conv3 <- pool2
I0204 14:27:23.187664 25319 net.cpp:356] conv3 -> conv3
I0204 14:27:23.187671 25319 net.cpp:96] Setting up conv3
I0204 14:27:23.189285 25319 net.cpp:103] Top shape: 10 64 5 5 (16000)
I0204 14:27:23.189303 25319 net.cpp:67] Creating Layer ip1
I0204 14:27:23.189308 25319 net.cpp:394] ip1 <- conv3
I0204 14:27:23.189316 25319 net.cpp:356] ip1 -> ip1
I0204 14:27:23.189323 25319 net.cpp:96] Setting up ip1
I0204 14:27:23.207782 25319 net.cpp:103] Top shape: 10 1024 1 1 (10240)
I0204 14:27:23.207820 25319 net.cpp:67] Creating Layer relu1
I0204 14:27:23.207828 25319 net.cpp:394] relu1 <- ip1
I0204 14:27:23.207836 25319 net.cpp:345] relu1 -> ip1 (in-place)
I0204 14:27:23.207845 25319 net.cpp:96] Setting up relu1
I0204 14:27:23.207850 25319 net.cpp:103] Top shape: 10 1024 1 1 (10240)
I0204 14:27:23.207859 25319 net.cpp:67] Creating Layer ip2
I0204 14:27:23.207864 25319 net.cpp:394] ip2 <- ip1
I0204 14:27:23.207870 25319 net.cpp:356] ip2 -> ip2
I0204 14:27:23.207878 25319 net.cpp:96] Setting up ip2
I0204 14:27:23.219688 25319 net.cpp:103] Top shape: 10 1024 1 1 (10240)
I0204 14:27:23.219720 25319 net.cpp:67] Creating Layer relu2
I0204 14:27:23.219727 25319 net.cpp:394] relu2 <- ip2
I0204 14:27:23.219735 25319 net.cpp:345] relu2 -> ip2 (in-place)
I0204 14:27:23.219743 25319 net.cpp:96] Setting up relu2
I0204 14:27:23.219748 25319 net.cpp:103] Top shape: 10 1024 1 1 (10240)
I0204 14:27:23.219755 25319 net.cpp:67] Creating Layer ip3
I0204 14:27:23.219760 25319 net.cpp:394] ip3 <- ip2
I0204 14:27:23.219766 25319 net.cpp:356] ip3 -> ip3
I0204 14:27:23.219780 25319 net.cpp:96] Setting up ip3
I0204 14:27:23.219811 25319 net.cpp:103] Top shape: 10 2 1 1 (20)
I0204 14:27:23.219820 25319 net.cpp:67] Creating Layer ip3_ip3_0_split
I0204 14:27:23.219825 25319 net.cpp:394] ip3_ip3_0_split <- ip3
I0204 14:27:23.219832 25319 net.cpp:356] ip3_ip3_0_split -> ip3_ip3_0_split_0
I0204 14:27:23.219840 25319 net.cpp:356] ip3_ip3_0_split -> ip3_ip3_0_split_1
I0204 14:27:23.219846 25319 net.cpp:96] Setting up ip3_ip3_0_split
I0204 14:27:23.219851 25319 net.cpp:103] Top shape: 10 2 1 1 (20)
I0204 14:27:23.219856 25319 net.cpp:103] Top shape: 10 2 1 1 (20)
I0204 14:27:23.219863 25319 net.cpp:67] Creating Layer accuracy
I0204 14:27:23.219868 25319 net.cpp:394] accuracy <- ip3_ip3_0_split_0
I0204 14:27:23.219873 25319 net.cpp:394] accuracy <- label_data_1_split_0
I0204 14:27:23.219880 25319 net.cpp:356] accuracy -> accuracy
I0204 14:27:23.219887 25319 net.cpp:96] Setting up accuracy
I0204 14:27:23.219892 25319 net.cpp:103] Top shape: 1 1 1 1 (1)
I0204 14:27:23.219900 25319 net.cpp:67] Creating Layer loss
I0204 14:27:23.219905 25319 net.cpp:394] loss <- ip3_ip3_0_split_1
I0204 14:27:23.219910 25319 net.cpp:394] loss <- label_data_1_split_1
I0204 14:27:23.219916 25319 net.cpp:394] loss <- sample_weight
I0204 14:27:23.219923 25319 net.cpp:356] loss -> loss
I0204 14:27:23.219930 25319 net.cpp:96] Setting up loss
I0204 14:27:23.219939 25319 net.cpp:103] Top shape: 1 1 1 1 (1)
I0204 14:27:23.219944 25319 net.cpp:109]     with loss weight 1
I0204 14:27:23.219957 25319 net.cpp:170] loss needs backward computation.
I0204 14:27:23.219964 25319 net.cpp:172] accuracy does not need backward computation.
I0204 14:27:23.219967 25319 net.cpp:170] ip3_ip3_0_split needs backward computation.
I0204 14:27:23.219972 25319 net.cpp:170] ip3 needs backward computation.
I0204 14:27:23.219977 25319 net.cpp:170] relu2 needs backward computation.
…
