…
I0225 13:51:48.900766 27832 net.cpp:275] The NetState phase (0) differed from the phase (1) specified by a rule in layer data
I0225 13:51:48.900786 27832 net.cpp:275] The NetState phase (0) differed from the phase (1) specified by a rule in layer accuracy
I0225 13:51:48.900933 27832 net.cpp:39] Initializing net from parameters: 
name: "LogisticRegressionNet"
layers {
  top: "data"
  top: "label"
  top: "sample_weight"
  name: "data"
  type: HDF5_DATA
  hdf5_data_param {
    source: "/share/project/shapes/caffe-weighted-samples/examples/singleNet/trainFileList.txt"
    batch_size: 100
  }
  include {
    phase: TRAIN
  }
}
layers {
  bottom: "data"
  top: "conv1"
  name: "conv1"
  type: CONVOLUTION
  blobs_lr: 1
  blobs_lr: 2
  convolution_param {
    num_output: 96
    kernel_size: 4
    stride: 1
    weight_filler {
      type: "xavier"
    }
    bias_filler {
      type: "constant"
    }
  }
}
layers {
  bottom: "conv1"
  top: "conv1"
  name: "relu_conv1"
  type: RELU
}
layers {
  bottom: "conv1"
  top: "pool1"
  name: "pool1"
  type: POOLING
  pooling_param {
    pool: MAX
    kernel_size: 2
    stride: 2
  }
}
layers {
  bottom: "pool1"
  top: "conv2"
  name: "conv2"
  type: CONVOLUTION
  blobs_lr: 1
  blobs_lr: 2
  convolution_param {
    num_output: 256
    kernel_size: 3
    stride: 1
    weight_filler {
      type: "xavier"
    }
    bias_filler {
      type: "constant"
    }
  }
}
layers {
  bottom: "conv2"
  top: "conv2"
  name: "relu_conv2"
  type: RELU
}
layers {
  bottom: "conv2"
  top: "pool2"
  name: "pool2"
  type: POOLING
  pooling_param {
    pool: MAX
    kernel_size: 2
    stride: 2
  }
}
layers {
  bottom: "pool2"
  top: "conv3"
  name: "conv3"
  type: CONVOLUTION
  blobs_lr: 1
  blobs_lr: 2
  convolution_param {
    num_output: 64
    kernel_size: 4
    stride: 1
    weight_filler {
      type: "xavier"
    }
    bias_filler {
      type: "constant"
    }
  }
}
layers {
  bottom: "conv3"
  top: "conv3"
  name: "relu_conv3"
  type: RELU
}
layers {
  bottom: "conv3"
  top: "ip1"
  name: "ip1"
  type: INNER_PRODUCT
  blobs_lr: 1
  blobs_lr: 2
  inner_product_param {
    num_output: 256
    weight_filler {
      type: "xavier"
    }
    bias_filler {
      type: "constant"
    }
  }
}
layers {
  bottom: "ip1"
  top: "ip1"
  name: "relu1"
  type: RELU
}
layers {
  bottom: "ip1"
  top: "ip2"
  name: "ip2"
  type: INNER_PRODUCT
  blobs_lr: 1
  blobs_lr: 2
  inner_product_param {
    num_output: 256
    weight_filler {
      type: "xavier"
    }
    bias_filler {
      type: "constant"
    }
  }
}
layers {
  bottom: "ip2"
  top: "ip2"
  name: "relu2"
  type: RELU
}
layers {
  bottom: "ip2"
  top: "ip3"
  name: "ip3"
  type: INNER_PRODUCT
  blobs_lr: 1
  blobs_lr: 2
  inner_product_param {
    num_output: 2
    weight_filler {
      type: "xavier"
    }
    bias_filler {
      type: "constant"
    }
  }
}
layers {
  bottom: "ip3"
  bottom: "label"
  bottom: "sample_weight"
  top: "loss"
  name: "loss"
  type: SOFTMAX_LOSS
}
state {
  phase: TRAIN
}
I0225 13:51:48.901087 27832 net.cpp:67] Creating Layer data
I0225 13:51:48.901096 27832 net.cpp:356] data -> data
I0225 13:51:48.901121 27832 net.cpp:356] data -> label
I0225 13:51:48.901139 27832 net.cpp:356] data -> sample_weight
I0225 13:51:48.901147 27832 net.cpp:96] Setting up data
I0225 13:51:48.901154 27832 hdf5_data_layer.cpp:63] Loading filename from /share/project/shapes/caffe-weighted-samples/examples/singleNet/trainFileList.txt
I0225 13:51:48.901993 27832 hdf5_data_layer.cpp:75] Number of files: 2
I0225 13:51:48.902009 27832 hdf5_data_layer.cpp:29] Loading HDF5 file/scratch/stephenchen/shapes/singleNet/hdf5/train_batch_35x35/trainHDF_2_35x35.h5
I0225 13:52:51.147604 27832 hdf5_data_layer.cpp:55] Successully loaded 196600 rows
I0225 13:52:51.451447 27832 hdf5_data_layer.cpp:89] output data size: 100,4,35,35
I0225 13:52:51.469806 27832 net.cpp:103] Top shape: 100 4 35 35 (490000)
I0225 13:52:51.469830 27832 net.cpp:103] Top shape: 100 1 1 1 (100)
I0225 13:52:51.469838 27832 net.cpp:103] Top shape: 100 1 1 1 (100)
I0225 13:52:51.469857 27832 net.cpp:67] Creating Layer conv1
I0225 13:52:51.469866 27832 net.cpp:394] conv1 <- data
I0225 13:52:51.469971 27832 net.cpp:356] conv1 -> conv1
I0225 13:52:51.469990 27832 net.cpp:96] Setting up conv1
I0225 13:52:51.589037 27832 net.cpp:103] Top shape: 100 96 32 32 (9830400)
I0225 13:52:51.589139 27832 net.cpp:67] Creating Layer relu_conv1
I0225 13:52:51.589151 27832 net.cpp:394] relu_conv1 <- conv1
I0225 13:52:51.589161 27832 net.cpp:345] relu_conv1 -> conv1 (in-place)
I0225 13:52:51.589174 27832 net.cpp:96] Setting up relu_conv1
I0225 13:52:51.589181 27832 net.cpp:103] Top shape: 100 96 32 32 (9830400)
I0225 13:52:51.589191 27832 net.cpp:67] Creating Layer pool1
I0225 13:52:51.589198 27832 net.cpp:394] pool1 <- conv1
I0225 13:52:51.589208 27832 net.cpp:356] pool1 -> pool1
I0225 13:52:51.589220 27832 net.cpp:96] Setting up pool1
I0225 13:52:51.589249 27832 net.cpp:103] Top shape: 100 96 16 16 (2457600)
I0225 13:52:51.589263 27832 net.cpp:67] Creating Layer conv2
I0225 13:52:51.589270 27832 net.cpp:394] conv2 <- pool1
I0225 13:52:51.589282 27832 net.cpp:356] conv2 -> conv2
I0225 13:52:51.589293 27832 net.cpp:96] Setting up conv2
I0225 13:52:51.593351 27832 net.cpp:103] Top shape: 100 256 14 14 (5017600)
I0225 13:52:51.593386 27832 net.cpp:67] Creating Layer relu_conv2
I0225 13:52:51.593396 27832 net.cpp:394] relu_conv2 <- conv2
I0225 13:52:51.593410 27832 net.cpp:345] relu_conv2 -> conv2 (in-place)
I0225 13:52:51.593421 27832 net.cpp:96] Setting up relu_conv2
I0225 13:52:51.593430 27832 net.cpp:103] Top shape: 100 256 14 14 (5017600)
I0225 13:52:51.593441 27832 net.cpp:67] Creating Layer pool2
I0225 13:52:51.593449 27832 net.cpp:394] pool2 <- conv2
I0225 13:52:51.593461 27832 net.cpp:356] pool2 -> pool2
I0225 13:52:51.593473 27832 net.cpp:96] Setting up pool2
I0225 13:52:51.593483 27832 net.cpp:103] Top shape: 100 256 7 7 (1254400)
I0225 13:52:51.593497 27832 net.cpp:67] Creating Layer conv3
I0225 13:52:51.593505 27832 net.cpp:394] conv3 <- pool2
I0225 13:52:51.593516 27832 net.cpp:356] conv3 -> conv3
I0225 13:52:51.593560 27832 net.cpp:96] Setting up conv3
I0225 13:52:51.598245 27832 net.cpp:103] Top shape: 100 64 4 4 (102400)
I0225 13:52:51.598266 27832 net.cpp:67] Creating Layer relu_conv3
I0225 13:52:51.598273 27832 net.cpp:394] relu_conv3 <- conv3
I0225 13:52:51.598278 27832 net.cpp:345] relu_conv3 -> conv3 (in-place)
I0225 13:52:51.598286 27832 net.cpp:96] Setting up relu_conv3
I0225 13:52:51.598291 27832 net.cpp:103] Top shape: 100 64 4 4 (102400)
I0225 13:52:51.598299 27832 net.cpp:67] Creating Layer ip1
I0225 13:52:51.598304 27832 net.cpp:394] ip1 <- conv3
I0225 13:52:51.598309 27832 net.cpp:356] ip1 -> ip1
I0225 13:52:51.598319 27832 net.cpp:96] Setting up ip1
I0225 13:52:51.601290 27832 net.cpp:103] Top shape: 100 256 1 1 (25600)
I0225 13:52:51.601306 27832 net.cpp:67] Creating Layer relu1
I0225 13:52:51.601311 27832 net.cpp:394] relu1 <- ip1
I0225 13:52:51.601318 27832 net.cpp:345] relu1 -> ip1 (in-place)
I0225 13:52:51.601325 27832 net.cpp:96] Setting up relu1
I0225 13:52:51.601330 27832 net.cpp:103] Top shape: 100 256 1 1 (25600)
I0225 13:52:51.601337 27832 net.cpp:67] Creating Layer ip2
I0225 13:52:51.601342 27832 net.cpp:394] ip2 <- ip1
I0225 13:52:51.601349 27832 net.cpp:356] ip2 -> ip2
I0225 13:52:51.601356 27832 net.cpp:96] Setting up ip2
I0225 13:52:51.602053 27832 net.cpp:103] Top shape: 100 256 1 1 (25600)
I0225 13:52:51.602071 27832 net.cpp:67] Creating Layer relu2
I0225 13:52:51.602077 27832 net.cpp:394] relu2 <- ip2
I0225 13:52:51.602082 27832 net.cpp:345] relu2 -> ip2 (in-place)
I0225 13:52:51.602089 27832 net.cpp:96] Setting up relu2
I0225 13:52:51.602094 27832 net.cpp:103] Top shape: 100 256 1 1 (25600)
I0225 13:52:51.602102 27832 net.cpp:67] Creating Layer ip3
I0225 13:52:51.602107 27832 net.cpp:394] ip3 <- ip2
I0225 13:52:51.602113 27832 net.cpp:356] ip3 -> ip3
I0225 13:52:51.602120 27832 net.cpp:96] Setting up ip3
I0225 13:52:51.602134 27832 net.cpp:103] Top shape: 100 2 1 1 (200)
I0225 13:52:51.602147 27832 net.cpp:67] Creating Layer loss
I0225 13:52:51.602154 27832 net.cpp:394] loss <- ip3
I0225 13:52:51.602159 27832 net.cpp:394] loss <- label
I0225 13:52:51.602164 27832 net.cpp:394] loss <- sample_weight
I0225 13:52:51.602171 27832 net.cpp:356] loss -> loss
I0225 13:52:51.602179 27832 net.cpp:96] Setting up loss
I0225 13:52:51.602187 27832 net.cpp:103] Top shape: 1 1 1 1 (1)
I0225 13:52:51.602193 27832 net.cpp:109]     with loss weight 1
I0225 13:52:51.602262 27832 net.cpp:170] loss needs backward computation.
I0225 13:52:51.602268 27832 net.cpp:170] ip3 needs backward computation.
I0225 13:52:51.602273 27832 net.cpp:170] relu2 needs backward computation.
I0225 13:52:51.602277 27832 net.cpp:170] ip2 needs backward computation.
I0225 13:52:51.602283 27832 net.cpp:170] relu1 needs backward computation.
…
I0225 13:52:51.927942 27832 solver.cpp:151] Creating test net (#0) specified by net file: examples/singleNet/train_val_v0.3.prototxt
I0225 13:52:51.928020 27832 net.cpp:275] The NetState phase (1) differed from the phase (0) specified by a rule in layer data
I0225 13:52:51.935627 27832 net.cpp:39] Initializing net from parameters: 
name: "LogisticRegressionNet"
layers {
  top: "data"
  top: "label"
  top: "sample_weight"
  name: "data"
  type: HDF5_DATA
  hdf5_data_param {
    source: "/share/project/shapes/caffe-weighted-samples/examples/singleNet/testFileList.txt"
    batch_size: 60
  }
  include {
    phase: TEST
  }
}
layers {
  bottom: "data"
  top: "conv1"
  name: "conv1"
  type: CONVOLUTION
  blobs_lr: 1
  blobs_lr: 2
  convolution_param {
    num_output: 96
    kernel_size: 4
    stride: 1
    weight_filler {
      type: "xavier"
    }
    bias_filler {
      type: "constant"
    }
  }
}
layers {
  bottom: "conv1"
  top: "conv1"
  name: "relu_conv1"
  type: RELU
}
layers {
  bottom: "conv1"
  top: "pool1"
  name: "pool1"
  type: POOLING
  pooling_param {
    pool: MAX
    kernel_size: 2
    stride: 2
  }
}
layers {
  bottom: "pool1"
  top: "conv2"
  name: "conv2"
  type: CONVOLUTION
  blobs_lr: 1
  blobs_lr: 2
  convolution_param {
    num_output: 256
    kernel_size: 3
    stride: 1
    weight_filler {
      type: "xavier"
    }
    bias_filler {
      type: "constant"
    }
  }
}
layers {
  bottom: "conv2"
  top: "conv2"
  name: "relu_conv2"
  type: RELU
}
layers {
  bottom: "conv2"
  top: "pool2"
  name: "pool2"
  type: POOLING
  pooling_param {
    pool: MAX
    kernel_size: 2
    stride: 2
  }
}
layers {
  bottom: "pool2"
  top: "conv3"
  name: "conv3"
  type: CONVOLUTION
  blobs_lr: 1
  blobs_lr: 2
  convolution_param {
    num_output: 64
    kernel_size: 4
    stride: 1
    weight_filler {
      type: "xavier"
    }
    bias_filler {
      type: "constant"
    }
  }
}
layers {
  bottom: "conv3"
  top: "conv3"
  name: "relu_conv3"
  type: RELU
}
layers {
  bottom: "conv3"
  top: "ip1"
  name: "ip1"
  type: INNER_PRODUCT
  blobs_lr: 1
  blobs_lr: 2
  inner_product_param {
    num_output: 256
    weight_filler {
      type: "xavier"
    }
    bias_filler {
      type: "constant"
    }
  }
}
layers {
  bottom: "ip1"
  top: "ip1"
  name: "relu1"
  type: RELU
}
layers {
  bottom: "ip1"
  top: "ip2"
  name: "ip2"
  type: INNER_PRODUCT
  blobs_lr: 1
  blobs_lr: 2
  inner_product_param {
    num_output: 256
    weight_filler {
      type: "xavier"
    }
    bias_filler {
      type: "constant"
    }
  }
}
layers {
  bottom: "ip2"
  top: "ip2"
  name: "relu2"
  type: RELU
}
layers {
  bottom: "ip2"
  top: "ip3"
  name: "ip3"
  type: INNER_PRODUCT
  blobs_lr: 1
  blobs_lr: 2
  inner_product_param {
    num_output: 2
    weight_filler {
      type: "xavier"
    }
    bias_filler {
      type: "constant"
    }
  }
}
layers {
  bottom: "ip3"
  bottom: "label"
  top: "accuracy"
  name: "accuracy"
  type: ACCURACY
  include {
    phase: TEST
  }
}
layers {
  bottom: "ip3"
  bottom: "label"
  bottom: "sample_weight"
  top: "loss"
  name: "loss"
  type: SOFTMAX_LOSS
}
state {
  phase: TEST
}
I0225 13:52:51.935924 27832 net.cpp:67] Creating Layer data
I0225 13:52:51.935941 27832 net.cpp:356] data -> data
I0225 13:52:51.935961 27832 net.cpp:356] data -> label
I0225 13:52:51.935976 27832 net.cpp:356] data -> sample_weight
I0225 13:52:51.935988 27832 net.cpp:96] Setting up data
I0225 13:52:51.935997 27832 hdf5_data_layer.cpp:63] Loading filename from /share/project/shapes/caffe-weighted-samples/examples/singleNet/testFileList.txt
I0225 13:52:52.118240 27832 hdf5_data_layer.cpp:75] Number of files: 1
I0225 13:52:52.118280 27832 hdf5_data_layer.cpp:29] Loading HDF5 file/scratch/stephenchen/shapes/singleNet/hdf5/test_batch_35x35/testHDF_1_35x35.h5
I0225 13:53:19.159646 27832 hdf5_data_layer.cpp:55] Successully loaded 59000 rows
I0225 13:53:19.159680 27832 hdf5_data_layer.cpp:89] output data size: 60,4,35,35
I0225 13:53:19.159692 27832 net.cpp:103] Top shape: 60 4 35 35 (294000)
I0225 13:53:19.159700 27832 net.cpp:103] Top shape: 60 1 1 1 (60)
I0225 13:53:19.159708 27832 net.cpp:103] Top shape: 60 1 1 1 (60)
I0225 13:53:19.159725 27832 net.cpp:67] Creating Layer label_data_1_split
I0225 13:53:19.159734 27832 net.cpp:394] label_data_1_split <- label
I0225 13:53:19.159746 27832 net.cpp:356] label_data_1_split -> label_data_1_split_0
I0225 13:53:19.159761 27832 net.cpp:356] label_data_1_split -> label_data_1_split_1
I0225 13:53:19.159773 27832 net.cpp:96] Setting up label_data_1_split
I0225 13:53:19.159782 27832 net.cpp:103] Top shape: 60 1 1 1 (60)
I0225 13:53:19.159790 27832 net.cpp:103] Top shape: 60 1 1 1 (60)
I0225 13:53:19.159803 27832 net.cpp:67] Creating Layer conv1
I0225 13:53:19.159811 27832 net.cpp:394] conv1 <- data
I0225 13:53:19.159822 27832 net.cpp:356] conv1 -> conv1
I0225 13:53:19.159833 27832 net.cpp:96] Setting up conv1
I0225 13:53:19.159950 27832 net.cpp:103] Top shape: 60 96 32 32 (5898240)
I0225 13:53:19.159972 27832 net.cpp:67] Creating Layer relu_conv1
I0225 13:53:19.159979 27832 net.cpp:394] relu_conv1 <- conv1
I0225 13:53:19.159989 27832 net.cpp:345] relu_conv1 -> conv1 (in-place)
I0225 13:53:19.160001 27832 net.cpp:96] Setting up relu_conv1
I0225 13:53:19.160007 27832 net.cpp:103] Top shape: 60 96 32 32 (5898240)
I0225 13:53:19.160018 27832 net.cpp:67] Creating Layer pool1
I0225 13:53:19.160027 27832 net.cpp:394] pool1 <- conv1
I0225 13:53:19.160035 27832 net.cpp:356] pool1 -> pool1
I0225 13:53:19.160047 27832 net.cpp:96] Setting up pool1
I0225 13:53:19.160056 27832 net.cpp:103] Top shape: 60 96 16 16 (1474560)
I0225 13:53:19.160068 27832 net.cpp:67] Creating Layer conv2
I0225 13:53:19.160074 27832 net.cpp:394] conv2 <- pool1
I0225 13:53:19.160084 27832 net.cpp:356] conv2 -> conv2
I0225 13:53:19.160094 27832 net.cpp:96] Setting up conv2
I0225 13:53:19.163805 27832 net.cpp:103] Top shape: 60 256 14 14 (3010560)
I0225 13:53:19.163830 27832 net.cpp:67] Creating Layer relu_conv2
I0225 13:53:19.163837 27832 net.cpp:394] relu_conv2 <- conv2
I0225 13:53:19.163847 27832 net.cpp:345] relu_conv2 -> conv2 (in-place)
I0225 13:53:19.163866 27832 net.cpp:96] Setting up relu_conv2
I0225 13:53:19.163872 27832 net.cpp:103] Top shape: 60 256 14 14 (3010560)
I0225 13:53:19.163882 27832 net.cpp:67] Creating Layer pool2
I0225 13:53:19.163889 27832 net.cpp:394] pool2 <- conv2
I0225 13:53:19.163899 27832 net.cpp:356] pool2 -> pool2
I0225 13:53:19.163910 27832 net.cpp:96] Setting up pool2
I0225 13:53:19.163920 27832 net.cpp:103] Top shape: 60 256 7 7 (752640)
I0225 13:53:19.163933 27832 net.cpp:67] Creating Layer conv3
I0225 13:53:19.163940 27832 net.cpp:394] conv3 <- pool2
I0225 13:53:19.163950 27832 net.cpp:356] conv3 -> conv3
I0225 13:53:19.163960 27832 net.cpp:96] Setting up conv3
I0225 13:53:19.168124 27832 net.cpp:103] Top shape: 60 64 4 4 (61440)
I0225 13:53:19.168143 27832 net.cpp:67] Creating Layer relu_conv3
I0225 13:53:19.168148 27832 net.cpp:394] relu_conv3 <- conv3
I0225 13:53:19.168154 27832 net.cpp:345] relu_conv3 -> conv3 (in-place)
I0225 13:53:19.168161 27832 net.cpp:96] Setting up relu_conv3
I0225 13:53:19.168165 27832 net.cpp:103] Top shape: 60 64 4 4 (61440)
I0225 13:53:19.168174 27832 net.cpp:67] Creating Layer ip1
I0225 13:53:19.168177 27832 net.cpp:394] ip1 <- conv3
I0225 13:53:19.168184 27832 net.cpp:356] ip1 -> ip1
I0225 13:53:19.168191 27832 net.cpp:96] Setting up ip1
I0225 13:53:19.171035 27832 net.cpp:103] Top shape: 60 256 1 1 (15360)
I0225 13:53:19.171051 27832 net.cpp:67] Creating Layer relu1
I0225 13:53:19.171056 27832 net.cpp:394] relu1 <- ip1
I0225 13:53:19.171062 27832 net.cpp:345] relu1 -> ip1 (in-place)
I0225 13:53:19.171069 27832 net.cpp:96] Setting up relu1
I0225 13:53:19.171074 27832 net.cpp:103] Top shape: 60 256 1 1 (15360)
I0225 13:53:19.171082 27832 net.cpp:67] Creating Layer ip2
I0225 13:53:19.171085 27832 net.cpp:394] ip2 <- ip1
I0225 13:53:19.171092 27832 net.cpp:356] ip2 -> ip2
I0225 13:53:19.171099 27832 net.cpp:96] Setting up ip2
I0225 13:53:19.171766 27832 net.cpp:103] Top shape: 60 256 1 1 (15360)
I0225 13:53:19.171783 27832 net.cpp:67] Creating Layer relu2
I0225 13:53:19.171789 27832 net.cpp:394] relu2 <- ip2
I0225 13:53:19.171797 27832 net.cpp:345] relu2 -> ip2 (in-place)
I0225 13:53:19.171802 27832 net.cpp:96] Setting up relu2
I0225 13:53:19.171808 27832 net.cpp:103] Top shape: 60 256 1 1 (15360)
I0225 13:53:19.171814 27832 net.cpp:67] Creating Layer ip3
I0225 13:53:19.171819 27832 net.cpp:394] ip3 <- ip2
I0225 13:53:19.171826 27832 net.cpp:356] ip3 -> ip3
I0225 13:53:19.171833 27832 net.cpp:96] Setting up ip3
I0225 13:53:19.171849 27832 net.cpp:103] Top shape: 60 2 1 1 (120)
I0225 13:53:19.171857 27832 net.cpp:67] Creating Layer ip3_ip3_0_split
I0225 13:53:19.171862 27832 net.cpp:394] ip3_ip3_0_split <- ip3
I0225 13:53:19.171869 27832 net.cpp:356] ip3_ip3_0_split -> ip3_ip3_0_split_0
I0225 13:53:19.171876 27832 net.cpp:356] ip3_ip3_0_split -> ip3_ip3_0_split_1
I0225 13:53:19.171883 27832 net.cpp:96] Setting up ip3_ip3_0_split
I0225 13:53:19.171888 27832 net.cpp:103] Top shape: 60 2 1 1 (120)
I0225 13:53:19.171893 27832 net.cpp:103] Top shape: 60 2 1 1 (120)
I0225 13:53:19.171902 27832 net.cpp:67] Creating Layer accuracy
I0225 13:53:19.171907 27832 net.cpp:394] accuracy <- ip3_ip3_0_split_0
I0225 13:53:19.171912 27832 net.cpp:394] accuracy <- label_data_1_split_0
I0225 13:53:19.171919 27832 net.cpp:356] accuracy -> accuracy
I0225 13:53:19.171926 27832 net.cpp:96] Setting up accuracy
I0225 13:53:19.171932 27832 net.cpp:103] Top shape: 1 1 1 1 (1)
I0225 13:53:19.171939 27832 net.cpp:67] Creating Layer loss
I0225 13:53:19.171944 27832 net.cpp:394] loss <- ip3_ip3_0_split_1
I0225 13:53:19.171949 27832 net.cpp:394] loss <- label_data_1_split_1
I0225 13:53:19.171955 27832 net.cpp:394] loss <- sample_weight
I0225 13:53:19.171962 27832 net.cpp:356] loss -> loss
I0225 13:53:19.171969 27832 net.cpp:96] Setting up loss
I0225 13:53:19.171977 27832 net.cpp:103] Top shape: 1 1 1 1 (1)
I0225 13:53:19.171983 27832 net.cpp:109]     with loss weight 1
I0225 13:53:19.171996 27832 net.cpp:170] loss needs backward computation.
I0225 13:53:19.172001 27832 net.cpp:172] accuracy does not need backward computation.
I0225 13:53:19.172010 27832 net.cpp:170] ip3_ip3_0_split needs backward computation.
I0225 13:53:19.172015 27832 net.cpp:170] ip3 needs backward computation.
I0225 13:53:19.172020 27832 net.cpp:170] relu2 needs backward computation.
…
