Log file created at: 2015/02/26 19:02:27
Running on machine: poincare.tti-c.org
Log line format: [IWEF]mmdd hh:mm:ss.uuuuuu threadid file:line] msg
I0226 19:02:27.833516 27710 caffe.cpp:134] Use GPU with device ID 0
I0226 19:02:28.177223 27710 net.cpp:39] Initializing net from parameters: 
name: "LogisticRegressionNet"
layers {
  bottom: "data"
  top: "conv1"
  name: "conv1"
  type: CONVOLUTION
  blobs_lr: 1
  blobs_lr: 2
  convolution_param {
    num_output: 96
    kernel_size: 4
    stride: 1
    weight_filler {
      type: "xavier"
    }
    bias_filler {
      type: "constant"
    }
  }
}
layers {
  bottom: "conv1"
  top: "conv1"
  name: "relu_conv1"
  type: RELU
}
layers {
  bottom: "conv1"
  top: "pool1"
  name: "pool1"
  type: POOLING
  pooling_param {
    pool: MAX
    kernel_size: 2
    stride: 2
  }
}
layers {
  bottom: "pool1"
  top: "conv2"
  name: "conv2"
  type: CONVOLUTION
  blobs_lr: 1
  blobs_lr: 2
  convolution_param {
    num_output: 256
    kernel_size: 3
    stride: 1
    weight_filler {
      type: "xavier"
    }
    bias_filler {
      type: "constant"
    }
  }
}
layers {
  bottom: "conv2"
  top: "conv2"
  name: "relu_conv2"
  type: RELU
}
layers {
  bottom: "conv2"
  top: "pool2"
  name: "pool2"
  type: POOLING
  pooling_param {
    pool: MAX
    kernel_size: 2
    stride: 2
  }
}
layers {
  bottom: "pool2"
  top: "conv3"
  name: "conv3"
  type: CONVOLUTION
  blobs_lr: 1
  blobs_lr: 2
  convolution_param {
    num_output: 64
    kernel_size: 4
    stride: 1
    weight_filler {
      type: "xavier"
    }
    bias_filler {
      type: "constant"
    }
  }
}
layers {
  bottom: "conv3"
  top: "conv3"
  name: "relu_conv3"
  type: RELU
}
layers {
  bottom: "conv3"
  top: "ip1"
  name: "ip1"
  type: INNER_PRODUCT
  blobs_lr: 1
  blobs_lr: 2
  inner_product_param {
    num_output: 256
    weight_filler {
      type: "xavier"
    }
    bias_filler {
      type: "constant"
    }
  }
}
layers {
  bottom: "ip1"
  top: "ip1"
  name: "relu1"
  type: RELU
}
layers {
  bottom: "ip1"
  top: "ip2"
  name: "ip2"
  type: INNER_PRODUCT
  blobs_lr: 1
  blobs_lr: 2
  inner_product_param {
    num_output: 256
    weight_filler {
      type: "xavier"
    }
    bias_filler {
      type: "constant"
    }
  }
}
layers {
  bottom: "ip2"
  top: "ip2"
  name: "relu2"
  type: RELU
}
layers {
  bottom: "ip2"
  top: "ip3"
  name: "ip3"
  type: INNER_PRODUCT
  blobs_lr: 1
  blobs_lr: 2
  inner_product_param {
    num_output: 2
    weight_filler {
      type: "xavier"
    }
    bias_filler {
      type: "constant"
    }
  }
}
layers {
  bottom: "ip3"
  top: "output"
  name: "output"
  type: SOFTMAX
}
input: "data"
input_dim: 40
input_dim: 4
input_dim: 35
input_dim: 35
I0226 19:02:28.177413 27710 net.cpp:358] Input 0 -> data
I0226 19:02:28.177466 27710 net.cpp:67] Creating Layer conv1
I0226 19:02:28.177474 27710 net.cpp:394] conv1 <- data
I0226 19:02:28.177482 27710 net.cpp:356] conv1 -> conv1
I0226 19:02:28.177502 27710 net.cpp:96] Setting up conv1
I0226 19:02:28.178163 27710 net.cpp:103] Top shape: 40 96 32 32 (3932160)
I0226 19:02:28.178215 27710 net.cpp:67] Creating Layer relu_conv1
I0226 19:02:28.178222 27710 net.cpp:394] relu_conv1 <- conv1
I0226 19:02:28.178230 27710 net.cpp:345] relu_conv1 -> conv1 (in-place)
I0226 19:02:28.178236 27710 net.cpp:96] Setting up relu_conv1
I0226 19:02:28.178241 27710 net.cpp:103] Top shape: 40 96 32 32 (3932160)
I0226 19:02:28.178248 27710 net.cpp:67] Creating Layer pool1
I0226 19:02:28.178253 27710 net.cpp:394] pool1 <- conv1
I0226 19:02:28.178259 27710 net.cpp:356] pool1 -> pool1
I0226 19:02:28.178274 27710 net.cpp:96] Setting up pool1
I0226 19:02:28.178292 27710 net.cpp:103] Top shape: 40 96 16 16 (983040)
I0226 19:02:28.178300 27710 net.cpp:67] Creating Layer conv2
I0226 19:02:28.178305 27710 net.cpp:394] conv2 <- pool1
I0226 19:02:28.178313 27710 net.cpp:356] conv2 -> conv2
I0226 19:02:28.178319 27710 net.cpp:96] Setting up conv2
I0226 19:02:28.180863 27710 net.cpp:103] Top shape: 40 256 14 14 (2007040)
I0226 19:02:28.180881 27710 net.cpp:67] Creating Layer relu_conv2
I0226 19:02:28.180887 27710 net.cpp:394] relu_conv2 <- conv2
I0226 19:02:28.180893 27710 net.cpp:345] relu_conv2 -> conv2 (in-place)
I0226 19:02:28.180901 27710 net.cpp:96] Setting up relu_conv2
I0226 19:02:28.180905 27710 net.cpp:103] Top shape: 40 256 14 14 (2007040)
I0226 19:02:28.180914 27710 net.cpp:67] Creating Layer pool2
I0226 19:02:28.180919 27710 net.cpp:394] pool2 <- conv2
I0226 19:02:28.180927 27710 net.cpp:356] pool2 -> pool2
I0226 19:02:28.180933 27710 net.cpp:96] Setting up pool2
I0226 19:02:28.180939 27710 net.cpp:103] Top shape: 40 256 7 7 (501760)
I0226 19:02:28.180946 27710 net.cpp:67] Creating Layer conv3
I0226 19:02:28.180951 27710 net.cpp:394] conv3 <- pool2
I0226 19:02:28.180959 27710 net.cpp:356] conv3 -> conv3
I0226 19:02:28.180968 27710 net.cpp:96] Setting up conv3
I0226 19:02:28.183986 27710 net.cpp:103] Top shape: 40 64 4 4 (40960)
I0226 19:02:28.184005 27710 net.cpp:67] Creating Layer relu_conv3
I0226 19:02:28.184010 27710 net.cpp:394] relu_conv3 <- conv3
I0226 19:02:28.184017 27710 net.cpp:345] relu_conv3 -> conv3 (in-place)
I0226 19:02:28.184023 27710 net.cpp:96] Setting up relu_conv3
I0226 19:02:28.184028 27710 net.cpp:103] Top shape: 40 64 4 4 (40960)
I0226 19:02:28.184038 27710 net.cpp:67] Creating Layer ip1
I0226 19:02:28.184043 27710 net.cpp:394] ip1 <- conv3
I0226 19:02:28.184051 27710 net.cpp:356] ip1 -> ip1
I0226 19:02:28.184057 27710 net.cpp:96] Setting up ip1
I0226 19:02:28.187067 27710 net.cpp:103] Top shape: 40 256 1 1 (10240)
I0226 19:02:28.187083 27710 net.cpp:67] Creating Layer relu1
I0226 19:02:28.187088 27710 net.cpp:394] relu1 <- ip1
I0226 19:02:28.187096 27710 net.cpp:345] relu1 -> ip1 (in-place)
I0226 19:02:28.187103 27710 net.cpp:96] Setting up relu1
I0226 19:02:28.187108 27710 net.cpp:103] Top shape: 40 256 1 1 (10240)
I0226 19:02:28.187115 27710 net.cpp:67] Creating Layer ip2
I0226 19:02:28.187119 27710 net.cpp:394] ip2 <- ip1
I0226 19:02:28.187126 27710 net.cpp:356] ip2 -> ip2
I0226 19:02:28.187135 27710 net.cpp:96] Setting up ip2
I0226 19:02:28.187901 27710 net.cpp:103] Top shape: 40 256 1 1 (10240)
I0226 19:02:28.187921 27710 net.cpp:67] Creating Layer relu2
I0226 19:02:28.187927 27710 net.cpp:394] relu2 <- ip2
I0226 19:02:28.187932 27710 net.cpp:345] relu2 -> ip2 (in-place)
I0226 19:02:28.187939 27710 net.cpp:96] Setting up relu2
I0226 19:02:28.187943 27710 net.cpp:103] Top shape: 40 256 1 1 (10240)
I0226 19:02:28.187950 27710 net.cpp:67] Creating Layer ip3
I0226 19:02:28.187955 27710 net.cpp:394] ip3 <- ip2
I0226 19:02:28.187963 27710 net.cpp:356] ip3 -> ip3
I0226 19:02:28.187971 27710 net.cpp:96] Setting up ip3
I0226 19:02:28.187988 27710 net.cpp:103] Top shape: 40 2 1 1 (80)
I0226 19:02:28.187999 27710 net.cpp:67] Creating Layer output
I0226 19:02:28.188004 27710 net.cpp:394] output <- ip3
I0226 19:02:28.188010 27710 net.cpp:356] output -> output
I0226 19:02:28.188017 27710 net.cpp:96] Setting up output
I0226 19:02:28.188022 27710 net.cpp:103] Top shape: 40 2 1 1 (80)
I0226 19:02:28.188027 27710 net.cpp:172] output does not need backward computation.
I0226 19:02:28.188032 27710 net.cpp:172] ip3 does not need backward computation.
I0226 19:02:28.188036 27710 net.cpp:172] relu2 does not need backward computation.
I0226 19:02:28.188040 27710 net.cpp:172] ip2 does not need backward computation.
I0226 19:02:28.188045 27710 net.cpp:172] relu1 does not need backward computation.
…
