…
I0225 14:54:07.007644  1480 net.cpp:275] The NetState phase (0) differed from the phase (1) specified by a rule in layer data
I0225 14:54:07.007664  1480 net.cpp:275] The NetState phase (0) differed from the phase (1) specified by a rule in layer accuracy
I0225 14:54:07.007815  1480 net.cpp:39] Initializing net from parameters: 
name: "LogisticRegressionNet"
layers {
  top: "data"
  top: "label"
  top: "sample_weight"
  name: "data"
  type: HDF5_DATA
  hdf5_data_param {
    source: "/share/project/shapes/caffe-weighted-samples/examples/singleNet/trainFileList.txt"
    batch_size: 100
  }
  include {
    phase: TRAIN
  }
}
layers {
  bottom: "data"
  top: "conv1"
  name: "conv1"
  type: CONVOLUTION
  blobs_lr: 1
  blobs_lr: 2
  convolution_param {
    num_output: 96
    kernel_size: 4
    stride: 1
    weight_filler {
      type: "xavier"
    }
    bias_filler {
      type: "constant"
    }
  }
}
layers {
  bottom: "conv1"
  top: "conv1"
  name: "relu_conv1"
  type: RELU
}
layers {
  bottom: "conv1"
  top: "pool1"
  name: "pool1"
  type: POOLING
  pooling_param {
    pool: MAX
    kernel_size: 2
    stride: 2
  }
}
layers {
  bottom: "pool1"
  top: "conv2"
  name: "conv2"
  type: CONVOLUTION
  blobs_lr: 1
  blobs_lr: 2
  convolution_param {
    num_output: 256
    kernel_size: 3
    stride: 1
    weight_filler {
      type: "xavier"
    }
    bias_filler {
      type: "constant"
    }
  }
}
layers {
  bottom: "conv2"
  top: "conv2"
  name: "relu_conv2"
  type: RELU
}
layers {
  bottom: "conv2"
  top: "pool2"
  name: "pool2"
  type: POOLING
  pooling_param {
    pool: MAX
    kernel_size: 2
    stride: 2
  }
}
layers {
  bottom: "pool2"
  top: "conv3"
  name: "conv3"
  type: CONVOLUTION
  blobs_lr: 1
  blobs_lr: 2
  convolution_param {
    num_output: 64
    kernel_size: 4
    stride: 1
    weight_filler {
      type: "xavier"
    }
    bias_filler {
      type: "constant"
    }
  }
}
layers {
  bottom: "conv3"
  top: "conv3"
  name: "relu_conv3"
  type: RELU
}
layers {
  bottom: "conv3"
  top: "ip1"
  name: "ip1"
  type: INNER_PRODUCT
  blobs_lr: 1
  blobs_lr: 2
  inner_product_param {
    num_output: 256
    weight_filler {
      type: "xavier"
    }
    bias_filler {
      type: "constant"
    }
  }
}
layers {
  bottom: "ip1"
  top: "ip1"
  name: "relu1"
  type: RELU
}
layers {
  bottom: "ip1"
  top: "ip2"
  name: "ip2"
  type: INNER_PRODUCT
  blobs_lr: 1
  blobs_lr: 2
  inner_product_param {
    num_output: 256
    weight_filler {
      type: "xavier"
    }
    bias_filler {
      type: "constant"
    }
  }
}
layers {
  bottom: "ip2"
  top: "ip2"
  name: "relu2"
  type: RELU
}
layers {
  bottom: "ip2"
  top: "ip3"
  name: "ip3"
  type: INNER_PRODUCT
  blobs_lr: 1
  blobs_lr: 2
  inner_product_param {
    num_output: 2
    weight_filler {
      type: "xavier"
    }
    bias_filler {
      type: "constant"
    }
  }
}
layers {
  bottom: "ip3"
  bottom: "label"
  bottom: "sample_weight"
  top: "loss"
  name: "loss"
  type: SOFTMAX_LOSS
}
state {
  phase: TRAIN
}
I0225 14:54:07.007972  1480 net.cpp:67] Creating Layer data
I0225 14:54:07.007983  1480 net.cpp:356] data -> data
I0225 14:54:07.008009  1480 net.cpp:356] data -> label
I0225 14:54:07.008026  1480 net.cpp:356] data -> sample_weight
I0225 14:54:07.008035  1480 net.cpp:96] Setting up data
I0225 14:54:07.008043  1480 hdf5_data_layer.cpp:63] Loading filename from /share/project/shapes/caffe-weighted-samples/examples/singleNet/trainFileList.txt
I0225 14:54:07.036679  1480 hdf5_data_layer.cpp:75] Number of files: 2
I0225 14:54:07.036710  1480 hdf5_data_layer.cpp:29] Loading HDF5 file/scratch/stephenchen/shapes/singleNet/hdf5/train_batch_35x35/trainHDF_1_35x35.h5
I0225 14:55:05.075692  1480 hdf5_data_layer.cpp:55] Successully loaded 196600 rows
I0225 14:55:05.076406  1480 hdf5_data_layer.cpp:89] output data size: 100,4,35,35
I0225 14:55:05.076486  1480 net.cpp:103] Top shape: 100 4 35 35 (490000)
I0225 14:55:05.076499  1480 net.cpp:103] Top shape: 100 1 1 1 (100)
I0225 14:55:05.076506  1480 net.cpp:103] Top shape: 100 1 1 1 (100)
I0225 14:55:05.076534  1480 net.cpp:67] Creating Layer conv1
I0225 14:55:05.076544  1480 net.cpp:394] conv1 <- data
I0225 14:55:05.076576  1480 net.cpp:356] conv1 -> conv1
I0225 14:55:05.076607  1480 net.cpp:96] Setting up conv1
I0225 14:55:05.077860  1480 net.cpp:103] Top shape: 100 96 32 32 (9830400)
I0225 14:55:05.077950  1480 net.cpp:67] Creating Layer relu_conv1
I0225 14:55:05.077963  1480 net.cpp:394] relu_conv1 <- conv1
I0225 14:55:05.077975  1480 net.cpp:345] relu_conv1 -> conv1 (in-place)
I0225 14:55:05.077988  1480 net.cpp:96] Setting up relu_conv1
I0225 14:55:05.077997  1480 net.cpp:103] Top shape: 100 96 32 32 (9830400)
I0225 14:55:05.078009  1480 net.cpp:67] Creating Layer pool1
I0225 14:55:05.078017  1480 net.cpp:394] pool1 <- conv1
I0225 14:55:05.078029  1480 net.cpp:356] pool1 -> pool1
I0225 14:55:05.078042  1480 net.cpp:96] Setting up pool1
I0225 14:55:05.078073  1480 net.cpp:103] Top shape: 100 96 16 16 (2457600)
I0225 14:55:05.078089  1480 net.cpp:67] Creating Layer conv2
I0225 14:55:05.078097  1480 net.cpp:394] conv2 <- pool1
I0225 14:55:05.078110  1480 net.cpp:356] conv2 -> conv2
I0225 14:55:05.078124  1480 net.cpp:96] Setting up conv2
I0225 14:55:05.080752  1480 net.cpp:103] Top shape: 100 256 14 14 (5017600)
I0225 14:55:05.080770  1480 net.cpp:67] Creating Layer relu_conv2
I0225 14:55:05.080775  1480 net.cpp:394] relu_conv2 <- conv2
I0225 14:55:05.080782  1480 net.cpp:345] relu_conv2 -> conv2 (in-place)
I0225 14:55:05.080788  1480 net.cpp:96] Setting up relu_conv2
I0225 14:55:05.080793  1480 net.cpp:103] Top shape: 100 256 14 14 (5017600)
I0225 14:55:05.080799  1480 net.cpp:67] Creating Layer pool2
I0225 14:55:05.080804  1480 net.cpp:394] pool2 <- conv2
I0225 14:55:05.080811  1480 net.cpp:356] pool2 -> pool2
I0225 14:55:05.080816  1480 net.cpp:96] Setting up pool2
I0225 14:55:05.080822  1480 net.cpp:103] Top shape: 100 256 7 7 (1254400)
I0225 14:55:05.080829  1480 net.cpp:67] Creating Layer conv3
I0225 14:55:05.080834  1480 net.cpp:394] conv3 <- pool2
I0225 14:55:05.080840  1480 net.cpp:356] conv3 -> conv3
I0225 14:55:05.080847  1480 net.cpp:96] Setting up conv3
I0225 14:55:05.083786  1480 net.cpp:103] Top shape: 100 64 4 4 (102400)
I0225 14:55:05.083806  1480 net.cpp:67] Creating Layer relu_conv3
I0225 14:55:05.083811  1480 net.cpp:394] relu_conv3 <- conv3
I0225 14:55:05.083817  1480 net.cpp:345] relu_conv3 -> conv3 (in-place)
I0225 14:55:05.083824  1480 net.cpp:96] Setting up relu_conv3
I0225 14:55:05.083829  1480 net.cpp:103] Top shape: 100 64 4 4 (102400)
I0225 14:55:05.083837  1480 net.cpp:67] Creating Layer ip1
I0225 14:55:05.083840  1480 net.cpp:394] ip1 <- conv3
I0225 14:55:05.083847  1480 net.cpp:356] ip1 -> ip1
I0225 14:55:05.083855  1480 net.cpp:96] Setting up ip1
I0225 14:55:05.086745  1480 net.cpp:103] Top shape: 100 256 1 1 (25600)
I0225 14:55:05.086761  1480 net.cpp:67] Creating Layer relu1
I0225 14:55:05.086767  1480 net.cpp:394] relu1 <- ip1
I0225 14:55:05.086773  1480 net.cpp:345] relu1 -> ip1 (in-place)
I0225 14:55:05.086781  1480 net.cpp:96] Setting up relu1
I0225 14:55:05.086786  1480 net.cpp:103] Top shape: 100 256 1 1 (25600)
I0225 14:55:05.086791  1480 net.cpp:67] Creating Layer ip2
I0225 14:55:05.086796  1480 net.cpp:394] ip2 <- ip1
I0225 14:55:05.086802  1480 net.cpp:356] ip2 -> ip2
I0225 14:55:05.086810  1480 net.cpp:96] Setting up ip2
I0225 14:55:05.087471  1480 net.cpp:103] Top shape: 100 256 1 1 (25600)
I0225 14:55:05.087487  1480 net.cpp:67] Creating Layer relu2
I0225 14:55:05.087492  1480 net.cpp:394] relu2 <- ip2
I0225 14:55:05.087499  1480 net.cpp:345] relu2 -> ip2 (in-place)
I0225 14:55:05.087507  1480 net.cpp:96] Setting up relu2
I0225 14:55:05.087512  1480 net.cpp:103] Top shape: 100 256 1 1 (25600)
I0225 14:55:05.087518  1480 net.cpp:67] Creating Layer ip3
I0225 14:55:05.087523  1480 net.cpp:394] ip3 <- ip2
I0225 14:55:05.087530  1480 net.cpp:356] ip3 -> ip3
I0225 14:55:05.087538  1480 net.cpp:96] Setting up ip3
I0225 14:55:05.087553  1480 net.cpp:103] Top shape: 100 2 1 1 (200)
I0225 14:55:05.087565  1480 net.cpp:67] Creating Layer loss
I0225 14:55:05.087571  1480 net.cpp:394] loss <- ip3
I0225 14:55:05.087577  1480 net.cpp:394] loss <- label
I0225 14:55:05.087584  1480 net.cpp:394] loss <- sample_weight
I0225 14:55:05.087589  1480 net.cpp:356] loss -> loss
I0225 14:55:05.087596  1480 net.cpp:96] Setting up loss
I0225 14:55:05.087606  1480 net.cpp:103] Top shape: 1 1 1 1 (1)
I0225 14:55:05.087611  1480 net.cpp:109]     with loss weight 1
I0225 14:55:05.087667  1480 net.cpp:170] loss needs backward computation.
I0225 14:55:05.087673  1480 net.cpp:170] ip3 needs backward computation.
I0225 14:55:05.087678  1480 net.cpp:170] relu2 needs backward computation.
I0225 14:55:05.087683  1480 net.cpp:170] ip2 needs backward computation.
I0225 14:55:05.087687  1480 net.cpp:170] relu1 needs backward computation.
…
I0225 14:55:05.811913  1480 solver.cpp:151] Creating test net (#0) specified by net file: examples/singleNet/train_val_v0.3.prototxt
I0225 14:55:05.812013  1480 net.cpp:275] The NetState phase (1) differed from the phase (0) specified by a rule in layer data
I0225 14:55:05.812355  1480 net.cpp:39] Initializing net from parameters: 
name: "LogisticRegressionNet"
layers {
  top: "data"
  top: "label"
  top: "sample_weight"
  name: "data"
  type: HDF5_DATA
  hdf5_data_param {
    source: "/share/project/shapes/caffe-weighted-samples/examples/singleNet/testFileList.txt"
    batch_size: 60
  }
  include {
    phase: TEST
  }
}
layers {
  bottom: "data"
  top: "conv1"
  name: "conv1"
  type: CONVOLUTION
  blobs_lr: 1
  blobs_lr: 2
  convolution_param {
    num_output: 96
    kernel_size: 4
    stride: 1
    weight_filler {
      type: "xavier"
    }
    bias_filler {
      type: "constant"
    }
  }
}
layers {
  bottom: "conv1"
  top: "conv1"
  name: "relu_conv1"
  type: RELU
}
layers {
  bottom: "conv1"
  top: "pool1"
  name: "pool1"
  type: POOLING
  pooling_param {
    pool: MAX
    kernel_size: 2
    stride: 2
  }
}
layers {
  bottom: "pool1"
  top: "conv2"
  name: "conv2"
  type: CONVOLUTION
  blobs_lr: 1
  blobs_lr: 2
  convolution_param {
    num_output: 256
    kernel_size: 3
    stride: 1
    weight_filler {
      type: "xavier"
    }
    bias_filler {
      type: "constant"
    }
  }
}
layers {
  bottom: "conv2"
  top: "conv2"
  name: "relu_conv2"
  type: RELU
}
layers {
  bottom: "conv2"
  top: "pool2"
  name: "pool2"
  type: POOLING
  pooling_param {
    pool: MAX
    kernel_size: 2
    stride: 2
  }
}
layers {
  bottom: "pool2"
  top: "conv3"
  name: "conv3"
  type: CONVOLUTION
  blobs_lr: 1
  blobs_lr: 2
  convolution_param {
    num_output: 64
    kernel_size: 4
    stride: 1
    weight_filler {
      type: "xavier"
    }
    bias_filler {
      type: "constant"
    }
  }
}
layers {
  bottom: "conv3"
  top: "conv3"
  name: "relu_conv3"
  type: RELU
}
layers {
  bottom: "conv3"
  top: "ip1"
  name: "ip1"
  type: INNER_PRODUCT
  blobs_lr: 1
  blobs_lr: 2
  inner_product_param {
    num_output: 256
    weight_filler {
      type: "xavier"
    }
    bias_filler {
      type: "constant"
    }
  }
}
layers {
  bottom: "ip1"
  top: "ip1"
  name: "relu1"
  type: RELU
}
layers {
  bottom: "ip1"
  top: "ip2"
  name: "ip2"
  type: INNER_PRODUCT
  blobs_lr: 1
  blobs_lr: 2
  inner_product_param {
    num_output: 256
    weight_filler {
      type: "xavier"
    }
    bias_filler {
      type: "constant"
    }
  }
}
layers {
  bottom: "ip2"
  top: "ip2"
  name: "relu2"
  type: RELU
}
layers {
  bottom: "ip2"
  top: "ip3"
  name: "ip3"
  type: INNER_PRODUCT
  blobs_lr: 1
  blobs_lr: 2
  inner_product_param {
    num_output: 2
    weight_filler {
      type: "xavier"
    }
    bias_filler {
      type: "constant"
    }
  }
}
layers {
  bottom: "ip3"
  bottom: "label"
  top: "accuracy"
  name: "accuracy"
  type: ACCURACY
  include {
    phase: TEST
  }
}
layers {
  bottom: "ip3"
  bottom: "label"
  bottom: "sample_weight"
  top: "loss"
  name: "loss"
  type: SOFTMAX_LOSS
}
state {
  phase: TEST
}
I0225 14:55:05.812726  1480 net.cpp:67] Creating Layer data
I0225 14:55:05.812737  1480 net.cpp:356] data -> data
I0225 14:55:05.812750  1480 net.cpp:356] data -> label
I0225 14:55:05.812758  1480 net.cpp:356] data -> sample_weight
I0225 14:55:05.812770  1480 net.cpp:96] Setting up data
I0225 14:55:05.812775  1480 hdf5_data_layer.cpp:63] Loading filename from /share/project/shapes/caffe-weighted-samples/examples/singleNet/testFileList.txt
I0225 14:55:06.319460  1480 hdf5_data_layer.cpp:75] Number of files: 1
I0225 14:55:06.319489  1480 hdf5_data_layer.cpp:29] Loading HDF5 file/scratch/stephenchen/shapes/singleNet/hdf5/test_batch_35x35/testHDF_1_35x35.h5
I0225 14:55:31.682816  1480 hdf5_data_layer.cpp:55] Successully loaded 59000 rows
I0225 14:55:31.682852  1480 hdf5_data_layer.cpp:89] output data size: 60,4,35,35
I0225 14:55:31.682862  1480 net.cpp:103] Top shape: 60 4 35 35 (294000)
I0225 14:55:31.682868  1480 net.cpp:103] Top shape: 60 1 1 1 (60)
I0225 14:55:31.682873  1480 net.cpp:103] Top shape: 60 1 1 1 (60)
I0225 14:55:31.682891  1480 net.cpp:67] Creating Layer label_data_1_split
I0225 14:55:31.682898  1480 net.cpp:394] label_data_1_split <- label
I0225 14:55:31.682909  1480 net.cpp:356] label_data_1_split -> label_data_1_split_0
I0225 14:55:31.682921  1480 net.cpp:356] label_data_1_split -> label_data_1_split_1
I0225 14:55:31.682930  1480 net.cpp:96] Setting up label_data_1_split
I0225 14:55:31.682936  1480 net.cpp:103] Top shape: 60 1 1 1 (60)
I0225 14:55:31.682942  1480 net.cpp:103] Top shape: 60 1 1 1 (60)
I0225 14:55:31.682955  1480 net.cpp:67] Creating Layer conv1
I0225 14:55:31.682960  1480 net.cpp:394] conv1 <- data
I0225 14:55:31.682966  1480 net.cpp:356] conv1 -> conv1
I0225 14:55:31.682975  1480 net.cpp:96] Setting up conv1
I0225 14:55:31.683061  1480 net.cpp:103] Top shape: 60 96 32 32 (5898240)
I0225 14:55:31.683079  1480 net.cpp:67] Creating Layer relu_conv1
I0225 14:55:31.683084  1480 net.cpp:394] relu_conv1 <- conv1
I0225 14:55:31.683091  1480 net.cpp:345] relu_conv1 -> conv1 (in-place)
I0225 14:55:31.683099  1480 net.cpp:96] Setting up relu_conv1
I0225 14:55:31.683104  1480 net.cpp:103] Top shape: 60 96 32 32 (5898240)
I0225 14:55:31.683112  1480 net.cpp:67] Creating Layer pool1
I0225 14:55:31.683117  1480 net.cpp:394] pool1 <- conv1
I0225 14:55:31.683123  1480 net.cpp:356] pool1 -> pool1
I0225 14:55:31.683131  1480 net.cpp:96] Setting up pool1
I0225 14:55:31.683140  1480 net.cpp:103] Top shape: 60 96 16 16 (1474560)
I0225 14:55:31.683147  1480 net.cpp:67] Creating Layer conv2
I0225 14:55:31.683152  1480 net.cpp:394] conv2 <- pool1
I0225 14:55:31.683158  1480 net.cpp:356] conv2 -> conv2
I0225 14:55:31.683166  1480 net.cpp:96] Setting up conv2
I0225 14:55:31.685796  1480 net.cpp:103] Top shape: 60 256 14 14 (3010560)
I0225 14:55:31.685837  1480 net.cpp:67] Creating Layer relu_conv2
I0225 14:55:31.685844  1480 net.cpp:394] relu_conv2 <- conv2
I0225 14:55:31.685853  1480 net.cpp:345] relu_conv2 -> conv2 (in-place)
I0225 14:55:31.685873  1480 net.cpp:96] Setting up relu_conv2
I0225 14:55:31.685879  1480 net.cpp:103] Top shape: 60 256 14 14 (3010560)
I0225 14:55:31.685888  1480 net.cpp:67] Creating Layer pool2
I0225 14:55:31.685891  1480 net.cpp:394] pool2 <- conv2
I0225 14:55:31.685899  1480 net.cpp:356] pool2 -> pool2
I0225 14:55:31.685909  1480 net.cpp:96] Setting up pool2
I0225 14:55:31.685916  1480 net.cpp:103] Top shape: 60 256 7 7 (752640)
I0225 14:55:31.685930  1480 net.cpp:67] Creating Layer conv3
I0225 14:55:31.685935  1480 net.cpp:394] conv3 <- pool2
I0225 14:55:31.685941  1480 net.cpp:356] conv3 -> conv3
I0225 14:55:31.685950  1480 net.cpp:96] Setting up conv3
I0225 14:55:31.689129  1480 net.cpp:103] Top shape: 60 64 4 4 (61440)
I0225 14:55:31.689168  1480 net.cpp:67] Creating Layer relu_conv3
I0225 14:55:31.689175  1480 net.cpp:394] relu_conv3 <- conv3
I0225 14:55:31.689184  1480 net.cpp:345] relu_conv3 -> conv3 (in-place)
I0225 14:55:31.689193  1480 net.cpp:96] Setting up relu_conv3
I0225 14:55:31.689198  1480 net.cpp:103] Top shape: 60 64 4 4 (61440)
I0225 14:55:31.689208  1480 net.cpp:67] Creating Layer ip1
I0225 14:55:31.689213  1480 net.cpp:394] ip1 <- conv3
I0225 14:55:31.689219  1480 net.cpp:356] ip1 -> ip1
I0225 14:55:31.689227  1480 net.cpp:96] Setting up ip1
I0225 14:55:31.692250  1480 net.cpp:103] Top shape: 60 256 1 1 (15360)
I0225 14:55:31.692267  1480 net.cpp:67] Creating Layer relu1
I0225 14:55:31.692273  1480 net.cpp:394] relu1 <- ip1
I0225 14:55:31.692281  1480 net.cpp:345] relu1 -> ip1 (in-place)
I0225 14:55:31.692287  1480 net.cpp:96] Setting up relu1
I0225 14:55:31.692292  1480 net.cpp:103] Top shape: 60 256 1 1 (15360)
I0225 14:55:31.692301  1480 net.cpp:67] Creating Layer ip2
I0225 14:55:31.692306  1480 net.cpp:394] ip2 <- ip1
I0225 14:55:31.692312  1480 net.cpp:356] ip2 -> ip2
I0225 14:55:31.692319  1480 net.cpp:96] Setting up ip2
I0225 14:55:31.693025  1480 net.cpp:103] Top shape: 60 256 1 1 (15360)
I0225 14:55:31.693043  1480 net.cpp:67] Creating Layer relu2
I0225 14:55:31.693049  1480 net.cpp:394] relu2 <- ip2
I0225 14:55:31.693055  1480 net.cpp:345] relu2 -> ip2 (in-place)
I0225 14:55:31.693063  1480 net.cpp:96] Setting up relu2
I0225 14:55:31.693068  1480 net.cpp:103] Top shape: 60 256 1 1 (15360)
I0225 14:55:31.693074  1480 net.cpp:67] Creating Layer ip3
I0225 14:55:31.693079  1480 net.cpp:394] ip3 <- ip2
I0225 14:55:31.693086  1480 net.cpp:356] ip3 -> ip3
I0225 14:55:31.693094  1480 net.cpp:96] Setting up ip3
I0225 14:55:31.693109  1480 net.cpp:103] Top shape: 60 2 1 1 (120)
I0225 14:55:31.693117  1480 net.cpp:67] Creating Layer ip3_ip3_0_split
I0225 14:55:31.693122  1480 net.cpp:394] ip3_ip3_0_split <- ip3
I0225 14:55:31.693130  1480 net.cpp:356] ip3_ip3_0_split -> ip3_ip3_0_split_0
I0225 14:55:31.693137  1480 net.cpp:356] ip3_ip3_0_split -> ip3_ip3_0_split_1
I0225 14:55:31.693145  1480 net.cpp:96] Setting up ip3_ip3_0_split
I0225 14:55:31.693150  1480 net.cpp:103] Top shape: 60 2 1 1 (120)
I0225 14:55:31.693155  1480 net.cpp:103] Top shape: 60 2 1 1 (120)
I0225 14:55:31.693164  1480 net.cpp:67] Creating Layer accuracy
I0225 14:55:31.693169  1480 net.cpp:394] accuracy <- ip3_ip3_0_split_0
I0225 14:55:31.693176  1480 net.cpp:394] accuracy <- label_data_1_split_0
I0225 14:55:31.693181  1480 net.cpp:356] accuracy -> accuracy
I0225 14:55:31.693189  1480 net.cpp:96] Setting up accuracy
I0225 14:55:31.693195  1480 net.cpp:103] Top shape: 1 1 1 1 (1)
I0225 14:55:31.693203  1480 net.cpp:67] Creating Layer loss
I0225 14:55:31.693208  1480 net.cpp:394] loss <- ip3_ip3_0_split_1
I0225 14:55:31.693213  1480 net.cpp:394] loss <- label_data_1_split_1
I0225 14:55:31.693219  1480 net.cpp:394] loss <- sample_weight
I0225 14:55:31.693225  1480 net.cpp:356] loss -> loss
I0225 14:55:31.693233  1480 net.cpp:96] Setting up loss
I0225 14:55:31.693243  1480 net.cpp:103] Top shape: 1 1 1 1 (1)
I0225 14:55:31.693248  1480 net.cpp:109]     with loss weight 1
I0225 14:55:31.693266  1480 net.cpp:170] loss needs backward computation.
I0225 14:55:31.693271  1480 net.cpp:172] accuracy does not need backward computation.
I0225 14:55:31.693281  1480 net.cpp:170] ip3_ip3_0_split needs backward computation.
I0225 14:55:31.693286  1480 net.cpp:170] ip3 needs backward computation.
I0225 14:55:31.693291  1480 net.cpp:170] relu2 needs backward computation.
…
