…
I0204 13:29:38.542876 22324 net.cpp:275] The NetState phase (0) differed from the phase (1) specified by a rule in layer data
I0204 13:29:38.542912 22324 net.cpp:275] The NetState phase (0) differed from the phase (1) specified by a rule in layer accuracy
I0204 13:29:38.543154 22324 net.cpp:39] Initializing net from parameters: 
name: "LogisticRegressionNet"
layers {
  top: "data"
  top: "label"
  top: "sample_weight"
  name: "data"
  type: HDF5_DATA
  hdf5_data_param {
    source: "/share/project/shapes/caffe-weighted-samples/examples/singleNet/trainFileList.txt"
    batch_size: 100
  }
  include {
    phase: TRAIN
  }
}
layers {
  bottom: "data"
  top: "conv1"
  name: "conv1"
  type: CONVOLUTION
  blobs_lr: 1
  blobs_lr: 2
  convolution_param {
    num_output: 96
    kernel_size: 5
    stride: 1
    weight_filler {
      type: "xavier"
    }
    bias_filler {
      type: "constant"
    }
  }
}
layers {
  bottom: "conv1"
  top: "pool1"
  name: "pool1"
  type: POOLING
  pooling_param {
    pool: MAX
    kernel_size: 2
    stride: 2
  }
}
layers {
  bottom: "pool1"
  top: "conv2"
  name: "conv2"
  type: CONVOLUTION
  blobs_lr: 1
  blobs_lr: 2
  convolution_param {
    num_output: 256
    kernel_size: 3
    stride: 1
    weight_filler {
      type: "xavier"
    }
    bias_filler {
      type: "constant"
    }
  }
}
layers {
  bottom: "conv2"
  top: "pool2"
  name: "pool2"
  type: POOLING
  pooling_param {
    pool: MAX
    kernel_size: 2
    stride: 2
  }
}
layers {
  bottom: "pool2"
  top: "conv3"
  name: "conv3"
  type: CONVOLUTION
  blobs_lr: 1
  blobs_lr: 2
  convolution_param {
    num_output: 64
    kernel_size: 3
    stride: 1
    weight_filler {
      type: "xavier"
    }
    bias_filler {
      type: "constant"
    }
  }
}
layers {
  bottom: "conv3"
  top: "ip1"
  name: "ip1"
  type: INNER_PRODUCT
  blobs_lr: 1
  blobs_lr: 2
  inner_product_param {
    num_output: 1024
    weight_filler {
      type: "xavier"
    }
    bias_filler {
      type: "constant"
    }
  }
}
layers {
  bottom: "ip1"
  top: "ip1"
  name: "relu1"
  type: RELU
}
layers {
  bottom: "ip1"
  top: "ip2"
  name: "ip2"
  type: INNER_PRODUCT
  blobs_lr: 1
  blobs_lr: 2
  inner_product_param {
    num_output: 1024
    weight_filler {
      type: "xavier"
    }
    bias_filler {
      type: "constant"
    }
  }
}
layers {
  bottom: "ip2"
  top: "ip2"
  name: "relu2"
  type: RELU
}
layers {
  bottom: "ip2"
  top: "ip3"
  name: "ip3"
  type: INNER_PRODUCT
  blobs_lr: 1
  blobs_lr: 2
  inner_product_param {
    num_output: 2
    weight_filler {
      type: "xavier"
    }
    bias_filler {
      type: "constant"
    }
  }
}
layers {
  bottom: "ip3"
  bottom: "label"
  bottom: "sample_weight"
  top: "loss"
  name: "loss"
  type: SOFTMAX_LOSS
}
state {
  phase: TRAIN
}
I0204 13:29:38.543403 22324 net.cpp:67] Creating Layer data
I0204 13:29:38.543421 22324 net.cpp:356] data -> data
I0204 13:29:38.543459 22324 net.cpp:356] data -> label
I0204 13:29:38.543488 22324 net.cpp:356] data -> sample_weight
I0204 13:29:38.543568 22324 net.cpp:96] Setting up data
I0204 13:29:38.543582 22324 hdf5_data_layer.cpp:63] Loading filename from /share/project/shapes/caffe-weighted-samples/examples/singleNet/trainFileList.txt
I0204 13:29:38.613844 22324 hdf5_data_layer.cpp:75] Number of files: 15
I0204 13:29:38.613875 22324 hdf5_data_layer.cpp:29] Loading HDF5 file/scratch/stephenchen/shapes/singleNet/hdf5/train_batch_35x35/trainHDF_1_35x35.h5
I0204 13:30:23.426055 22324 hdf5_data_layer.cpp:55] Successully loaded 220600 rows
I0204 13:30:23.488577 22324 hdf5_data_layer.cpp:89] output data size: 100,4,35,35
I0204 13:30:23.518347 22324 net.cpp:103] Top shape: 100 4 35 35 (490000)
I0204 13:30:23.518370 22324 net.cpp:103] Top shape: 100 1 1 1 (100)
I0204 13:30:23.518380 22324 net.cpp:103] Top shape: 100 1 1 1 (100)
I0204 13:30:23.518407 22324 net.cpp:67] Creating Layer conv1
I0204 13:30:23.518414 22324 net.cpp:394] conv1 <- data
I0204 13:30:23.518960 22324 net.cpp:356] conv1 -> conv1
I0204 13:30:23.518990 22324 net.cpp:96] Setting up conv1
I0204 13:30:23.812410 22324 net.cpp:103] Top shape: 100 96 31 31 (9225600)
I0204 13:30:23.831226 22324 net.cpp:67] Creating Layer pool1
I0204 13:30:23.831246 22324 net.cpp:394] pool1 <- conv1
I0204 13:30:23.831261 22324 net.cpp:356] pool1 -> pool1
I0204 13:30:23.831279 22324 net.cpp:96] Setting up pool1
I0204 13:30:23.850651 22324 net.cpp:103] Top shape: 100 96 16 16 (2457600)
I0204 13:30:23.850692 22324 net.cpp:67] Creating Layer conv2
I0204 13:30:23.850700 22324 net.cpp:394] conv2 <- pool1
I0204 13:30:23.850710 22324 net.cpp:356] conv2 -> conv2
I0204 13:30:23.850723 22324 net.cpp:96] Setting up conv2
I0204 13:30:23.853427 22324 net.cpp:103] Top shape: 100 256 14 14 (5017600)
I0204 13:30:23.853451 22324 net.cpp:67] Creating Layer pool2
I0204 13:30:23.853456 22324 net.cpp:394] pool2 <- conv2
I0204 13:30:23.853464 22324 net.cpp:356] pool2 -> pool2
I0204 13:30:23.853472 22324 net.cpp:96] Setting up pool2
I0204 13:30:23.853479 22324 net.cpp:103] Top shape: 100 256 7 7 (1254400)
I0204 13:30:23.853487 22324 net.cpp:67] Creating Layer conv3
I0204 13:30:23.853492 22324 net.cpp:394] conv3 <- pool2
I0204 13:30:23.853499 22324 net.cpp:356] conv3 -> conv3
I0204 13:30:23.853507 22324 net.cpp:96] Setting up conv3
I0204 13:30:23.855196 22324 net.cpp:103] Top shape: 100 64 5 5 (160000)
I0204 13:30:23.855217 22324 net.cpp:67] Creating Layer ip1
I0204 13:30:23.855223 22324 net.cpp:394] ip1 <- conv3
I0204 13:30:23.855231 22324 net.cpp:356] ip1 -> ip1
I0204 13:30:23.855240 22324 net.cpp:96] Setting up ip1
I0204 13:30:23.874161 22324 net.cpp:103] Top shape: 100 1024 1 1 (102400)
I0204 13:30:23.874199 22324 net.cpp:67] Creating Layer relu1
I0204 13:30:23.874207 22324 net.cpp:394] relu1 <- ip1
I0204 13:30:23.874215 22324 net.cpp:345] relu1 -> ip1 (in-place)
I0204 13:30:23.874223 22324 net.cpp:96] Setting up relu1
I0204 13:30:23.874229 22324 net.cpp:103] Top shape: 100 1024 1 1 (102400)
I0204 13:30:23.874239 22324 net.cpp:67] Creating Layer ip2
I0204 13:30:23.874244 22324 net.cpp:394] ip2 <- ip1
I0204 13:30:23.874251 22324 net.cpp:356] ip2 -> ip2
I0204 13:30:23.874259 22324 net.cpp:96] Setting up ip2
I0204 13:30:23.886872 22324 net.cpp:103] Top shape: 100 1024 1 1 (102400)
I0204 13:30:23.886905 22324 net.cpp:67] Creating Layer relu2
I0204 13:30:23.886912 22324 net.cpp:394] relu2 <- ip2
I0204 13:30:23.886920 22324 net.cpp:345] relu2 -> ip2 (in-place)
I0204 13:30:23.886929 22324 net.cpp:96] Setting up relu2
I0204 13:30:23.886934 22324 net.cpp:103] Top shape: 100 1024 1 1 (102400)
I0204 13:30:23.886941 22324 net.cpp:67] Creating Layer ip3
I0204 13:30:23.886946 22324 net.cpp:394] ip3 <- ip2
I0204 13:30:23.886952 22324 net.cpp:356] ip3 -> ip3
I0204 13:30:23.886961 22324 net.cpp:96] Setting up ip3
I0204 13:30:23.886992 22324 net.cpp:103] Top shape: 100 2 1 1 (200)
I0204 13:30:23.887008 22324 net.cpp:67] Creating Layer loss
I0204 13:30:23.887013 22324 net.cpp:394] loss <- ip3
I0204 13:30:23.887019 22324 net.cpp:394] loss <- label
I0204 13:30:23.887025 22324 net.cpp:394] loss <- sample_weight
I0204 13:30:23.887032 22324 net.cpp:356] loss -> loss
I0204 13:30:23.887039 22324 net.cpp:96] Setting up loss
I0204 13:30:23.887050 22324 net.cpp:103] Top shape: 1 1 1 1 (1)
I0204 13:30:23.887055 22324 net.cpp:109]     with loss weight 1
I0204 13:30:23.887143 22324 net.cpp:170] loss needs backward computation.
I0204 13:30:23.887151 22324 net.cpp:170] ip3 needs backward computation.
I0204 13:30:23.887154 22324 net.cpp:170] relu2 needs backward computation.
I0204 13:30:23.887159 22324 net.cpp:170] ip2 needs backward computation.
I0204 13:30:23.887164 22324 net.cpp:170] relu1 needs backward computation.
…
I0204 13:30:24.160078 22324 solver.cpp:151] Creating test net (#0) specified by net file: examples/singleNet/train_val.prototxt
I0204 13:30:24.160147 22324 net.cpp:275] The NetState phase (1) differed from the phase (0) specified by a rule in layer data
I0204 13:30:24.160629 22324 net.cpp:39] Initializing net from parameters: 
name: "LogisticRegressionNet"
layers {
  top: "data"
  top: "label"
  top: "sample_weight"
  name: "data"
  type: HDF5_DATA
  hdf5_data_param {
    source: "/share/project/shapes/caffe-weighted-samples/examples/singleNet/testFileList.txt"
    batch_size: 10
  }
  include {
    phase: TEST
  }
}
layers {
  bottom: "data"
  top: "conv1"
  name: "conv1"
  type: CONVOLUTION
  blobs_lr: 1
  blobs_lr: 2
  convolution_param {
    num_output: 96
    kernel_size: 5
    stride: 1
    weight_filler {
      type: "xavier"
    }
    bias_filler {
      type: "constant"
    }
  }
}
layers {
  bottom: "conv1"
  top: "pool1"
  name: "pool1"
  type: POOLING
  pooling_param {
    pool: MAX
    kernel_size: 2
    stride: 2
  }
}
layers {
  bottom: "pool1"
  top: "conv2"
  name: "conv2"
  type: CONVOLUTION
  blobs_lr: 1
  blobs_lr: 2
  convolution_param {
    num_output: 256
    kernel_size: 3
    stride: 1
    weight_filler {
      type: "xavier"
    }
    bias_filler {
      type: "constant"
    }
  }
}
layers {
  bottom: "conv2"
  top: "pool2"
  name: "pool2"
  type: POOLING
  pooling_param {
    pool: MAX
    kernel_size: 2
    stride: 2
  }
}
layers {
  bottom: "pool2"
  top: "conv3"
  name: "conv3"
  type: CONVOLUTION
  blobs_lr: 1
  blobs_lr: 2
  convolution_param {
    num_output: 64
    kernel_size: 3
    stride: 1
    weight_filler {
      type: "xavier"
    }
    bias_filler {
      type: "constant"
    }
  }
}
layers {
  bottom: "conv3"
  top: "ip1"
  name: "ip1"
  type: INNER_PRODUCT
  blobs_lr: 1
  blobs_lr: 2
  inner_product_param {
    num_output: 1024
    weight_filler {
      type: "xavier"
    }
    bias_filler {
      type: "constant"
    }
  }
}
layers {
  bottom: "ip1"
  top: "ip1"
  name: "relu1"
  type: RELU
}
layers {
  bottom: "ip1"
  top: "ip2"
  name: "ip2"
  type: INNER_PRODUCT
  blobs_lr: 1
  blobs_lr: 2
  inner_product_param {
    num_output: 1024
    weight_filler {
      type: "xavier"
    }
    bias_filler {
      type: "constant"
    }
  }
}
layers {
  bottom: "ip2"
  top: "ip2"
  name: "relu2"
  type: RELU
}
layers {
  bottom: "ip2"
  top: "ip3"
  name: "ip3"
  type: INNER_PRODUCT
  blobs_lr: 1
  blobs_lr: 2
  inner_product_param {
    num_output: 2
    weight_filler {
      type: "xavier"
    }
    bias_filler {
      type: "constant"
    }
  }
}
layers {
  bottom: "ip3"
  bottom: "label"
  top: "accuracy"
  name: "accuracy"
  type: ACCURACY
  include {
    phase: TEST
  }
}
layers {
  bottom: "ip3"
  bottom: "label"
  bottom: "sample_weight"
  top: "loss"
  name: "loss"
  type: SOFTMAX_LOSS
}
state {
  phase: TEST
}
I0204 13:30:24.160841 22324 net.cpp:67] Creating Layer data
I0204 13:30:24.160852 22324 net.cpp:356] data -> data
I0204 13:30:24.160866 22324 net.cpp:356] data -> label
I0204 13:30:24.160874 22324 net.cpp:356] data -> sample_weight
I0204 13:30:24.160882 22324 net.cpp:96] Setting up data
I0204 13:30:24.160887 22324 hdf5_data_layer.cpp:63] Loading filename from /share/project/shapes/caffe-weighted-samples/examples/singleNet/testFileList.txt
I0204 13:30:24.168738 22324 hdf5_data_layer.cpp:75] Number of files: 4
I0204 13:30:24.168759 22324 hdf5_data_layer.cpp:29] Loading HDF5 file/scratch/stephenchen/shapes/singleNet/hdf5/test_batch_35x35/testHDF_1_35x35.h5
I0204 13:30:48.342998 22324 hdf5_data_layer.cpp:55] Successully loaded 112600 rows
I0204 13:30:48.343029 22324 hdf5_data_layer.cpp:89] output data size: 10,4,35,35
I0204 13:30:48.343039 22324 net.cpp:103] Top shape: 10 4 35 35 (49000)
I0204 13:30:48.343049 22324 net.cpp:103] Top shape: 10 1 1 1 (10)
I0204 13:30:48.343055 22324 net.cpp:103] Top shape: 10 1 1 1 (10)
I0204 13:30:48.343073 22324 net.cpp:67] Creating Layer label_data_1_split
I0204 13:30:48.343082 22324 net.cpp:394] label_data_1_split <- label
I0204 13:30:48.343094 22324 net.cpp:356] label_data_1_split -> label_data_1_split_0
I0204 13:30:48.343111 22324 net.cpp:356] label_data_1_split -> label_data_1_split_1
I0204 13:30:48.343122 22324 net.cpp:96] Setting up label_data_1_split
I0204 13:30:48.343132 22324 net.cpp:103] Top shape: 10 1 1 1 (10)
I0204 13:30:48.343139 22324 net.cpp:103] Top shape: 10 1 1 1 (10)
I0204 13:30:48.343152 22324 net.cpp:67] Creating Layer conv1
I0204 13:30:48.343160 22324 net.cpp:394] conv1 <- data
I0204 13:30:48.343170 22324 net.cpp:356] conv1 -> conv1
I0204 13:30:48.343183 22324 net.cpp:96] Setting up conv1
I0204 13:30:48.343350 22324 net.cpp:103] Top shape: 10 96 31 31 (922560)
I0204 13:30:48.343374 22324 net.cpp:67] Creating Layer pool1
I0204 13:30:48.343381 22324 net.cpp:394] pool1 <- conv1
I0204 13:30:48.343391 22324 net.cpp:356] pool1 -> pool1
I0204 13:30:48.343402 22324 net.cpp:96] Setting up pool1
I0204 13:30:48.343413 22324 net.cpp:103] Top shape: 10 96 16 16 (245760)
I0204 13:30:48.343425 22324 net.cpp:67] Creating Layer conv2
I0204 13:30:48.343432 22324 net.cpp:394] conv2 <- pool1
I0204 13:30:48.343442 22324 net.cpp:356] conv2 -> conv2
I0204 13:30:48.343453 22324 net.cpp:96] Setting up conv2
I0204 13:30:48.347194 22324 net.cpp:103] Top shape: 10 256 14 14 (501760)
I0204 13:30:48.347218 22324 net.cpp:67] Creating Layer pool2
I0204 13:30:48.347228 22324 net.cpp:394] pool2 <- conv2
I0204 13:30:48.347237 22324 net.cpp:356] pool2 -> pool2
I0204 13:30:48.347250 22324 net.cpp:96] Setting up pool2
I0204 13:30:48.347260 22324 net.cpp:103] Top shape: 10 256 7 7 (125440)
I0204 13:30:48.347272 22324 net.cpp:67] Creating Layer conv3
I0204 13:30:48.347280 22324 net.cpp:394] conv3 <- pool2
I0204 13:30:48.347290 22324 net.cpp:356] conv3 -> conv3
I0204 13:30:48.347301 22324 net.cpp:96] Setting up conv3
I0204 13:30:48.349100 22324 net.cpp:103] Top shape: 10 64 5 5 (16000)
I0204 13:30:48.349119 22324 net.cpp:67] Creating Layer ip1
I0204 13:30:48.349125 22324 net.cpp:394] ip1 <- conv3
I0204 13:30:48.349133 22324 net.cpp:356] ip1 -> ip1
I0204 13:30:48.349140 22324 net.cpp:96] Setting up ip1
I0204 13:30:48.367554 22324 net.cpp:103] Top shape: 10 1024 1 1 (10240)
I0204 13:30:48.367593 22324 net.cpp:67] Creating Layer relu1
I0204 13:30:48.367599 22324 net.cpp:394] relu1 <- ip1
I0204 13:30:48.367609 22324 net.cpp:345] relu1 -> ip1 (in-place)
I0204 13:30:48.367616 22324 net.cpp:96] Setting up relu1
I0204 13:30:48.367622 22324 net.cpp:103] Top shape: 10 1024 1 1 (10240)
I0204 13:30:48.367630 22324 net.cpp:67] Creating Layer ip2
I0204 13:30:48.367635 22324 net.cpp:394] ip2 <- ip1
I0204 13:30:48.367641 22324 net.cpp:356] ip2 -> ip2
I0204 13:30:48.367650 22324 net.cpp:96] Setting up ip2
I0204 13:30:48.379575 22324 net.cpp:103] Top shape: 10 1024 1 1 (10240)
I0204 13:30:48.379607 22324 net.cpp:67] Creating Layer relu2
I0204 13:30:48.379614 22324 net.cpp:394] relu2 <- ip2
I0204 13:30:48.379621 22324 net.cpp:345] relu2 -> ip2 (in-place)
I0204 13:30:48.379629 22324 net.cpp:96] Setting up relu2
I0204 13:30:48.379634 22324 net.cpp:103] Top shape: 10 1024 1 1 (10240)
I0204 13:30:48.379642 22324 net.cpp:67] Creating Layer ip3
I0204 13:30:48.379647 22324 net.cpp:394] ip3 <- ip2
I0204 13:30:48.379652 22324 net.cpp:356] ip3 -> ip3
I0204 13:30:48.379668 22324 net.cpp:96] Setting up ip3
I0204 13:30:48.379698 22324 net.cpp:103] Top shape: 10 2 1 1 (20)
I0204 13:30:48.379708 22324 net.cpp:67] Creating Layer ip3_ip3_0_split
I0204 13:30:48.379712 22324 net.cpp:394] ip3_ip3_0_split <- ip3
I0204 13:30:48.379719 22324 net.cpp:356] ip3_ip3_0_split -> ip3_ip3_0_split_0
I0204 13:30:48.379726 22324 net.cpp:356] ip3_ip3_0_split -> ip3_ip3_0_split_1
I0204 13:30:48.379734 22324 net.cpp:96] Setting up ip3_ip3_0_split
I0204 13:30:48.379739 22324 net.cpp:103] Top shape: 10 2 1 1 (20)
I0204 13:30:48.379744 22324 net.cpp:103] Top shape: 10 2 1 1 (20)
I0204 13:30:48.379750 22324 net.cpp:67] Creating Layer accuracy
I0204 13:30:48.379755 22324 net.cpp:394] accuracy <- ip3_ip3_0_split_0
I0204 13:30:48.379760 22324 net.cpp:394] accuracy <- label_data_1_split_0
I0204 13:30:48.379766 22324 net.cpp:356] accuracy -> accuracy
I0204 13:30:48.379773 22324 net.cpp:96] Setting up accuracy
I0204 13:30:48.379778 22324 net.cpp:103] Top shape: 1 1 1 1 (1)
I0204 13:30:48.379786 22324 net.cpp:67] Creating Layer loss
I0204 13:30:48.379791 22324 net.cpp:394] loss <- ip3_ip3_0_split_1
I0204 13:30:48.379796 22324 net.cpp:394] loss <- label_data_1_split_1
I0204 13:30:48.379801 22324 net.cpp:394] loss <- sample_weight
I0204 13:30:48.379807 22324 net.cpp:356] loss -> loss
I0204 13:30:48.379815 22324 net.cpp:96] Setting up loss
I0204 13:30:48.379824 22324 net.cpp:103] Top shape: 1 1 1 1 (1)
I0204 13:30:48.379828 22324 net.cpp:109]     with loss weight 1
I0204 13:30:48.379842 22324 net.cpp:170] loss needs backward computation.
I0204 13:30:48.379848 22324 net.cpp:172] accuracy does not need backward computation.
I0204 13:30:48.379851 22324 net.cpp:170] ip3_ip3_0_split needs backward computation.
I0204 13:30:48.379856 22324 net.cpp:170] ip3 needs backward computation.
I0204 13:30:48.379860 22324 net.cpp:170] relu2 needs backward computation.
…
