…
I0224 20:40:53.027091  5570 net.cpp:275] The NetState phase (0) differed from the phase (1) specified by a rule in layer data
I0224 20:40:53.027120  5570 net.cpp:275] The NetState phase (0) differed from the phase (1) specified by a rule in layer accuracy
I0224 20:40:53.027286  5570 net.cpp:39] Initializing net from parameters: 
name: "LogisticRegressionNet"
layers {
  top: "data"
  top: "label"
  top: "sample_weight"
  name: "data"
  type: HDF5_DATA
  hdf5_data_param {
    source: "/share/project/shapes/caffe-weighted-samples/examples/singleNet/trainFileList.txt"
    batch_size: 100
  }
  include {
    phase: TRAIN
  }
}
layers {
  bottom: "data"
  top: "conv1"
  name: "conv1"
  type: CONVOLUTION
  blobs_lr: 1
  blobs_lr: 2
  convolution_param {
    num_output: 96
    kernel_size: 4
    stride: 1
    weight_filler {
      type: "xavier"
    }
    bias_filler {
      type: "constant"
    }
  }
}
layers {
  bottom: "conv1"
  top: "conv1"
  name: "relu_conv1"
  type: RELU
}
layers {
  bottom: "conv1"
  top: "pool1"
  name: "pool1"
  type: POOLING
  pooling_param {
    pool: MAX
    kernel_size: 2
    stride: 2
  }
}
layers {
  bottom: "pool1"
  top: "conv2"
  name: "conv2"
  type: CONVOLUTION
  blobs_lr: 1
  blobs_lr: 2
  convolution_param {
    num_output: 256
    kernel_size: 3
    stride: 1
    weight_filler {
      type: "xavier"
    }
    bias_filler {
      type: "constant"
    }
  }
}
layers {
  bottom: "conv2"
  top: "conv2"
  name: "relu_conv2"
  type: RELU
}
layers {
  bottom: "conv2"
  top: "pool2"
  name: "pool2"
  type: POOLING
  pooling_param {
    pool: MAX
    kernel_size: 2
    stride: 2
  }
}
layers {
  bottom: "pool2"
  top: "conv3"
  name: "conv3"
  type: CONVOLUTION
  blobs_lr: 1
  blobs_lr: 2
  convolution_param {
    num_output: 64
    kernel_size: 4
    stride: 1
    weight_filler {
      type: "xavier"
    }
    bias_filler {
      type: "constant"
    }
  }
}
layers {
  bottom: "conv3"
  top: "conv3"
  name: "relu_conv3"
  type: RELU
}
layers {
  bottom: "conv3"
  top: "ip1"
  name: "ip1"
  type: INNER_PRODUCT
  blobs_lr: 1
  blobs_lr: 2
  inner_product_param {
    num_output: 256
    weight_filler {
      type: "xavier"
    }
    bias_filler {
      type: "constant"
    }
  }
}
layers {
  bottom: "ip1"
  top: "ip1"
  name: "relu1"
  type: RELU
}
layers {
  bottom: "ip1"
  top: "ip2"
  name: "ip2"
  type: INNER_PRODUCT
  blobs_lr: 1
  blobs_lr: 2
  inner_product_param {
    num_output: 256
    weight_filler {
      type: "xavier"
    }
    bias_filler {
      type: "constant"
    }
  }
}
layers {
  bottom: "ip2"
  top: "ip2"
  name: "relu2"
  type: RELU
}
layers {
  bottom: "ip2"
  top: "ip3"
  name: "ip3"
  type: INNER_PRODUCT
  blobs_lr: 1
  blobs_lr: 2
  inner_product_param {
    num_output: 2
    weight_filler {
      type: "xavier"
    }
    bias_filler {
      type: "constant"
    }
  }
}
layers {
  bottom: "ip3"
  bottom: "label"
  bottom: "sample_weight"
  top: "loss"
  name: "loss"
  type: SOFTMAX_LOSS
}
state {
  phase: TRAIN
}
I0224 20:40:53.027454  5570 net.cpp:67] Creating Layer data
I0224 20:40:53.027467  5570 net.cpp:356] data -> data
I0224 20:40:53.027503  5570 net.cpp:356] data -> label
I0224 20:40:53.027525  5570 net.cpp:356] data -> sample_weight
I0224 20:40:53.027534  5570 net.cpp:96] Setting up data
I0224 20:40:53.027544  5570 hdf5_data_layer.cpp:63] Loading filename from /share/project/shapes/caffe-weighted-samples/examples/singleNet/trainFileList.txt
I0224 20:40:53.028344  5570 hdf5_data_layer.cpp:75] Number of files: 3
I0224 20:40:53.028362  5570 hdf5_data_layer.cpp:29] Loading HDF5 file/scratch/stephenchen/shapes/singleNet/hdf5/train_batch_35x35/trainHDF_1_35x35.h5
I0224 20:41:35.841110  5570 hdf5_data_layer.cpp:55] Successully loaded 196600 rows
I0224 20:41:36.098824  5570 hdf5_data_layer.cpp:89] output data size: 100,4,35,35
I0224 20:41:36.243170  5570 net.cpp:103] Top shape: 100 4 35 35 (490000)
I0224 20:41:36.243199  5570 net.cpp:103] Top shape: 100 1 1 1 (100)
I0224 20:41:36.243206  5570 net.cpp:103] Top shape: 100 1 1 1 (100)
I0224 20:41:36.255559  5570 net.cpp:67] Creating Layer conv1
I0224 20:41:36.255594  5570 net.cpp:394] conv1 <- data
I0224 20:41:36.255671  5570 net.cpp:356] conv1 -> conv1
I0224 20:41:36.255693  5570 net.cpp:96] Setting up conv1
I0224 20:41:36.403815  5570 net.cpp:103] Top shape: 100 96 32 32 (9830400)
I0224 20:41:36.405081  5570 net.cpp:67] Creating Layer relu_conv1
I0224 20:41:36.405094  5570 net.cpp:394] relu_conv1 <- conv1
I0224 20:41:36.405104  5570 net.cpp:345] relu_conv1 -> conv1 (in-place)
I0224 20:41:36.405114  5570 net.cpp:96] Setting up relu_conv1
I0224 20:41:36.405122  5570 net.cpp:103] Top shape: 100 96 32 32 (9830400)
I0224 20:41:36.405130  5570 net.cpp:67] Creating Layer pool1
I0224 20:41:36.405135  5570 net.cpp:394] pool1 <- conv1
I0224 20:41:36.405141  5570 net.cpp:356] pool1 -> pool1
I0224 20:41:36.405174  5570 net.cpp:96] Setting up pool1
I0224 20:41:36.405208  5570 net.cpp:103] Top shape: 100 96 16 16 (2457600)
I0224 20:41:36.405220  5570 net.cpp:67] Creating Layer conv2
I0224 20:41:36.405225  5570 net.cpp:394] conv2 <- pool1
I0224 20:41:36.405232  5570 net.cpp:356] conv2 -> conv2
I0224 20:41:36.405241  5570 net.cpp:96] Setting up conv2
I0224 20:41:36.407842  5570 net.cpp:103] Top shape: 100 256 14 14 (5017600)
I0224 20:41:36.407861  5570 net.cpp:67] Creating Layer relu_conv2
I0224 20:41:36.407867  5570 net.cpp:394] relu_conv2 <- conv2
I0224 20:41:36.407874  5570 net.cpp:345] relu_conv2 -> conv2 (in-place)
I0224 20:41:36.407881  5570 net.cpp:96] Setting up relu_conv2
I0224 20:41:36.407886  5570 net.cpp:103] Top shape: 100 256 14 14 (5017600)
I0224 20:41:36.407893  5570 net.cpp:67] Creating Layer pool2
I0224 20:41:36.407897  5570 net.cpp:394] pool2 <- conv2
I0224 20:41:36.407904  5570 net.cpp:356] pool2 -> pool2
I0224 20:41:36.407912  5570 net.cpp:96] Setting up pool2
I0224 20:41:36.407917  5570 net.cpp:103] Top shape: 100 256 7 7 (1254400)
I0224 20:41:36.407925  5570 net.cpp:67] Creating Layer conv3
I0224 20:41:36.407930  5570 net.cpp:394] conv3 <- pool2
I0224 20:41:36.407937  5570 net.cpp:356] conv3 -> conv3
I0224 20:41:36.407943  5570 net.cpp:96] Setting up conv3
I0224 20:41:36.411319  5570 net.cpp:103] Top shape: 100 64 4 4 (102400)
I0224 20:41:36.411351  5570 net.cpp:67] Creating Layer relu_conv3
I0224 20:41:36.411357  5570 net.cpp:394] relu_conv3 <- conv3
I0224 20:41:36.411365  5570 net.cpp:345] relu_conv3 -> conv3 (in-place)
I0224 20:41:36.411372  5570 net.cpp:96] Setting up relu_conv3
I0224 20:41:36.411377  5570 net.cpp:103] Top shape: 100 64 4 4 (102400)
I0224 20:41:36.411389  5570 net.cpp:67] Creating Layer ip1
I0224 20:41:36.411396  5570 net.cpp:394] ip1 <- conv3
I0224 20:41:36.411402  5570 net.cpp:356] ip1 -> ip1
I0224 20:41:36.411412  5570 net.cpp:96] Setting up ip1
I0224 20:41:36.414633  5570 net.cpp:103] Top shape: 100 256 1 1 (25600)
I0224 20:41:36.414654  5570 net.cpp:67] Creating Layer relu1
I0224 20:41:36.414660  5570 net.cpp:394] relu1 <- ip1
I0224 20:41:36.414669  5570 net.cpp:345] relu1 -> ip1 (in-place)
I0224 20:41:36.414675  5570 net.cpp:96] Setting up relu1
I0224 20:41:36.414680  5570 net.cpp:103] Top shape: 100 256 1 1 (25600)
I0224 20:41:36.414688  5570 net.cpp:67] Creating Layer ip2
I0224 20:41:36.414693  5570 net.cpp:394] ip2 <- ip1
I0224 20:41:36.414700  5570 net.cpp:356] ip2 -> ip2
I0224 20:41:36.414707  5570 net.cpp:96] Setting up ip2
I0224 20:41:36.415403  5570 net.cpp:103] Top shape: 100 256 1 1 (25600)
I0224 20:41:36.415419  5570 net.cpp:67] Creating Layer relu2
I0224 20:41:36.415424  5570 net.cpp:394] relu2 <- ip2
I0224 20:41:36.415431  5570 net.cpp:345] relu2 -> ip2 (in-place)
I0224 20:41:36.415438  5570 net.cpp:96] Setting up relu2
I0224 20:41:36.415443  5570 net.cpp:103] Top shape: 100 256 1 1 (25600)
I0224 20:41:36.415451  5570 net.cpp:67] Creating Layer ip3
I0224 20:41:36.415455  5570 net.cpp:394] ip3 <- ip2
I0224 20:41:36.415462  5570 net.cpp:356] ip3 -> ip3
I0224 20:41:36.415469  5570 net.cpp:96] Setting up ip3
I0224 20:41:36.415495  5570 net.cpp:103] Top shape: 100 2 1 1 (200)
I0224 20:41:36.415511  5570 net.cpp:67] Creating Layer loss
I0224 20:41:36.415518  5570 net.cpp:394] loss <- ip3
I0224 20:41:36.415524  5570 net.cpp:394] loss <- label
I0224 20:41:36.415529  5570 net.cpp:394] loss <- sample_weight
I0224 20:41:36.415536  5570 net.cpp:356] loss -> loss
I0224 20:41:36.415544  5570 net.cpp:96] Setting up loss
I0224 20:41:36.415556  5570 net.cpp:103] Top shape: 1 1 1 1 (1)
I0224 20:41:36.415561  5570 net.cpp:109]     with loss weight 1
I0224 20:41:36.452316  5570 net.cpp:170] loss needs backward computation.
I0224 20:41:36.452332  5570 net.cpp:170] ip3 needs backward computation.
I0224 20:41:36.452338  5570 net.cpp:170] relu2 needs backward computation.
I0224 20:41:36.452343  5570 net.cpp:170] ip2 needs backward computation.
I0224 20:41:36.452348  5570 net.cpp:170] relu1 needs backward computation.
…
I0224 20:41:36.479121  5570 solver.cpp:151] Creating test net (#0) specified by net file: examples/singleNet/train_val_v0.3.prototxt
I0224 20:41:36.479184  5570 net.cpp:275] The NetState phase (1) differed from the phase (0) specified by a rule in layer data
I0224 20:41:36.486135  5570 net.cpp:39] Initializing net from parameters: 
name: "LogisticRegressionNet"
layers {
  top: "data"
  top: "label"
  top: "sample_weight"
  name: "data"
  type: HDF5_DATA
  hdf5_data_param {
    source: "/share/project/shapes/caffe-weighted-samples/examples/singleNet/testFileList.txt"
    batch_size: 60
  }
  include {
    phase: TEST
  }
}
layers {
  bottom: "data"
  top: "conv1"
  name: "conv1"
  type: CONVOLUTION
  blobs_lr: 1
  blobs_lr: 2
  convolution_param {
    num_output: 96
    kernel_size: 4
    stride: 1
    weight_filler {
      type: "xavier"
    }
    bias_filler {
      type: "constant"
    }
  }
}
layers {
  bottom: "conv1"
  top: "conv1"
  name: "relu_conv1"
  type: RELU
}
layers {
  bottom: "conv1"
  top: "pool1"
  name: "pool1"
  type: POOLING
  pooling_param {
    pool: MAX
    kernel_size: 2
    stride: 2
  }
}
layers {
  bottom: "pool1"
  top: "conv2"
  name: "conv2"
  type: CONVOLUTION
  blobs_lr: 1
  blobs_lr: 2
  convolution_param {
    num_output: 256
    kernel_size: 3
    stride: 1
    weight_filler {
      type: "xavier"
    }
    bias_filler {
      type: "constant"
    }
  }
}
layers {
  bottom: "conv2"
  top: "conv2"
  name: "relu_conv2"
  type: RELU
}
layers {
  bottom: "conv2"
  top: "pool2"
  name: "pool2"
  type: POOLING
  pooling_param {
    pool: MAX
    kernel_size: 2
    stride: 2
  }
}
layers {
  bottom: "pool2"
  top: "conv3"
  name: "conv3"
  type: CONVOLUTION
  blobs_lr: 1
  blobs_lr: 2
  convolution_param {
    num_output: 64
    kernel_size: 4
    stride: 1
    weight_filler {
      type: "xavier"
    }
    bias_filler {
      type: "constant"
    }
  }
}
layers {
  bottom: "conv3"
  top: "conv3"
  name: "relu_conv3"
  type: RELU
}
layers {
  bottom: "conv3"
  top: "ip1"
  name: "ip1"
  type: INNER_PRODUCT
  blobs_lr: 1
  blobs_lr: 2
  inner_product_param {
    num_output: 256
    weight_filler {
      type: "xavier"
    }
    bias_filler {
      type: "constant"
    }
  }
}
layers {
  bottom: "ip1"
  top: "ip1"
  name: "relu1"
  type: RELU
}
layers {
  bottom: "ip1"
  top: "ip2"
  name: "ip2"
  type: INNER_PRODUCT
  blobs_lr: 1
  blobs_lr: 2
  inner_product_param {
    num_output: 256
    weight_filler {
      type: "xavier"
    }
    bias_filler {
      type: "constant"
    }
  }
}
layers {
  bottom: "ip2"
  top: "ip2"
  name: "relu2"
  type: RELU
}
layers {
  bottom: "ip2"
  top: "ip3"
  name: "ip3"
  type: INNER_PRODUCT
  blobs_lr: 1
  blobs_lr: 2
  inner_product_param {
    num_output: 2
    weight_filler {
      type: "xavier"
    }
    bias_filler {
      type: "constant"
    }
  }
}
layers {
  bottom: "ip3"
  bottom: "label"
  top: "accuracy"
  name: "accuracy"
  type: ACCURACY
  include {
    phase: TEST
  }
}
layers {
  bottom: "ip3"
  bottom: "label"
  bottom: "sample_weight"
  top: "loss"
  name: "loss"
  type: SOFTMAX_LOSS
}
state {
  phase: TEST
}
I0224 20:41:36.486379  5570 net.cpp:67] Creating Layer data
I0224 20:41:36.486390  5570 net.cpp:356] data -> data
I0224 20:41:36.486403  5570 net.cpp:356] data -> label
I0224 20:41:36.486413  5570 net.cpp:356] data -> sample_weight
I0224 20:41:36.486420  5570 net.cpp:96] Setting up data
I0224 20:41:36.486426  5570 hdf5_data_layer.cpp:63] Loading filename from /share/project/shapes/caffe-weighted-samples/examples/singleNet/testFileList.txt
I0224 20:41:36.510187  5570 hdf5_data_layer.cpp:75] Number of files: 1
I0224 20:41:36.510217  5570 hdf5_data_layer.cpp:29] Loading HDF5 file/scratch/stephenchen/shapes/singleNet/hdf5/test_batch_35x35/testHDF_1_35x35.h5
I0224 20:41:48.708704  5570 hdf5_data_layer.cpp:55] Successully loaded 59000 rows
I0224 20:41:48.708739  5570 hdf5_data_layer.cpp:89] output data size: 60,4,35,35
I0224 20:41:48.708750  5570 net.cpp:103] Top shape: 60 4 35 35 (294000)
I0224 20:41:48.708756  5570 net.cpp:103] Top shape: 60 1 1 1 (60)
I0224 20:41:48.708761  5570 net.cpp:103] Top shape: 60 1 1 1 (60)
I0224 20:41:48.708780  5570 net.cpp:67] Creating Layer label_data_1_split
I0224 20:41:48.708787  5570 net.cpp:394] label_data_1_split <- label
I0224 20:41:48.708796  5570 net.cpp:356] label_data_1_split -> label_data_1_split_0
I0224 20:41:48.708811  5570 net.cpp:356] label_data_1_split -> label_data_1_split_1
I0224 20:41:48.708819  5570 net.cpp:96] Setting up label_data_1_split
I0224 20:41:48.708827  5570 net.cpp:103] Top shape: 60 1 1 1 (60)
I0224 20:41:48.708832  5570 net.cpp:103] Top shape: 60 1 1 1 (60)
I0224 20:41:48.708842  5570 net.cpp:67] Creating Layer conv1
I0224 20:41:48.708848  5570 net.cpp:394] conv1 <- data
I0224 20:41:48.708855  5570 net.cpp:356] conv1 -> conv1
I0224 20:41:48.708863  5570 net.cpp:96] Setting up conv1
I0224 20:41:48.708951  5570 net.cpp:103] Top shape: 60 96 32 32 (5898240)
I0224 20:41:48.708971  5570 net.cpp:67] Creating Layer relu_conv1
I0224 20:41:48.708976  5570 net.cpp:394] relu_conv1 <- conv1
I0224 20:41:48.708983  5570 net.cpp:345] relu_conv1 -> conv1 (in-place)
I0224 20:41:48.708991  5570 net.cpp:96] Setting up relu_conv1
I0224 20:41:48.708997  5570 net.cpp:103] Top shape: 60 96 32 32 (5898240)
I0224 20:41:48.709004  5570 net.cpp:67] Creating Layer pool1
I0224 20:41:48.709009  5570 net.cpp:394] pool1 <- conv1
I0224 20:41:48.709017  5570 net.cpp:356] pool1 -> pool1
I0224 20:41:48.709023  5570 net.cpp:96] Setting up pool1
I0224 20:41:48.709031  5570 net.cpp:103] Top shape: 60 96 16 16 (1474560)
I0224 20:41:48.709039  5570 net.cpp:67] Creating Layer conv2
I0224 20:41:48.709044  5570 net.cpp:394] conv2 <- pool1
I0224 20:41:48.709051  5570 net.cpp:356] conv2 -> conv2
I0224 20:41:48.709059  5570 net.cpp:96] Setting up conv2
I0224 20:41:48.711755  5570 net.cpp:103] Top shape: 60 256 14 14 (3010560)
I0224 20:41:48.711799  5570 net.cpp:67] Creating Layer relu_conv2
I0224 20:41:48.711807  5570 net.cpp:394] relu_conv2 <- conv2
I0224 20:41:48.711814  5570 net.cpp:345] relu_conv2 -> conv2 (in-place)
I0224 20:41:48.711841  5570 net.cpp:96] Setting up relu_conv2
I0224 20:41:48.711848  5570 net.cpp:103] Top shape: 60 256 14 14 (3010560)
I0224 20:41:48.711855  5570 net.cpp:67] Creating Layer pool2
I0224 20:41:48.711860  5570 net.cpp:394] pool2 <- conv2
I0224 20:41:48.711866  5570 net.cpp:356] pool2 -> pool2
I0224 20:41:48.711876  5570 net.cpp:96] Setting up pool2
I0224 20:41:48.711885  5570 net.cpp:103] Top shape: 60 256 7 7 (752640)
I0224 20:41:48.711896  5570 net.cpp:67] Creating Layer conv3
I0224 20:41:48.711901  5570 net.cpp:394] conv3 <- pool2
I0224 20:41:48.711908  5570 net.cpp:356] conv3 -> conv3
I0224 20:41:48.711915  5570 net.cpp:96] Setting up conv3
I0224 20:41:48.715061  5570 net.cpp:103] Top shape: 60 64 4 4 (61440)
I0224 20:41:48.715104  5570 net.cpp:67] Creating Layer relu_conv3
I0224 20:41:48.715111  5570 net.cpp:394] relu_conv3 <- conv3
I0224 20:41:48.715121  5570 net.cpp:345] relu_conv3 -> conv3 (in-place)
I0224 20:41:48.715129  5570 net.cpp:96] Setting up relu_conv3
I0224 20:41:48.715134  5570 net.cpp:103] Top shape: 60 64 4 4 (61440)
I0224 20:41:48.715143  5570 net.cpp:67] Creating Layer ip1
I0224 20:41:48.715148  5570 net.cpp:394] ip1 <- conv3
I0224 20:41:48.715154  5570 net.cpp:356] ip1 -> ip1
I0224 20:41:48.715162  5570 net.cpp:96] Setting up ip1
I0224 20:41:48.718320  5570 net.cpp:103] Top shape: 60 256 1 1 (15360)
I0224 20:41:48.718363  5570 net.cpp:67] Creating Layer relu1
I0224 20:41:48.718369  5570 net.cpp:394] relu1 <- ip1
I0224 20:41:48.718379  5570 net.cpp:345] relu1 -> ip1 (in-place)
I0224 20:41:48.718387  5570 net.cpp:96] Setting up relu1
I0224 20:41:48.718392  5570 net.cpp:103] Top shape: 60 256 1 1 (15360)
I0224 20:41:48.718401  5570 net.cpp:67] Creating Layer ip2
I0224 20:41:48.718406  5570 net.cpp:394] ip2 <- ip1
I0224 20:41:48.718413  5570 net.cpp:356] ip2 -> ip2
I0224 20:41:48.718421  5570 net.cpp:96] Setting up ip2
I0224 20:41:48.719161  5570 net.cpp:103] Top shape: 60 256 1 1 (15360)
I0224 20:41:48.719202  5570 net.cpp:67] Creating Layer relu2
I0224 20:41:48.719208  5570 net.cpp:394] relu2 <- ip2
I0224 20:41:48.719218  5570 net.cpp:345] relu2 -> ip2 (in-place)
I0224 20:41:48.719225  5570 net.cpp:96] Setting up relu2
I0224 20:41:48.719230  5570 net.cpp:103] Top shape: 60 256 1 1 (15360)
I0224 20:41:48.719239  5570 net.cpp:67] Creating Layer ip3
I0224 20:41:48.719244  5570 net.cpp:394] ip3 <- ip2
I0224 20:41:48.719250  5570 net.cpp:356] ip3 -> ip3
I0224 20:41:48.719259  5570 net.cpp:96] Setting up ip3
I0224 20:41:48.719275  5570 net.cpp:103] Top shape: 60 2 1 1 (120)
I0224 20:41:48.719285  5570 net.cpp:67] Creating Layer ip3_ip3_0_split
I0224 20:41:48.719290  5570 net.cpp:394] ip3_ip3_0_split <- ip3
I0224 20:41:48.719297  5570 net.cpp:356] ip3_ip3_0_split -> ip3_ip3_0_split_0
I0224 20:41:48.719305  5570 net.cpp:356] ip3_ip3_0_split -> ip3_ip3_0_split_1
I0224 20:41:48.719312  5570 net.cpp:96] Setting up ip3_ip3_0_split
I0224 20:41:48.719318  5570 net.cpp:103] Top shape: 60 2 1 1 (120)
I0224 20:41:48.719323  5570 net.cpp:103] Top shape: 60 2 1 1 (120)
I0224 20:41:48.719334  5570 net.cpp:67] Creating Layer accuracy
I0224 20:41:48.719339  5570 net.cpp:394] accuracy <- ip3_ip3_0_split_0
I0224 20:41:48.719346  5570 net.cpp:394] accuracy <- label_data_1_split_0
I0224 20:41:48.719352  5570 net.cpp:356] accuracy -> accuracy
I0224 20:41:48.719359  5570 net.cpp:96] Setting up accuracy
I0224 20:41:48.719365  5570 net.cpp:103] Top shape: 1 1 1 1 (1)
I0224 20:41:48.719374  5570 net.cpp:67] Creating Layer loss
I0224 20:41:48.719379  5570 net.cpp:394] loss <- ip3_ip3_0_split_1
I0224 20:41:48.719384  5570 net.cpp:394] loss <- label_data_1_split_1
I0224 20:41:48.719390  5570 net.cpp:394] loss <- sample_weight
I0224 20:41:48.719398  5570 net.cpp:356] loss -> loss
I0224 20:41:48.719406  5570 net.cpp:96] Setting up loss
I0224 20:41:48.719415  5570 net.cpp:103] Top shape: 1 1 1 1 (1)
I0224 20:41:48.719420  5570 net.cpp:109]     with loss weight 1
I0224 20:41:48.719436  5570 net.cpp:170] loss needs backward computation.
I0224 20:41:48.719441  5570 net.cpp:172] accuracy does not need backward computation.
I0224 20:41:48.719456  5570 net.cpp:170] ip3_ip3_0_split needs backward computation.
I0224 20:41:48.719738  5570 net.cpp:170] ip3 needs backward computation.
I0224 20:41:48.719751  5570 net.cpp:170] relu2 needs backward computation.
…
