…
I0225 16:40:40.134109 12816 net.cpp:275] The NetState phase (0) differed from the phase (1) specified by a rule in layer data
I0225 16:40:40.134130 12816 net.cpp:275] The NetState phase (0) differed from the phase (1) specified by a rule in layer accuracy
I0225 16:40:40.134276 12816 net.cpp:39] Initializing net from parameters: 
name: "LogisticRegressionNet"
layers {
  top: "data"
  top: "label"
  top: "sample_weight"
  name: "data"
  type: HDF5_DATA
  hdf5_data_param {
    source: "/share/project/shapes/caffe-weighted-samples/examples/singleNet/trainFileList.txt"
    batch_size: 100
  }
  include {
    phase: TRAIN
  }
}
layers {
  bottom: "data"
  top: "conv1"
  name: "conv1"
  type: CONVOLUTION
  blobs_lr: 1
  blobs_lr: 2
  convolution_param {
    num_output: 96
    kernel_size: 4
    stride: 1
    weight_filler {
      type: "xavier"
    }
    bias_filler {
      type: "constant"
    }
  }
}
layers {
  bottom: "conv1"
  top: "conv1"
  name: "relu_conv1"
  type: RELU
}
layers {
  bottom: "conv1"
  top: "pool1"
  name: "pool1"
  type: POOLING
  pooling_param {
    pool: MAX
    kernel_size: 2
    stride: 2
  }
}
layers {
  bottom: "pool1"
  top: "conv2"
  name: "conv2"
  type: CONVOLUTION
  blobs_lr: 1
  blobs_lr: 2
  convolution_param {
    num_output: 256
    kernel_size: 3
    stride: 1
    weight_filler {
      type: "xavier"
    }
    bias_filler {
      type: "constant"
    }
  }
}
layers {
  bottom: "conv2"
  top: "conv2"
  name: "relu_conv2"
  type: RELU
}
layers {
  bottom: "conv2"
  top: "pool2"
  name: "pool2"
  type: POOLING
  pooling_param {
    pool: MAX
    kernel_size: 2
    stride: 2
  }
}
layers {
  bottom: "pool2"
  top: "conv3"
  name: "conv3"
  type: CONVOLUTION
  blobs_lr: 1
  blobs_lr: 2
  convolution_param {
    num_output: 64
    kernel_size: 4
    stride: 1
    weight_filler {
      type: "xavier"
    }
    bias_filler {
      type: "constant"
    }
  }
}
layers {
  bottom: "conv3"
  top: "conv3"
  name: "relu_conv3"
  type: RELU
}
layers {
  bottom: "conv3"
  top: "ip1"
  name: "ip1"
  type: INNER_PRODUCT
  blobs_lr: 1
  blobs_lr: 2
  inner_product_param {
    num_output: 256
    weight_filler {
      type: "xavier"
    }
    bias_filler {
      type: "constant"
    }
  }
}
layers {
  bottom: "ip1"
  top: "ip1"
  name: "relu1"
  type: RELU
}
layers {
  bottom: "ip1"
  top: "ip2"
  name: "ip2"
  type: INNER_PRODUCT
  blobs_lr: 1
  blobs_lr: 2
  inner_product_param {
    num_output: 256
    weight_filler {
      type: "xavier"
    }
    bias_filler {
      type: "constant"
    }
  }
}
layers {
  bottom: "ip2"
  top: "ip2"
  name: "relu2"
  type: RELU
}
layers {
  bottom: "ip2"
  top: "ip3"
  name: "ip3"
  type: INNER_PRODUCT
  blobs_lr: 1
  blobs_lr: 2
  inner_product_param {
    num_output: 2
    weight_filler {
      type: "xavier"
    }
    bias_filler {
      type: "constant"
    }
  }
}
layers {
  bottom: "ip3"
  bottom: "label"
  bottom: "sample_weight"
  top: "loss"
  name: "loss"
  type: SOFTMAX_LOSS
}
state {
  phase: TRAIN
}
I0225 16:40:40.134435 12816 net.cpp:67] Creating Layer data
I0225 16:40:40.134461 12816 net.cpp:356] data -> data
I0225 16:40:40.134490 12816 net.cpp:356] data -> label
I0225 16:40:40.134510 12816 net.cpp:356] data -> sample_weight
I0225 16:40:40.134518 12816 net.cpp:96] Setting up data
I0225 16:40:40.134526 12816 hdf5_data_layer.cpp:63] Loading filename from /share/project/shapes/caffe-weighted-samples/examples/singleNet/trainFileList.txt
I0225 16:40:40.135262 12816 hdf5_data_layer.cpp:75] Number of files: 3
I0225 16:40:40.135278 12816 hdf5_data_layer.cpp:29] Loading HDF5 file/scratch/stephenchen/shapes/singleNet/hdf5/train_batch_35x35/trainHDF_1_35x35.h5
I0225 16:40:48.297852 12816 hdf5_data_layer.cpp:55] Successully loaded 196600 rows
I0225 16:40:48.297878 12816 hdf5_data_layer.cpp:89] output data size: 100,4,35,35
I0225 16:40:48.297930 12816 net.cpp:103] Top shape: 100 4 35 35 (490000)
I0225 16:40:48.297936 12816 net.cpp:103] Top shape: 100 1 1 1 (100)
I0225 16:40:48.297941 12816 net.cpp:103] Top shape: 100 1 1 1 (100)
I0225 16:40:48.297957 12816 net.cpp:67] Creating Layer conv1
I0225 16:40:48.297963 12816 net.cpp:394] conv1 <- data
I0225 16:40:48.297983 12816 net.cpp:356] conv1 -> conv1
I0225 16:40:48.297996 12816 net.cpp:96] Setting up conv1
I0225 16:40:48.298676 12816 net.cpp:103] Top shape: 100 96 32 32 (9830400)
I0225 16:40:48.298738 12816 net.cpp:67] Creating Layer relu_conv1
I0225 16:40:48.298744 12816 net.cpp:394] relu_conv1 <- conv1
I0225 16:40:48.298751 12816 net.cpp:345] relu_conv1 -> conv1 (in-place)
I0225 16:40:48.298758 12816 net.cpp:96] Setting up relu_conv1
I0225 16:40:48.298763 12816 net.cpp:103] Top shape: 100 96 32 32 (9830400)
I0225 16:40:48.298771 12816 net.cpp:67] Creating Layer pool1
I0225 16:40:48.298776 12816 net.cpp:394] pool1 <- conv1
I0225 16:40:48.298782 12816 net.cpp:356] pool1 -> pool1
I0225 16:40:48.298789 12816 net.cpp:96] Setting up pool1
I0225 16:40:48.298810 12816 net.cpp:103] Top shape: 100 96 16 16 (2457600)
I0225 16:40:48.298820 12816 net.cpp:67] Creating Layer conv2
I0225 16:40:48.298823 12816 net.cpp:394] conv2 <- pool1
I0225 16:40:48.298830 12816 net.cpp:356] conv2 -> conv2
I0225 16:40:48.298838 12816 net.cpp:96] Setting up conv2
I0225 16:40:48.301271 12816 net.cpp:103] Top shape: 100 256 14 14 (5017600)
I0225 16:40:48.301290 12816 net.cpp:67] Creating Layer relu_conv2
I0225 16:40:48.301295 12816 net.cpp:394] relu_conv2 <- conv2
I0225 16:40:48.301301 12816 net.cpp:345] relu_conv2 -> conv2 (in-place)
I0225 16:40:48.301308 12816 net.cpp:96] Setting up relu_conv2
I0225 16:40:48.301313 12816 net.cpp:103] Top shape: 100 256 14 14 (5017600)
I0225 16:40:48.301321 12816 net.cpp:67] Creating Layer pool2
I0225 16:40:48.301324 12816 net.cpp:394] pool2 <- conv2
I0225 16:40:48.301331 12816 net.cpp:356] pool2 -> pool2
I0225 16:40:48.301338 12816 net.cpp:96] Setting up pool2
I0225 16:40:48.301344 12816 net.cpp:103] Top shape: 100 256 7 7 (1254400)
I0225 16:40:48.301352 12816 net.cpp:67] Creating Layer conv3
I0225 16:40:48.301357 12816 net.cpp:394] conv3 <- pool2
I0225 16:40:48.301363 12816 net.cpp:356] conv3 -> conv3
I0225 16:40:48.301370 12816 net.cpp:96] Setting up conv3
I0225 16:40:48.304286 12816 net.cpp:103] Top shape: 100 64 4 4 (102400)
I0225 16:40:48.304304 12816 net.cpp:67] Creating Layer relu_conv3
I0225 16:40:48.304309 12816 net.cpp:394] relu_conv3 <- conv3
I0225 16:40:48.304316 12816 net.cpp:345] relu_conv3 -> conv3 (in-place)
I0225 16:40:48.304322 12816 net.cpp:96] Setting up relu_conv3
I0225 16:40:48.304327 12816 net.cpp:103] Top shape: 100 64 4 4 (102400)
I0225 16:40:48.304334 12816 net.cpp:67] Creating Layer ip1
I0225 16:40:48.304339 12816 net.cpp:394] ip1 <- conv3
I0225 16:40:48.304345 12816 net.cpp:356] ip1 -> ip1
I0225 16:40:48.304353 12816 net.cpp:96] Setting up ip1
I0225 16:40:48.307199 12816 net.cpp:103] Top shape: 100 256 1 1 (25600)
I0225 16:40:48.307216 12816 net.cpp:67] Creating Layer relu1
I0225 16:40:48.307221 12816 net.cpp:394] relu1 <- ip1
I0225 16:40:48.307229 12816 net.cpp:345] relu1 -> ip1 (in-place)
I0225 16:40:48.307235 12816 net.cpp:96] Setting up relu1
I0225 16:40:48.307240 12816 net.cpp:103] Top shape: 100 256 1 1 (25600)
I0225 16:40:48.307246 12816 net.cpp:67] Creating Layer ip2
I0225 16:40:48.307251 12816 net.cpp:394] ip2 <- ip1
I0225 16:40:48.307257 12816 net.cpp:356] ip2 -> ip2
I0225 16:40:48.307265 12816 net.cpp:96] Setting up ip2
I0225 16:40:48.307939 12816 net.cpp:103] Top shape: 100 256 1 1 (25600)
I0225 16:40:48.307955 12816 net.cpp:67] Creating Layer relu2
I0225 16:40:48.307960 12816 net.cpp:394] relu2 <- ip2
I0225 16:40:48.307966 12816 net.cpp:345] relu2 -> ip2 (in-place)
I0225 16:40:48.307976 12816 net.cpp:96] Setting up relu2
I0225 16:40:48.307981 12816 net.cpp:103] Top shape: 100 256 1 1 (25600)
I0225 16:40:48.307988 12816 net.cpp:67] Creating Layer ip3
I0225 16:40:48.307992 12816 net.cpp:394] ip3 <- ip2
I0225 16:40:48.307998 12816 net.cpp:356] ip3 -> ip3
I0225 16:40:48.308006 12816 net.cpp:96] Setting up ip3
I0225 16:40:48.308019 12816 net.cpp:103] Top shape: 100 2 1 1 (200)
I0225 16:40:48.308032 12816 net.cpp:67] Creating Layer loss
I0225 16:40:48.308037 12816 net.cpp:394] loss <- ip3
I0225 16:40:48.308043 12816 net.cpp:394] loss <- label
I0225 16:40:48.308048 12816 net.cpp:394] loss <- sample_weight
I0225 16:40:48.308054 12816 net.cpp:356] loss -> loss
I0225 16:40:48.308061 12816 net.cpp:96] Setting up loss
I0225 16:40:48.308070 12816 net.cpp:103] Top shape: 1 1 1 1 (1)
I0225 16:40:48.308075 12816 net.cpp:109]     with loss weight 1
I0225 16:40:48.308131 12816 net.cpp:170] loss needs backward computation.
I0225 16:40:48.308136 12816 net.cpp:170] ip3 needs backward computation.
I0225 16:40:48.308141 12816 net.cpp:170] relu2 needs backward computation.
I0225 16:40:48.308146 12816 net.cpp:170] ip2 needs backward computation.
I0225 16:40:48.308151 12816 net.cpp:170] relu1 needs backward computation.
…
I0225 16:40:48.309033 12816 solver.cpp:151] Creating test net (#0) specified by net file: examples/singleNet/train_val_v0.3.prototxt
I0225 16:40:48.309064 12816 net.cpp:275] The NetState phase (1) differed from the phase (0) specified by a rule in layer data
I0225 16:40:48.309226 12816 net.cpp:39] Initializing net from parameters: 
name: "LogisticRegressionNet"
layers {
  top: "data"
  top: "label"
  top: "sample_weight"
  name: "data"
  type: HDF5_DATA
  hdf5_data_param {
    source: "/share/project/shapes/caffe-weighted-samples/examples/singleNet/testFileList.txt"
    batch_size: 100
  }
  include {
    phase: TEST
  }
}
layers {
  bottom: "data"
  top: "conv1"
  name: "conv1"
  type: CONVOLUTION
  blobs_lr: 1
  blobs_lr: 2
  convolution_param {
    num_output: 96
    kernel_size: 4
    stride: 1
    weight_filler {
      type: "xavier"
    }
    bias_filler {
      type: "constant"
    }
  }
}
layers {
  bottom: "conv1"
  top: "conv1"
  name: "relu_conv1"
  type: RELU
}
layers {
  bottom: "conv1"
  top: "pool1"
  name: "pool1"
  type: POOLING
  pooling_param {
    pool: MAX
    kernel_size: 2
    stride: 2
  }
}
layers {
  bottom: "pool1"
  top: "conv2"
  name: "conv2"
  type: CONVOLUTION
  blobs_lr: 1
  blobs_lr: 2
  convolution_param {
    num_output: 256
    kernel_size: 3
    stride: 1
    weight_filler {
      type: "xavier"
    }
    bias_filler {
      type: "constant"
    }
  }
}
layers {
  bottom: "conv2"
  top: "conv2"
  name: "relu_conv2"
  type: RELU
}
layers {
  bottom: "conv2"
  top: "pool2"
  name: "pool2"
  type: POOLING
  pooling_param {
    pool: MAX
    kernel_size: 2
    stride: 2
  }
}
layers {
  bottom: "pool2"
  top: "conv3"
  name: "conv3"
  type: CONVOLUTION
  blobs_lr: 1
  blobs_lr: 2
  convolution_param {
    num_output: 64
    kernel_size: 4
    stride: 1
    weight_filler {
      type: "xavier"
    }
    bias_filler {
      type: "constant"
    }
  }
}
layers {
  bottom: "conv3"
  top: "conv3"
  name: "relu_conv3"
  type: RELU
}
layers {
  bottom: "conv3"
  top: "ip1"
  name: "ip1"
  type: INNER_PRODUCT
  blobs_lr: 1
  blobs_lr: 2
  inner_product_param {
    num_output: 256
    weight_filler {
      type: "xavier"
    }
    bias_filler {
      type: "constant"
    }
  }
}
layers {
  bottom: "ip1"
  top: "ip1"
  name: "relu1"
  type: RELU
}
layers {
  bottom: "ip1"
  top: "ip2"
  name: "ip2"
  type: INNER_PRODUCT
  blobs_lr: 1
  blobs_lr: 2
  inner_product_param {
    num_output: 256
    weight_filler {
      type: "xavier"
    }
    bias_filler {
      type: "constant"
    }
  }
}
layers {
  bottom: "ip2"
  top: "ip2"
  name: "relu2"
  type: RELU
}
layers {
  bottom: "ip2"
  top: "ip3"
  name: "ip3"
  type: INNER_PRODUCT
  blobs_lr: 1
  blobs_lr: 2
  inner_product_param {
    num_output: 2
    weight_filler {
      type: "xavier"
    }
    bias_filler {
      type: "constant"
    }
  }
}
layers {
  bottom: "ip3"
  bottom: "label"
  top: "accuracy"
  name: "accuracy"
  type: ACCURACY
  include {
    phase: TEST
  }
}
layers {
  bottom: "ip3"
  bottom: "label"
  bottom: "sample_weight"
  top: "loss"
  name: "loss"
  type: SOFTMAX_LOSS
}
state {
  phase: TEST
}
I0225 16:40:48.309412 12816 net.cpp:67] Creating Layer data
I0225 16:40:48.309422 12816 net.cpp:356] data -> data
I0225 16:40:48.309432 12816 net.cpp:356] data -> label
I0225 16:40:48.309439 12816 net.cpp:356] data -> sample_weight
I0225 16:40:48.309448 12816 net.cpp:96] Setting up data
I0225 16:40:48.309453 12816 hdf5_data_layer.cpp:63] Loading filename from /share/project/shapes/caffe-weighted-samples/examples/singleNet/testFileList.txt
I0225 16:40:48.310508 12816 hdf5_data_layer.cpp:75] Number of files: 3
I0225 16:40:48.310528 12816 hdf5_data_layer.cpp:29] Loading HDF5 file/scratch/stephenchen/shapes/singleNet/hdf5/train_batch_35x35/trainHDF_1_35x35.h5
I0225 16:41:32.496561 12816 hdf5_data_layer.cpp:55] Successully loaded 196600 rows
I0225 16:41:32.503706 12816 hdf5_data_layer.cpp:89] output data size: 100,4,35,35
I0225 16:41:32.503756 12816 net.cpp:103] Top shape: 100 4 35 35 (490000)
I0225 16:41:32.503770 12816 net.cpp:103] Top shape: 100 1 1 1 (100)
I0225 16:41:32.503779 12816 net.cpp:103] Top shape: 100 1 1 1 (100)
I0225 16:41:32.503805 12816 net.cpp:67] Creating Layer label_data_1_split
I0225 16:41:32.503818 12816 net.cpp:394] label_data_1_split <- label
I0225 16:41:32.503832 12816 net.cpp:356] label_data_1_split -> label_data_1_split_0
I0225 16:41:32.503871 12816 net.cpp:356] label_data_1_split -> label_data_1_split_1
I0225 16:41:32.503888 12816 net.cpp:96] Setting up label_data_1_split
I0225 16:41:32.503901 12816 net.cpp:103] Top shape: 100 1 1 1 (100)
I0225 16:41:32.503911 12816 net.cpp:103] Top shape: 100 1 1 1 (100)
I0225 16:41:32.503927 12816 net.cpp:67] Creating Layer conv1
I0225 16:41:32.503937 12816 net.cpp:394] conv1 <- data
I0225 16:41:32.503949 12816 net.cpp:356] conv1 -> conv1
I0225 16:41:32.503963 12816 net.cpp:96] Setting up conv1
I0225 16:41:32.504143 12816 net.cpp:103] Top shape: 100 96 32 32 (9830400)
I0225 16:41:32.504176 12816 net.cpp:67] Creating Layer relu_conv1
I0225 16:41:32.504185 12816 net.cpp:394] relu_conv1 <- conv1
I0225 16:41:32.504197 12816 net.cpp:345] relu_conv1 -> conv1 (in-place)
I0225 16:41:32.504210 12816 net.cpp:96] Setting up relu_conv1
I0225 16:41:32.504220 12816 net.cpp:103] Top shape: 100 96 32 32 (9830400)
I0225 16:41:32.504261 12816 net.cpp:67] Creating Layer pool1
I0225 16:41:32.504271 12816 net.cpp:394] pool1 <- conv1
I0225 16:41:32.504282 12816 net.cpp:356] pool1 -> pool1
I0225 16:41:32.504295 12816 net.cpp:96] Setting up pool1
I0225 16:41:32.504308 12816 net.cpp:103] Top shape: 100 96 16 16 (2457600)
I0225 16:41:32.504322 12816 net.cpp:67] Creating Layer conv2
I0225 16:41:32.504329 12816 net.cpp:394] conv2 <- pool1
I0225 16:41:32.504341 12816 net.cpp:356] conv2 -> conv2
I0225 16:41:32.504375 12816 net.cpp:96] Setting up conv2
I0225 16:41:32.508472 12816 net.cpp:103] Top shape: 100 256 14 14 (5017600)
I0225 16:41:32.508494 12816 net.cpp:67] Creating Layer relu_conv2
I0225 16:41:32.508501 12816 net.cpp:394] relu_conv2 <- conv2
I0225 16:41:32.508507 12816 net.cpp:345] relu_conv2 -> conv2 (in-place)
I0225 16:41:32.508514 12816 net.cpp:96] Setting up relu_conv2
I0225 16:41:32.508519 12816 net.cpp:103] Top shape: 100 256 14 14 (5017600)
I0225 16:41:32.508548 12816 net.cpp:67] Creating Layer pool2
I0225 16:41:32.508553 12816 net.cpp:394] pool2 <- conv2
I0225 16:41:32.508560 12816 net.cpp:356] pool2 -> pool2
I0225 16:41:32.508569 12816 net.cpp:96] Setting up pool2
I0225 16:41:32.508574 12816 net.cpp:103] Top shape: 100 256 7 7 (1254400)
I0225 16:41:32.508584 12816 net.cpp:67] Creating Layer conv3
I0225 16:41:32.508589 12816 net.cpp:394] conv3 <- pool2
I0225 16:41:32.508595 12816 net.cpp:356] conv3 -> conv3
I0225 16:41:32.508602 12816 net.cpp:96] Setting up conv3
I0225 16:41:32.511960 12816 net.cpp:103] Top shape: 100 64 4 4 (102400)
I0225 16:41:32.511981 12816 net.cpp:67] Creating Layer relu_conv3
I0225 16:41:32.511986 12816 net.cpp:394] relu_conv3 <- conv3
I0225 16:41:32.512014 12816 net.cpp:345] relu_conv3 -> conv3 (in-place)
I0225 16:41:32.512023 12816 net.cpp:96] Setting up relu_conv3
I0225 16:41:32.512028 12816 net.cpp:103] Top shape: 100 64 4 4 (102400)
I0225 16:41:32.512037 12816 net.cpp:67] Creating Layer ip1
I0225 16:41:32.512042 12816 net.cpp:394] ip1 <- conv3
I0225 16:41:32.512048 12816 net.cpp:356] ip1 -> ip1
I0225 16:41:32.512056 12816 net.cpp:96] Setting up ip1
I0225 16:41:32.515236 12816 net.cpp:103] Top shape: 100 256 1 1 (25600)
I0225 16:41:32.515254 12816 net.cpp:67] Creating Layer relu1
I0225 16:41:32.515259 12816 net.cpp:394] relu1 <- ip1
I0225 16:41:32.515265 12816 net.cpp:345] relu1 -> ip1 (in-place)
I0225 16:41:32.515272 12816 net.cpp:96] Setting up relu1
I0225 16:41:32.515277 12816 net.cpp:103] Top shape: 100 256 1 1 (25600)
I0225 16:41:32.515285 12816 net.cpp:67] Creating Layer ip2
I0225 16:41:32.515290 12816 net.cpp:394] ip2 <- ip1
I0225 16:41:32.515295 12816 net.cpp:356] ip2 -> ip2
I0225 16:41:32.515302 12816 net.cpp:96] Setting up ip2
I0225 16:41:32.516141 12816 net.cpp:103] Top shape: 100 256 1 1 (25600)
I0225 16:41:32.516160 12816 net.cpp:67] Creating Layer relu2
I0225 16:41:32.516165 12816 net.cpp:394] relu2 <- ip2
I0225 16:41:32.516172 12816 net.cpp:345] relu2 -> ip2 (in-place)
I0225 16:41:32.516202 12816 net.cpp:96] Setting up relu2
I0225 16:41:32.516209 12816 net.cpp:103] Top shape: 100 256 1 1 (25600)
I0225 16:41:32.516217 12816 net.cpp:67] Creating Layer ip3
I0225 16:41:32.516222 12816 net.cpp:394] ip3 <- ip2
I0225 16:41:32.516229 12816 net.cpp:356] ip3 -> ip3
I0225 16:41:32.516237 12816 net.cpp:96] Setting up ip3
I0225 16:41:32.516252 12816 net.cpp:103] Top shape: 100 2 1 1 (200)
I0225 16:41:32.516262 12816 net.cpp:67] Creating Layer ip3_ip3_0_split
I0225 16:41:32.516266 12816 net.cpp:394] ip3_ip3_0_split <- ip3
I0225 16:41:32.516273 12816 net.cpp:356] ip3_ip3_0_split -> ip3_ip3_0_split_0
I0225 16:41:32.516281 12816 net.cpp:356] ip3_ip3_0_split -> ip3_ip3_0_split_1
I0225 16:41:32.516288 12816 net.cpp:96] Setting up ip3_ip3_0_split
I0225 16:41:32.516294 12816 net.cpp:103] Top shape: 100 2 1 1 (200)
I0225 16:41:32.516299 12816 net.cpp:103] Top shape: 100 2 1 1 (200)
I0225 16:41:32.516325 12816 net.cpp:67] Creating Layer accuracy
I0225 16:41:32.516332 12816 net.cpp:394] accuracy <- ip3_ip3_0_split_0
I0225 16:41:32.516340 12816 net.cpp:394] accuracy <- label_data_1_split_0
I0225 16:41:32.516345 12816 net.cpp:356] accuracy -> accuracy
I0225 16:41:32.516355 12816 net.cpp:96] Setting up accuracy
I0225 16:41:32.516360 12816 net.cpp:103] Top shape: 1 1 1 1 (1)
I0225 16:41:32.516367 12816 net.cpp:67] Creating Layer loss
I0225 16:41:32.516372 12816 net.cpp:394] loss <- ip3_ip3_0_split_1
I0225 16:41:32.516378 12816 net.cpp:394] loss <- label_data_1_split_1
I0225 16:41:32.516384 12816 net.cpp:394] loss <- sample_weight
I0225 16:41:32.516391 12816 net.cpp:356] loss -> loss
I0225 16:41:32.516399 12816 net.cpp:96] Setting up loss
I0225 16:41:32.516408 12816 net.cpp:103] Top shape: 1 1 1 1 (1)
I0225 16:41:32.516413 12816 net.cpp:109]     with loss weight 1
I0225 16:41:32.516465 12816 net.cpp:170] loss needs backward computation.
I0225 16:41:32.516472 12816 net.cpp:172] accuracy does not need backward computation.
I0225 16:41:32.516477 12816 net.cpp:170] ip3_ip3_0_split needs backward computation.
I0225 16:41:32.516482 12816 net.cpp:170] ip3 needs backward computation.
I0225 16:41:32.516487 12816 net.cpp:170] relu2 needs backward computation.
…
