…
I0226 14:52:50.460686 31679 net.cpp:275] The NetState phase (0) differed from the phase (1) specified by a rule in layer data
I0226 14:52:50.460723 31679 net.cpp:275] The NetState phase (0) differed from the phase (1) specified by a rule in layer accuracy
I0226 14:52:50.460988 31679 net.cpp:39] Initializing net from parameters: 
name: "LogisticRegressionNet"
layers {
  top: "data"
  top: "label"
  top: "sample_weight"
  name: "data"
  type: HDF5_DATA
  hdf5_data_param {
    source: "/share/project/shapes/caffe-weighted-samples/examples/singleNet/trainFileList.txt"
    batch_size: 100
  }
  include {
    phase: TRAIN
  }
}
layers {
  bottom: "data"
  top: "conv1"
  name: "conv1"
  type: CONVOLUTION
  blobs_lr: 1
  blobs_lr: 2
  convolution_param {
    num_output: 96
    kernel_size: 4
    stride: 1
    weight_filler {
      type: "xavier"
    }
    bias_filler {
      type: "constant"
    }
  }
}
layers {
  bottom: "conv1"
  top: "conv1"
  name: "relu_conv1"
  type: RELU
}
layers {
  bottom: "conv1"
  top: "pool1"
  name: "pool1"
  type: POOLING
  pooling_param {
    pool: MAX
    kernel_size: 2
    stride: 2
  }
}
layers {
  bottom: "pool1"
  top: "conv2"
  name: "conv2"
  type: CONVOLUTION
  blobs_lr: 1
  blobs_lr: 2
  convolution_param {
    num_output: 256
    kernel_size: 3
    stride: 1
    weight_filler {
      type: "xavier"
    }
    bias_filler {
      type: "constant"
    }
  }
}
layers {
  bottom: "conv2"
  top: "conv2"
  name: "relu_conv2"
  type: RELU
}
layers {
  bottom: "conv2"
  top: "pool2"
  name: "pool2"
  type: POOLING
  pooling_param {
    pool: MAX
    kernel_size: 2
    stride: 2
  }
}
layers {
  bottom: "pool2"
  top: "conv3"
  name: "conv3"
  type: CONVOLUTION
  blobs_lr: 1
  blobs_lr: 2
  convolution_param {
    num_output: 64
    kernel_size: 4
    stride: 1
    weight_filler {
      type: "xavier"
    }
    bias_filler {
      type: "constant"
    }
  }
}
layers {
  bottom: "conv3"
  top: "conv3"
  name: "relu_conv3"
  type: RELU
}
layers {
  bottom: "conv3"
  top: "ip1"
  name: "ip1"
  type: INNER_PRODUCT
  blobs_lr: 1
  blobs_lr: 2
  inner_product_param {
    num_output: 256
    weight_filler {
      type: "xavier"
    }
    bias_filler {
      type: "constant"
    }
  }
}
layers {
  bottom: "ip1"
  top: "ip1"
  name: "relu1"
  type: RELU
}
layers {
  bottom: "ip1"
  top: "ip2"
  name: "ip2"
  type: INNER_PRODUCT
  blobs_lr: 1
  blobs_lr: 2
  inner_product_param {
    num_output: 256
    weight_filler {
      type: "xavier"
    }
    bias_filler {
      type: "constant"
    }
  }
}
layers {
  bottom: "ip2"
  top: "ip2"
  name: "relu2"
  type: RELU
}
layers {
  bottom: "ip2"
  top: "ip3"
  name: "ip3"
  type: INNER_PRODUCT
  blobs_lr: 1
  blobs_lr: 2
  inner_product_param {
    num_output: 2
    weight_filler {
      type: "xavier"
    }
    bias_filler {
      type: "constant"
    }
  }
}
layers {
  bottom: "ip3"
  bottom: "label"
  bottom: "sample_weight"
  top: "loss"
  name: "loss"
  type: SOFTMAX_LOSS
}
state {
  phase: TRAIN
}
I0226 14:52:50.461264 31679 net.cpp:67] Creating Layer data
I0226 14:52:50.461282 31679 net.cpp:356] data -> data
I0226 14:52:50.461320 31679 net.cpp:356] data -> label
I0226 14:52:50.461349 31679 net.cpp:356] data -> sample_weight
I0226 14:52:50.461362 31679 net.cpp:96] Setting up data
I0226 14:52:50.461376 31679 hdf5_data_layer.cpp:63] Loading filename from /share/project/shapes/caffe-weighted-samples/examples/singleNet/trainFileList.txt
I0226 14:52:50.477994 31679 hdf5_data_layer.cpp:75] Number of files: 3
I0226 14:52:50.478025 31679 hdf5_data_layer.cpp:29] Loading HDF5 file/scratch/stephenchen/shapes/singleNet/hdf5/train_batch_35x35/trainHDF_1_35x35.h5
I0226 14:53:27.771174 31679 hdf5_data_layer.cpp:55] Successully loaded 196600 rows
I0226 14:53:27.771836 31679 hdf5_data_layer.cpp:89] output data size: 100,4,35,35
I0226 14:53:27.771931 31679 net.cpp:103] Top shape: 100 4 35 35 (490000)
I0226 14:53:27.771945 31679 net.cpp:103] Top shape: 100 1 1 1 (100)
I0226 14:53:27.771955 31679 net.cpp:103] Top shape: 100 1 1 1 (100)
I0226 14:53:27.771981 31679 net.cpp:67] Creating Layer conv1
I0226 14:53:27.771991 31679 net.cpp:394] conv1 <- data
I0226 14:53:27.772037 31679 net.cpp:356] conv1 -> conv1
I0226 14:53:27.772059 31679 net.cpp:96] Setting up conv1
I0226 14:53:27.773320 31679 net.cpp:103] Top shape: 100 96 32 32 (9830400)
I0226 14:53:27.773423 31679 net.cpp:67] Creating Layer relu_conv1
I0226 14:53:27.773437 31679 net.cpp:394] relu_conv1 <- conv1
I0226 14:53:27.773469 31679 net.cpp:345] relu_conv1 -> conv1 (in-place)
I0226 14:53:27.773484 31679 net.cpp:96] Setting up relu_conv1
I0226 14:53:27.773494 31679 net.cpp:103] Top shape: 100 96 32 32 (9830400)
I0226 14:53:27.773505 31679 net.cpp:67] Creating Layer pool1
I0226 14:53:27.773514 31679 net.cpp:394] pool1 <- conv1
I0226 14:53:27.773525 31679 net.cpp:356] pool1 -> pool1
I0226 14:53:27.773540 31679 net.cpp:96] Setting up pool1
I0226 14:53:27.773571 31679 net.cpp:103] Top shape: 100 96 16 16 (2457600)
I0226 14:53:27.773587 31679 net.cpp:67] Creating Layer conv2
I0226 14:53:27.773597 31679 net.cpp:394] conv2 <- pool1
I0226 14:53:27.773609 31679 net.cpp:356] conv2 -> conv2
I0226 14:53:27.773622 31679 net.cpp:96] Setting up conv2
I0226 14:53:27.777801 31679 net.cpp:103] Top shape: 100 256 14 14 (5017600)
I0226 14:53:27.777819 31679 net.cpp:67] Creating Layer relu_conv2
I0226 14:53:27.777825 31679 net.cpp:394] relu_conv2 <- conv2
I0226 14:53:27.777832 31679 net.cpp:345] relu_conv2 -> conv2 (in-place)
I0226 14:53:27.777839 31679 net.cpp:96] Setting up relu_conv2
I0226 14:53:27.777844 31679 net.cpp:103] Top shape: 100 256 14 14 (5017600)
I0226 14:53:27.777851 31679 net.cpp:67] Creating Layer pool2
I0226 14:53:27.777855 31679 net.cpp:394] pool2 <- conv2
I0226 14:53:27.777863 31679 net.cpp:356] pool2 -> pool2
I0226 14:53:27.777869 31679 net.cpp:96] Setting up pool2
I0226 14:53:27.777875 31679 net.cpp:103] Top shape: 100 256 7 7 (1254400)
I0226 14:53:27.777883 31679 net.cpp:67] Creating Layer conv3
I0226 14:53:27.777887 31679 net.cpp:394] conv3 <- pool2
I0226 14:53:27.777894 31679 net.cpp:356] conv3 -> conv3
I0226 14:53:27.777904 31679 net.cpp:96] Setting up conv3
I0226 14:53:27.780798 31679 net.cpp:103] Top shape: 100 64 4 4 (102400)
I0226 14:53:27.780817 31679 net.cpp:67] Creating Layer relu_conv3
I0226 14:53:27.780822 31679 net.cpp:394] relu_conv3 <- conv3
I0226 14:53:27.780829 31679 net.cpp:345] relu_conv3 -> conv3 (in-place)
I0226 14:53:27.780836 31679 net.cpp:96] Setting up relu_conv3
I0226 14:53:27.780840 31679 net.cpp:103] Top shape: 100 64 4 4 (102400)
I0226 14:53:27.780848 31679 net.cpp:67] Creating Layer ip1
I0226 14:53:27.780853 31679 net.cpp:394] ip1 <- conv3
I0226 14:53:27.780858 31679 net.cpp:356] ip1 -> ip1
I0226 14:53:27.780866 31679 net.cpp:96] Setting up ip1
I0226 14:53:27.783726 31679 net.cpp:103] Top shape: 100 256 1 1 (25600)
I0226 14:53:27.783741 31679 net.cpp:67] Creating Layer relu1
I0226 14:53:27.783747 31679 net.cpp:394] relu1 <- ip1
I0226 14:53:27.783753 31679 net.cpp:345] relu1 -> ip1 (in-place)
I0226 14:53:27.783761 31679 net.cpp:96] Setting up relu1
I0226 14:53:27.783766 31679 net.cpp:103] Top shape: 100 256 1 1 (25600)
I0226 14:53:27.783771 31679 net.cpp:67] Creating Layer ip2
I0226 14:53:27.783776 31679 net.cpp:394] ip2 <- ip1
I0226 14:53:27.783782 31679 net.cpp:356] ip2 -> ip2
I0226 14:53:27.783789 31679 net.cpp:96] Setting up ip2
I0226 14:53:27.784433 31679 net.cpp:103] Top shape: 100 256 1 1 (25600)
I0226 14:53:27.784458 31679 net.cpp:67] Creating Layer relu2
I0226 14:53:27.784469 31679 net.cpp:394] relu2 <- ip2
I0226 14:53:27.784476 31679 net.cpp:345] relu2 -> ip2 (in-place)
I0226 14:53:27.784484 31679 net.cpp:96] Setting up relu2
I0226 14:53:27.784489 31679 net.cpp:103] Top shape: 100 256 1 1 (25600)
I0226 14:53:27.784495 31679 net.cpp:67] Creating Layer ip3
I0226 14:53:27.784500 31679 net.cpp:394] ip3 <- ip2
I0226 14:53:27.784507 31679 net.cpp:356] ip3 -> ip3
I0226 14:53:27.784514 31679 net.cpp:96] Setting up ip3
I0226 14:53:27.784529 31679 net.cpp:103] Top shape: 100 2 1 1 (200)
I0226 14:53:27.784543 31679 net.cpp:67] Creating Layer loss
I0226 14:53:27.784548 31679 net.cpp:394] loss <- ip3
I0226 14:53:27.784554 31679 net.cpp:394] loss <- label
I0226 14:53:27.784559 31679 net.cpp:394] loss <- sample_weight
I0226 14:53:27.784565 31679 net.cpp:356] loss -> loss
I0226 14:53:27.784574 31679 net.cpp:96] Setting up loss
I0226 14:53:27.784582 31679 net.cpp:103] Top shape: 1 1 1 1 (1)
I0226 14:53:27.784589 31679 net.cpp:109]     with loss weight 1
I0226 14:53:27.784644 31679 net.cpp:170] loss needs backward computation.
I0226 14:53:27.784651 31679 net.cpp:170] ip3 needs backward computation.
I0226 14:53:27.784657 31679 net.cpp:170] relu2 needs backward computation.
I0226 14:53:27.784661 31679 net.cpp:170] ip2 needs backward computation.
I0226 14:53:27.784665 31679 net.cpp:170] relu1 needs backward computation.
…
I0226 14:53:27.786031 31679 solver.cpp:151] Creating test net (#0) specified by net file: examples/singleNet/train_val_v0.3.prototxt
I0226 14:53:27.786063 31679 net.cpp:275] The NetState phase (1) differed from the phase (0) specified by a rule in layer data
I0226 14:53:27.786231 31679 net.cpp:39] Initializing net from parameters: 
name: "LogisticRegressionNet"
layers {
  top: "data"
  top: "label"
  top: "sample_weight"
  name: "data"
  type: HDF5_DATA
  hdf5_data_param {
    source: "/share/project/shapes/caffe-weighted-samples/examples/singleNet/testFileList.txt"
    batch_size: 100
  }
  include {
    phase: TEST
  }
}
layers {
  bottom: "data"
  top: "conv1"
  name: "conv1"
  type: CONVOLUTION
  blobs_lr: 1
  blobs_lr: 2
  convolution_param {
    num_output: 96
    kernel_size: 4
    stride: 1
    weight_filler {
      type: "xavier"
    }
    bias_filler {
      type: "constant"
    }
  }
}
layers {
  bottom: "conv1"
  top: "conv1"
  name: "relu_conv1"
  type: RELU
}
layers {
  bottom: "conv1"
  top: "pool1"
  name: "pool1"
  type: POOLING
  pooling_param {
    pool: MAX
    kernel_size: 2
    stride: 2
  }
}
layers {
  bottom: "pool1"
  top: "conv2"
  name: "conv2"
  type: CONVOLUTION
  blobs_lr: 1
  blobs_lr: 2
  convolution_param {
    num_output: 256
    kernel_size: 3
    stride: 1
    weight_filler {
      type: "xavier"
    }
    bias_filler {
      type: "constant"
    }
  }
}
layers {
  bottom: "conv2"
  top: "conv2"
  name: "relu_conv2"
  type: RELU
}
layers {
  bottom: "conv2"
  top: "pool2"
  name: "pool2"
  type: POOLING
  pooling_param {
    pool: MAX
    kernel_size: 2
    stride: 2
  }
}
layers {
  bottom: "pool2"
  top: "conv3"
  name: "conv3"
  type: CONVOLUTION
  blobs_lr: 1
  blobs_lr: 2
  convolution_param {
    num_output: 64
    kernel_size: 4
    stride: 1
    weight_filler {
      type: "xavier"
    }
    bias_filler {
      type: "constant"
    }
  }
}
layers {
  bottom: "conv3"
  top: "conv3"
  name: "relu_conv3"
  type: RELU
}
layers {
  bottom: "conv3"
  top: "ip1"
  name: "ip1"
  type: INNER_PRODUCT
  blobs_lr: 1
  blobs_lr: 2
  inner_product_param {
    num_output: 256
    weight_filler {
      type: "xavier"
    }
    bias_filler {
      type: "constant"
    }
  }
}
layers {
  bottom: "ip1"
  top: "ip1"
  name: "relu1"
  type: RELU
}
layers {
  bottom: "ip1"
  top: "ip2"
  name: "ip2"
  type: INNER_PRODUCT
  blobs_lr: 1
  blobs_lr: 2
  inner_product_param {
    num_output: 256
    weight_filler {
      type: "xavier"
    }
    bias_filler {
      type: "constant"
    }
  }
}
layers {
  bottom: "ip2"
  top: "ip2"
  name: "relu2"
  type: RELU
}
layers {
  bottom: "ip2"
  top: "ip3"
  name: "ip3"
  type: INNER_PRODUCT
  blobs_lr: 1
  blobs_lr: 2
  inner_product_param {
    num_output: 2
    weight_filler {
      type: "xavier"
    }
    bias_filler {
      type: "constant"
    }
  }
}
layers {
  bottom: "ip3"
  bottom: "label"
  top: "accuracy"
  name: "accuracy"
  type: ACCURACY
  include {
    phase: TEST
  }
}
layers {
  bottom: "ip3"
  bottom: "label"
  bottom: "sample_weight"
  top: "loss"
  name: "loss"
  type: SOFTMAX_LOSS
}
state {
  phase: TEST
}
I0226 14:53:27.786418 31679 net.cpp:67] Creating Layer data
I0226 14:53:27.786428 31679 net.cpp:356] data -> data
I0226 14:53:27.786438 31679 net.cpp:356] data -> label
I0226 14:53:27.786514 31679 net.cpp:356] data -> sample_weight
I0226 14:53:27.786523 31679 net.cpp:96] Setting up data
I0226 14:53:27.786528 31679 hdf5_data_layer.cpp:63] Loading filename from /share/project/shapes/caffe-weighted-samples/examples/singleNet/testFileList.txt
I0226 14:53:27.787178 31679 hdf5_data_layer.cpp:75] Number of files: 1
I0226 14:53:27.787189 31679 hdf5_data_layer.cpp:29] Loading HDF5 file/scratch/stephenchen/shapes/singleNet/hdf5/test_batch_35x35/testHDF_1_35x35.h5
I0226 14:53:41.619218 31679 hdf5_data_layer.cpp:55] Successully loaded 59000 rows
I0226 14:53:41.619252 31679 hdf5_data_layer.cpp:89] output data size: 100,4,35,35
I0226 14:53:41.619266 31679 net.cpp:103] Top shape: 100 4 35 35 (490000)
I0226 14:53:41.619274 31679 net.cpp:103] Top shape: 100 1 1 1 (100)
I0226 14:53:41.619282 31679 net.cpp:103] Top shape: 100 1 1 1 (100)
I0226 14:53:41.619302 31679 net.cpp:67] Creating Layer label_data_1_split
I0226 14:53:41.619313 31679 net.cpp:394] label_data_1_split <- label
I0226 14:53:41.619324 31679 net.cpp:356] label_data_1_split -> label_data_1_split_0
I0226 14:53:41.619343 31679 net.cpp:356] label_data_1_split -> label_data_1_split_1
I0226 14:53:41.619354 31679 net.cpp:96] Setting up label_data_1_split
I0226 14:53:41.619364 31679 net.cpp:103] Top shape: 100 1 1 1 (100)
I0226 14:53:41.619372 31679 net.cpp:103] Top shape: 100 1 1 1 (100)
I0226 14:53:41.619386 31679 net.cpp:67] Creating Layer conv1
I0226 14:53:41.619395 31679 net.cpp:394] conv1 <- data
I0226 14:53:41.619405 31679 net.cpp:356] conv1 -> conv1
I0226 14:53:41.619415 31679 net.cpp:96] Setting up conv1
I0226 14:53:41.619557 31679 net.cpp:103] Top shape: 100 96 32 32 (9830400)
I0226 14:53:41.619583 31679 net.cpp:67] Creating Layer relu_conv1
I0226 14:53:41.619591 31679 net.cpp:394] relu_conv1 <- conv1
I0226 14:53:41.619602 31679 net.cpp:345] relu_conv1 -> conv1 (in-place)
I0226 14:53:41.619613 31679 net.cpp:96] Setting up relu_conv1
I0226 14:53:41.619621 31679 net.cpp:103] Top shape: 100 96 32 32 (9830400)
I0226 14:53:41.619632 31679 net.cpp:67] Creating Layer pool1
I0226 14:53:41.619639 31679 net.cpp:394] pool1 <- conv1
I0226 14:53:41.619649 31679 net.cpp:356] pool1 -> pool1
I0226 14:53:41.619660 31679 net.cpp:96] Setting up pool1
I0226 14:53:41.619671 31679 net.cpp:103] Top shape: 100 96 16 16 (2457600)
I0226 14:53:41.619681 31679 net.cpp:67] Creating Layer conv2
I0226 14:53:41.619688 31679 net.cpp:394] conv2 <- pool1
I0226 14:53:41.619699 31679 net.cpp:356] conv2 -> conv2
I0226 14:53:41.619709 31679 net.cpp:96] Setting up conv2
I0226 14:53:41.623421 31679 net.cpp:103] Top shape: 100 256 14 14 (5017600)
I0226 14:53:41.623445 31679 net.cpp:67] Creating Layer relu_conv2
I0226 14:53:41.623453 31679 net.cpp:394] relu_conv2 <- conv2
I0226 14:53:41.623468 31679 net.cpp:345] relu_conv2 -> conv2 (in-place)
I0226 14:53:41.623478 31679 net.cpp:96] Setting up relu_conv2
I0226 14:53:41.623502 31679 net.cpp:103] Top shape: 100 256 14 14 (5017600)
I0226 14:53:41.623513 31679 net.cpp:67] Creating Layer pool2
I0226 14:53:41.623520 31679 net.cpp:394] pool2 <- conv2
I0226 14:53:41.623530 31679 net.cpp:356] pool2 -> pool2
I0226 14:53:41.623543 31679 net.cpp:96] Setting up pool2
I0226 14:53:41.623554 31679 net.cpp:103] Top shape: 100 256 7 7 (1254400)
I0226 14:53:41.623566 31679 net.cpp:67] Creating Layer conv3
I0226 14:53:41.623574 31679 net.cpp:394] conv3 <- pool2
I0226 14:53:41.623584 31679 net.cpp:356] conv3 -> conv3
I0226 14:53:41.623594 31679 net.cpp:96] Setting up conv3
I0226 14:53:41.627856 31679 net.cpp:103] Top shape: 100 64 4 4 (102400)
I0226 14:53:41.627873 31679 net.cpp:67] Creating Layer relu_conv3
I0226 14:53:41.627879 31679 net.cpp:394] relu_conv3 <- conv3
I0226 14:53:41.627885 31679 net.cpp:345] relu_conv3 -> conv3 (in-place)
I0226 14:53:41.627892 31679 net.cpp:96] Setting up relu_conv3
I0226 14:53:41.627897 31679 net.cpp:103] Top shape: 100 64 4 4 (102400)
I0226 14:53:41.627904 31679 net.cpp:67] Creating Layer ip1
I0226 14:53:41.627909 31679 net.cpp:394] ip1 <- conv3
I0226 14:53:41.627915 31679 net.cpp:356] ip1 -> ip1
I0226 14:53:41.627923 31679 net.cpp:96] Setting up ip1
I0226 14:53:41.630791 31679 net.cpp:103] Top shape: 100 256 1 1 (25600)
I0226 14:53:41.630807 31679 net.cpp:67] Creating Layer relu1
I0226 14:53:41.630813 31679 net.cpp:394] relu1 <- ip1
I0226 14:53:41.630820 31679 net.cpp:345] relu1 -> ip1 (in-place)
I0226 14:53:41.630826 31679 net.cpp:96] Setting up relu1
I0226 14:53:41.630831 31679 net.cpp:103] Top shape: 100 256 1 1 (25600)
I0226 14:53:41.630838 31679 net.cpp:67] Creating Layer ip2
I0226 14:53:41.630843 31679 net.cpp:394] ip2 <- ip1
I0226 14:53:41.630851 31679 net.cpp:356] ip2 -> ip2
I0226 14:53:41.630857 31679 net.cpp:96] Setting up ip2
I0226 14:53:41.631539 31679 net.cpp:103] Top shape: 100 256 1 1 (25600)
I0226 14:53:41.631556 31679 net.cpp:67] Creating Layer relu2
I0226 14:53:41.631561 31679 net.cpp:394] relu2 <- ip2
I0226 14:53:41.631567 31679 net.cpp:345] relu2 -> ip2 (in-place)
I0226 14:53:41.631574 31679 net.cpp:96] Setting up relu2
I0226 14:53:41.631579 31679 net.cpp:103] Top shape: 100 256 1 1 (25600)
I0226 14:53:41.631587 31679 net.cpp:67] Creating Layer ip3
I0226 14:53:41.631592 31679 net.cpp:394] ip3 <- ip2
I0226 14:53:41.631598 31679 net.cpp:356] ip3 -> ip3
I0226 14:53:41.631605 31679 net.cpp:96] Setting up ip3
I0226 14:53:41.631620 31679 net.cpp:103] Top shape: 100 2 1 1 (200)
I0226 14:53:41.631629 31679 net.cpp:67] Creating Layer ip3_ip3_0_split
I0226 14:53:41.631634 31679 net.cpp:394] ip3_ip3_0_split <- ip3
I0226 14:53:41.631640 31679 net.cpp:356] ip3_ip3_0_split -> ip3_ip3_0_split_0
I0226 14:53:41.631649 31679 net.cpp:356] ip3_ip3_0_split -> ip3_ip3_0_split_1
I0226 14:53:41.631655 31679 net.cpp:96] Setting up ip3_ip3_0_split
I0226 14:53:41.631661 31679 net.cpp:103] Top shape: 100 2 1 1 (200)
I0226 14:53:41.631666 31679 net.cpp:103] Top shape: 100 2 1 1 (200)
I0226 14:53:41.631675 31679 net.cpp:67] Creating Layer accuracy
I0226 14:53:41.631680 31679 net.cpp:394] accuracy <- ip3_ip3_0_split_0
I0226 14:53:41.631685 31679 net.cpp:394] accuracy <- label_data_1_split_0
I0226 14:53:41.631692 31679 net.cpp:356] accuracy -> accuracy
I0226 14:53:41.631700 31679 net.cpp:96] Setting up accuracy
I0226 14:53:41.631705 31679 net.cpp:103] Top shape: 1 1 1 1 (1)
I0226 14:53:41.631713 31679 net.cpp:67] Creating Layer loss
I0226 14:53:41.631718 31679 net.cpp:394] loss <- ip3_ip3_0_split_1
I0226 14:53:41.631724 31679 net.cpp:394] loss <- label_data_1_split_1
I0226 14:53:41.631729 31679 net.cpp:394] loss <- sample_weight
I0226 14:53:41.631736 31679 net.cpp:356] loss -> loss
I0226 14:53:41.631744 31679 net.cpp:96] Setting up loss
I0226 14:53:41.631752 31679 net.cpp:103] Top shape: 1 1 1 1 (1)
I0226 14:53:41.631758 31679 net.cpp:109]     with loss weight 1
I0226 14:53:41.631772 31679 net.cpp:170] loss needs backward computation.
I0226 14:53:41.631781 31679 net.cpp:172] accuracy does not need backward computation.
I0226 14:53:41.631786 31679 net.cpp:170] ip3_ip3_0_split needs backward computation.
I0226 14:53:41.631791 31679 net.cpp:170] ip3 needs backward computation.
I0226 14:53:41.631796 31679 net.cpp:170] relu2 needs backward computation.
…
