…
I0225 22:18:30.900897 17343 net.cpp:275] The NetState phase (0) differed from the phase (1) specified by a rule in layer data
I0225 22:18:30.900925 17343 net.cpp:275] The NetState phase (0) differed from the phase (1) specified by a rule in layer accuracy
I0225 22:18:30.901141 17343 net.cpp:39] Initializing net from parameters: 
name: "LogisticRegressionNet"
layers {
  top: "data"
  top: "label"
  top: "sample_weight"
  name: "data"
  type: HDF5_DATA
  hdf5_data_param {
    source: "/share/project/shapes/caffe-weighted-samples/examples/singleNet/trainFileList.txt"
    batch_size: 100
  }
  include {
    phase: TRAIN
  }
}
layers {
  bottom: "data"
  top: "conv1"
  name: "conv1"
  type: CONVOLUTION
  blobs_lr: 1
  blobs_lr: 2
  convolution_param {
    num_output: 96
    kernel_size: 4
    stride: 1
    weight_filler {
      type: "xavier"
    }
    bias_filler {
      type: "constant"
    }
  }
}
layers {
  bottom: "conv1"
  top: "conv1"
  name: "relu_conv1"
  type: RELU
}
layers {
  bottom: "conv1"
  top: "pool1"
  name: "pool1"
  type: POOLING
  pooling_param {
    pool: MAX
    kernel_size: 2
    stride: 2
  }
}
layers {
  bottom: "pool1"
  top: "conv2"
  name: "conv2"
  type: CONVOLUTION
  blobs_lr: 1
  blobs_lr: 2
  convolution_param {
    num_output: 256
    kernel_size: 3
    stride: 1
    weight_filler {
      type: "xavier"
    }
    bias_filler {
      type: "constant"
    }
  }
}
layers {
  bottom: "conv2"
  top: "conv2"
  name: "relu_conv2"
  type: RELU
}
layers {
  bottom: "conv2"
  top: "pool2"
  name: "pool2"
  type: POOLING
  pooling_param {
    pool: MAX
    kernel_size: 2
    stride: 2
  }
}
layers {
  bottom: "pool2"
  top: "conv3"
  name: "conv3"
  type: CONVOLUTION
  blobs_lr: 1
  blobs_lr: 2
  convolution_param {
    num_output: 64
    kernel_size: 4
    stride: 1
    weight_filler {
      type: "xavier"
    }
    bias_filler {
      type: "constant"
    }
  }
}
layers {
  bottom: "conv3"
  top: "conv3"
  name: "relu_conv3"
  type: RELU
}
layers {
  bottom: "conv3"
  top: "ip1"
  name: "ip1"
  type: INNER_PRODUCT
  blobs_lr: 1
  blobs_lr: 2
  inner_product_param {
    num_output: 256
    weight_filler {
      type: "xavier"
    }
    bias_filler {
      type: "constant"
    }
  }
}
layers {
  bottom: "ip1"
  top: "ip1"
  name: "relu1"
  type: RELU
}
layers {
  bottom: "ip1"
  top: "ip2"
  name: "ip2"
  type: INNER_PRODUCT
  blobs_lr: 1
  blobs_lr: 2
  inner_product_param {
    num_output: 256
    weight_filler {
      type: "xavier"
    }
    bias_filler {
      type: "constant"
    }
  }
}
layers {
  bottom: "ip2"
  top: "ip2"
  name: "relu2"
  type: RELU
}
layers {
  bottom: "ip2"
  top: "ip3"
  name: "ip3"
  type: INNER_PRODUCT
  blobs_lr: 1
  blobs_lr: 2
  inner_product_param {
    num_output: 2
    weight_filler {
      type: "xavier"
    }
    bias_filler {
      type: "constant"
    }
  }
}
layers {
  bottom: "ip3"
  bottom: "label"
  bottom: "sample_weight"
  top: "loss"
  name: "loss"
  type: SOFTMAX_LOSS
}
state {
  phase: TRAIN
}
I0225 22:18:30.901363 17343 net.cpp:67] Creating Layer data
I0225 22:18:30.901378 17343 net.cpp:356] data -> data
I0225 22:18:30.901410 17343 net.cpp:356] data -> label
I0225 22:18:30.901433 17343 net.cpp:356] data -> sample_weight
I0225 22:18:30.901465 17343 net.cpp:96] Setting up data
I0225 22:18:30.901479 17343 hdf5_data_layer.cpp:63] Loading filename from /share/project/shapes/caffe-weighted-samples/examples/singleNet/trainFileList.txt
I0225 22:18:30.910827 17343 hdf5_data_layer.cpp:75] Number of files: 3
I0225 22:18:30.910861 17343 hdf5_data_layer.cpp:29] Loading HDF5 file/scratch/stephenchen/shapes/singleNet/hdf5/train_batch_35x35/trainHDF_1_35x35.h5
I0225 22:19:11.995234 17343 hdf5_data_layer.cpp:55] Successully loaded 196600 rows
I0225 22:19:11.995853 17343 hdf5_data_layer.cpp:89] output data size: 100,4,35,35
I0225 22:19:11.995942 17343 net.cpp:103] Top shape: 100 4 35 35 (490000)
I0225 22:19:11.995956 17343 net.cpp:103] Top shape: 100 1 1 1 (100)
I0225 22:19:11.995965 17343 net.cpp:103] Top shape: 100 1 1 1 (100)
I0225 22:19:11.995992 17343 net.cpp:67] Creating Layer conv1
I0225 22:19:11.996003 17343 net.cpp:394] conv1 <- data
I0225 22:19:11.996026 17343 net.cpp:356] conv1 -> conv1
I0225 22:19:11.996038 17343 net.cpp:96] Setting up conv1
I0225 22:19:11.996798 17343 net.cpp:103] Top shape: 100 96 32 32 (9830400)
I0225 22:19:11.996860 17343 net.cpp:67] Creating Layer relu_conv1
I0225 22:19:11.996867 17343 net.cpp:394] relu_conv1 <- conv1
I0225 22:19:11.996875 17343 net.cpp:345] relu_conv1 -> conv1 (in-place)
I0225 22:19:11.996881 17343 net.cpp:96] Setting up relu_conv1
I0225 22:19:11.996886 17343 net.cpp:103] Top shape: 100 96 32 32 (9830400)
I0225 22:19:11.996893 17343 net.cpp:67] Creating Layer pool1
I0225 22:19:11.996898 17343 net.cpp:394] pool1 <- conv1
I0225 22:19:11.996904 17343 net.cpp:356] pool1 -> pool1
I0225 22:19:11.996912 17343 net.cpp:96] Setting up pool1
I0225 22:19:11.996932 17343 net.cpp:103] Top shape: 100 96 16 16 (2457600)
I0225 22:19:11.996942 17343 net.cpp:67] Creating Layer conv2
I0225 22:19:11.996948 17343 net.cpp:394] conv2 <- pool1
I0225 22:19:11.996953 17343 net.cpp:356] conv2 -> conv2
I0225 22:19:11.996961 17343 net.cpp:96] Setting up conv2
I0225 22:19:11.999377 17343 net.cpp:103] Top shape: 100 256 14 14 (5017600)
I0225 22:19:11.999393 17343 net.cpp:67] Creating Layer relu_conv2
I0225 22:19:11.999399 17343 net.cpp:394] relu_conv2 <- conv2
I0225 22:19:11.999405 17343 net.cpp:345] relu_conv2 -> conv2 (in-place)
I0225 22:19:11.999413 17343 net.cpp:96] Setting up relu_conv2
I0225 22:19:11.999418 17343 net.cpp:103] Top shape: 100 256 14 14 (5017600)
I0225 22:19:11.999423 17343 net.cpp:67] Creating Layer pool2
I0225 22:19:11.999428 17343 net.cpp:394] pool2 <- conv2
I0225 22:19:11.999434 17343 net.cpp:356] pool2 -> pool2
I0225 22:19:11.999441 17343 net.cpp:96] Setting up pool2
I0225 22:19:11.999450 17343 net.cpp:103] Top shape: 100 256 7 7 (1254400)
I0225 22:19:11.999459 17343 net.cpp:67] Creating Layer conv3
I0225 22:19:11.999464 17343 net.cpp:394] conv3 <- pool2
I0225 22:19:11.999469 17343 net.cpp:356] conv3 -> conv3
I0225 22:19:11.999476 17343 net.cpp:96] Setting up conv3
I0225 22:19:12.002351 17343 net.cpp:103] Top shape: 100 64 4 4 (102400)
I0225 22:19:12.002370 17343 net.cpp:67] Creating Layer relu_conv3
I0225 22:19:12.002375 17343 net.cpp:394] relu_conv3 <- conv3
I0225 22:19:12.002382 17343 net.cpp:345] relu_conv3 -> conv3 (in-place)
I0225 22:19:12.002389 17343 net.cpp:96] Setting up relu_conv3
I0225 22:19:12.002394 17343 net.cpp:103] Top shape: 100 64 4 4 (102400)
I0225 22:19:12.002401 17343 net.cpp:67] Creating Layer ip1
I0225 22:19:12.002406 17343 net.cpp:394] ip1 <- conv3
I0225 22:19:12.002413 17343 net.cpp:356] ip1 -> ip1
I0225 22:19:12.002424 17343 net.cpp:96] Setting up ip1
I0225 22:19:12.005270 17343 net.cpp:103] Top shape: 100 256 1 1 (25600)
I0225 22:19:12.005285 17343 net.cpp:67] Creating Layer relu1
I0225 22:19:12.005291 17343 net.cpp:394] relu1 <- ip1
I0225 22:19:12.005297 17343 net.cpp:345] relu1 -> ip1 (in-place)
I0225 22:19:12.005305 17343 net.cpp:96] Setting up relu1
I0225 22:19:12.005309 17343 net.cpp:103] Top shape: 100 256 1 1 (25600)
I0225 22:19:12.005316 17343 net.cpp:67] Creating Layer ip2
I0225 22:19:12.005321 17343 net.cpp:394] ip2 <- ip1
I0225 22:19:12.005327 17343 net.cpp:356] ip2 -> ip2
I0225 22:19:12.005334 17343 net.cpp:96] Setting up ip2
I0225 22:19:12.006006 17343 net.cpp:103] Top shape: 100 256 1 1 (25600)
I0225 22:19:12.006023 17343 net.cpp:67] Creating Layer relu2
I0225 22:19:12.006029 17343 net.cpp:394] relu2 <- ip2
I0225 22:19:12.006036 17343 net.cpp:345] relu2 -> ip2 (in-place)
I0225 22:19:12.006042 17343 net.cpp:96] Setting up relu2
I0225 22:19:12.006047 17343 net.cpp:103] Top shape: 100 256 1 1 (25600)
I0225 22:19:12.006053 17343 net.cpp:67] Creating Layer ip3
I0225 22:19:12.006058 17343 net.cpp:394] ip3 <- ip2
I0225 22:19:12.006065 17343 net.cpp:356] ip3 -> ip3
I0225 22:19:12.006072 17343 net.cpp:96] Setting up ip3
I0225 22:19:12.006086 17343 net.cpp:103] Top shape: 100 2 1 1 (200)
I0225 22:19:12.006099 17343 net.cpp:67] Creating Layer loss
I0225 22:19:12.006104 17343 net.cpp:394] loss <- ip3
I0225 22:19:12.006110 17343 net.cpp:394] loss <- label
I0225 22:19:12.006115 17343 net.cpp:394] loss <- sample_weight
I0225 22:19:12.006121 17343 net.cpp:356] loss -> loss
I0225 22:19:12.006129 17343 net.cpp:96] Setting up loss
I0225 22:19:12.006139 17343 net.cpp:103] Top shape: 1 1 1 1 (1)
I0225 22:19:12.006144 17343 net.cpp:109]     with loss weight 1
I0225 22:19:12.006196 17343 net.cpp:170] loss needs backward computation.
I0225 22:19:12.006201 17343 net.cpp:170] ip3 needs backward computation.
I0225 22:19:12.006206 17343 net.cpp:170] relu2 needs backward computation.
I0225 22:19:12.006211 17343 net.cpp:170] ip2 needs backward computation.
I0225 22:19:12.006216 17343 net.cpp:170] relu1 needs backward computation.
…
I0225 22:19:12.007889 17343 solver.cpp:151] Creating test net (#0) specified by net file: examples/singleNet/train_val_v0.3.prototxt
I0225 22:19:12.007920 17343 net.cpp:275] The NetState phase (1) differed from the phase (0) specified by a rule in layer data
I0225 22:19:12.008079 17343 net.cpp:39] Initializing net from parameters: 
name: "LogisticRegressionNet"
layers {
  top: "data"
  top: "label"
  top: "sample_weight"
  name: "data"
  type: HDF5_DATA
  hdf5_data_param {
    source: "/share/project/shapes/caffe-weighted-samples/examples/singleNet/valFileList.txt"
    batch_size: 100
  }
  include {
    phase: TEST
  }
}
layers {
  bottom: "data"
  top: "conv1"
  name: "conv1"
  type: CONVOLUTION
  blobs_lr: 1
  blobs_lr: 2
  convolution_param {
    num_output: 96
    kernel_size: 4
    stride: 1
    weight_filler {
      type: "xavier"
    }
    bias_filler {
      type: "constant"
    }
  }
}
layers {
  bottom: "conv1"
  top: "conv1"
  name: "relu_conv1"
  type: RELU
}
layers {
  bottom: "conv1"
  top: "pool1"
  name: "pool1"
  type: POOLING
  pooling_param {
    pool: MAX
    kernel_size: 2
    stride: 2
  }
}
layers {
  bottom: "pool1"
  top: "conv2"
  name: "conv2"
  type: CONVOLUTION
  blobs_lr: 1
  blobs_lr: 2
  convolution_param {
    num_output: 256
    kernel_size: 3
    stride: 1
    weight_filler {
      type: "xavier"
    }
    bias_filler {
      type: "constant"
    }
  }
}
layers {
  bottom: "conv2"
  top: "conv2"
  name: "relu_conv2"
  type: RELU
}
layers {
  bottom: "conv2"
  top: "pool2"
  name: "pool2"
  type: POOLING
  pooling_param {
    pool: MAX
    kernel_size: 2
    stride: 2
  }
}
layers {
  bottom: "pool2"
  top: "conv3"
  name: "conv3"
  type: CONVOLUTION
  blobs_lr: 1
  blobs_lr: 2
  convolution_param {
    num_output: 64
    kernel_size: 4
    stride: 1
    weight_filler {
      type: "xavier"
    }
    bias_filler {
      type: "constant"
    }
  }
}
layers {
  bottom: "conv3"
  top: "conv3"
  name: "relu_conv3"
  type: RELU
}
layers {
  bottom: "conv3"
  top: "ip1"
  name: "ip1"
  type: INNER_PRODUCT
  blobs_lr: 1
  blobs_lr: 2
  inner_product_param {
    num_output: 256
    weight_filler {
      type: "xavier"
    }
    bias_filler {
      type: "constant"
    }
  }
}
layers {
  bottom: "ip1"
  top: "ip1"
  name: "relu1"
  type: RELU
}
layers {
  bottom: "ip1"
  top: "ip2"
  name: "ip2"
  type: INNER_PRODUCT
  blobs_lr: 1
  blobs_lr: 2
  inner_product_param {
    num_output: 256
    weight_filler {
      type: "xavier"
    }
    bias_filler {
      type: "constant"
    }
  }
}
layers {
  bottom: "ip2"
  top: "ip2"
  name: "relu2"
  type: RELU
}
layers {
  bottom: "ip2"
  top: "ip3"
  name: "ip3"
  type: INNER_PRODUCT
  blobs_lr: 1
  blobs_lr: 2
  inner_product_param {
    num_output: 2
    weight_filler {
      type: "xavier"
    }
    bias_filler {
      type: "constant"
    }
  }
}
layers {
  bottom: "ip3"
  bottom: "label"
  top: "accuracy"
  name: "accuracy"
  type: ACCURACY
  include {
    phase: TEST
  }
}
layers {
  bottom: "ip3"
  bottom: "label"
  bottom: "sample_weight"
  top: "loss"
  name: "loss"
  type: SOFTMAX_LOSS
}
state {
  phase: TEST
}
I0225 22:19:12.008255 17343 net.cpp:67] Creating Layer data
I0225 22:19:12.008265 17343 net.cpp:356] data -> data
I0225 22:19:12.008273 17343 net.cpp:356] data -> label
I0225 22:19:12.008281 17343 net.cpp:356] data -> sample_weight
I0225 22:19:12.008290 17343 net.cpp:96] Setting up data
I0225 22:19:12.008294 17343 hdf5_data_layer.cpp:63] Loading filename from /share/project/shapes/caffe-weighted-samples/examples/singleNet/valFileList.txt
I0225 22:19:12.051940 17343 hdf5_data_layer.cpp:75] Number of files: 3
I0225 22:19:12.051960 17343 hdf5_data_layer.cpp:29] Loading HDF5 file/scratch/stephenchen/shapes/singleNet/hdf5/train_batch_35x35/trainHDF_1_35x35.h5
I0225 22:19:51.248703 17343 hdf5_data_layer.cpp:55] Successully loaded 196600 rows
I0225 22:19:51.249269 17343 hdf5_data_layer.cpp:89] output data size: 100,4,35,35
I0225 22:19:51.459360 17343 net.cpp:103] Top shape: 100 4 35 35 (490000)
I0225 22:19:51.479954 17343 net.cpp:103] Top shape: 100 1 1 1 (100)
I0225 22:19:51.479964 17343 net.cpp:103] Top shape: 100 1 1 1 (100)
I0225 22:19:51.509094 17343 net.cpp:67] Creating Layer label_data_1_split
I0225 22:19:51.509111 17343 net.cpp:394] label_data_1_split <- label
I0225 22:19:51.509124 17343 net.cpp:356] label_data_1_split -> label_data_1_split_0
I0225 22:19:51.573467 17343 net.cpp:356] label_data_1_split -> label_data_1_split_1
I0225 22:19:51.573501 17343 net.cpp:96] Setting up label_data_1_split
I0225 22:19:51.573513 17343 net.cpp:103] Top shape: 100 1 1 1 (100)
I0225 22:19:51.573519 17343 net.cpp:103] Top shape: 100 1 1 1 (100)
I0225 22:19:51.573534 17343 net.cpp:67] Creating Layer conv1
I0225 22:19:51.573540 17343 net.cpp:394] conv1 <- data
I0225 22:19:51.573547 17343 net.cpp:356] conv1 -> conv1
I0225 22:19:51.573576 17343 net.cpp:96] Setting up conv1
I0225 22:19:51.573671 17343 net.cpp:103] Top shape: 100 96 32 32 (9830400)
I0225 22:19:51.574429 17343 net.cpp:67] Creating Layer relu_conv1
I0225 22:19:51.574439 17343 net.cpp:394] relu_conv1 <- conv1
I0225 22:19:51.574446 17343 net.cpp:345] relu_conv1 -> conv1 (in-place)
I0225 22:19:51.574453 17343 net.cpp:96] Setting up relu_conv1
I0225 22:19:51.574460 17343 net.cpp:103] Top shape: 100 96 32 32 (9830400)
I0225 22:19:51.574468 17343 net.cpp:67] Creating Layer pool1
I0225 22:19:51.574475 17343 net.cpp:394] pool1 <- conv1
I0225 22:19:51.574481 17343 net.cpp:356] pool1 -> pool1
I0225 22:19:51.574502 17343 net.cpp:96] Setting up pool1
I0225 22:19:51.574512 17343 net.cpp:103] Top shape: 100 96 16 16 (2457600)
I0225 22:19:51.574520 17343 net.cpp:67] Creating Layer conv2
I0225 22:19:51.574527 17343 net.cpp:394] conv2 <- pool1
I0225 22:19:51.574533 17343 net.cpp:356] conv2 -> conv2
I0225 22:19:51.574542 17343 net.cpp:96] Setting up conv2
I0225 22:19:51.577060 17343 net.cpp:103] Top shape: 100 256 14 14 (5017600)
I0225 22:19:51.577080 17343 net.cpp:67] Creating Layer relu_conv2
I0225 22:19:51.577085 17343 net.cpp:394] relu_conv2 <- conv2
I0225 22:19:51.577092 17343 net.cpp:345] relu_conv2 -> conv2 (in-place)
I0225 22:19:51.577100 17343 net.cpp:96] Setting up relu_conv2
I0225 22:19:51.577105 17343 net.cpp:103] Top shape: 100 256 14 14 (5017600)
I0225 22:19:51.577111 17343 net.cpp:67] Creating Layer pool2
I0225 22:19:51.577116 17343 net.cpp:394] pool2 <- conv2
I0225 22:19:51.577122 17343 net.cpp:356] pool2 -> pool2
I0225 22:19:51.577131 17343 net.cpp:96] Setting up pool2
I0225 22:19:51.577137 17343 net.cpp:103] Top shape: 100 256 7 7 (1254400)
I0225 22:19:51.577147 17343 net.cpp:67] Creating Layer conv3
I0225 22:19:51.577152 17343 net.cpp:394] conv3 <- pool2
I0225 22:19:51.577158 17343 net.cpp:356] conv3 -> conv3
I0225 22:19:51.577165 17343 net.cpp:96] Setting up conv3
I0225 22:19:51.580116 17343 net.cpp:103] Top shape: 100 64 4 4 (102400)
I0225 22:19:51.580133 17343 net.cpp:67] Creating Layer relu_conv3
I0225 22:19:51.580140 17343 net.cpp:394] relu_conv3 <- conv3
I0225 22:19:51.580147 17343 net.cpp:345] relu_conv3 -> conv3 (in-place)
I0225 22:19:51.580154 17343 net.cpp:96] Setting up relu_conv3
I0225 22:19:51.580158 17343 net.cpp:103] Top shape: 100 64 4 4 (102400)
I0225 22:19:51.580169 17343 net.cpp:67] Creating Layer ip1
I0225 22:19:51.580174 17343 net.cpp:394] ip1 <- conv3
I0225 22:19:51.580181 17343 net.cpp:356] ip1 -> ip1
I0225 22:19:51.580189 17343 net.cpp:96] Setting up ip1
I0225 22:19:51.583132 17343 net.cpp:103] Top shape: 100 256 1 1 (25600)
I0225 22:19:51.583148 17343 net.cpp:67] Creating Layer relu1
I0225 22:19:51.583154 17343 net.cpp:394] relu1 <- ip1
I0225 22:19:51.583161 17343 net.cpp:345] relu1 -> ip1 (in-place)
I0225 22:19:51.583168 17343 net.cpp:96] Setting up relu1
I0225 22:19:51.583173 17343 net.cpp:103] Top shape: 100 256 1 1 (25600)
I0225 22:19:51.583181 17343 net.cpp:67] Creating Layer ip2
I0225 22:19:51.583186 17343 net.cpp:394] ip2 <- ip1
I0225 22:19:51.583192 17343 net.cpp:356] ip2 -> ip2
I0225 22:19:51.583200 17343 net.cpp:96] Setting up ip2
I0225 22:19:51.583894 17343 net.cpp:103] Top shape: 100 256 1 1 (25600)
I0225 22:19:51.583910 17343 net.cpp:67] Creating Layer relu2
I0225 22:19:51.583916 17343 net.cpp:394] relu2 <- ip2
I0225 22:19:51.583923 17343 net.cpp:345] relu2 -> ip2 (in-place)
I0225 22:19:51.583930 17343 net.cpp:96] Setting up relu2
I0225 22:19:51.583935 17343 net.cpp:103] Top shape: 100 256 1 1 (25600)
I0225 22:19:51.583942 17343 net.cpp:67] Creating Layer ip3
I0225 22:19:51.583947 17343 net.cpp:394] ip3 <- ip2
I0225 22:19:51.583953 17343 net.cpp:356] ip3 -> ip3
I0225 22:19:51.583961 17343 net.cpp:96] Setting up ip3
I0225 22:19:51.583976 17343 net.cpp:103] Top shape: 100 2 1 1 (200)
I0225 22:19:51.583986 17343 net.cpp:67] Creating Layer ip3_ip3_0_split
I0225 22:19:51.583991 17343 net.cpp:394] ip3_ip3_0_split <- ip3
I0225 22:19:51.583997 17343 net.cpp:356] ip3_ip3_0_split -> ip3_ip3_0_split_0
I0225 22:19:51.584005 17343 net.cpp:356] ip3_ip3_0_split -> ip3_ip3_0_split_1
I0225 22:19:51.584012 17343 net.cpp:96] Setting up ip3_ip3_0_split
I0225 22:19:51.584017 17343 net.cpp:103] Top shape: 100 2 1 1 (200)
I0225 22:19:51.584022 17343 net.cpp:103] Top shape: 100 2 1 1 (200)
I0225 22:19:51.584031 17343 net.cpp:67] Creating Layer accuracy
I0225 22:19:51.584036 17343 net.cpp:394] accuracy <- ip3_ip3_0_split_0
I0225 22:19:51.584043 17343 net.cpp:394] accuracy <- label_data_1_split_0
I0225 22:19:51.584049 17343 net.cpp:356] accuracy -> accuracy
I0225 22:19:51.584059 17343 net.cpp:96] Setting up accuracy
I0225 22:19:51.584065 17343 net.cpp:103] Top shape: 1 1 1 1 (1)
I0225 22:19:51.584074 17343 net.cpp:67] Creating Layer loss
I0225 22:19:51.584079 17343 net.cpp:394] loss <- ip3_ip3_0_split_1
I0225 22:19:51.584085 17343 net.cpp:394] loss <- label_data_1_split_1
I0225 22:19:51.584090 17343 net.cpp:394] loss <- sample_weight
I0225 22:19:51.584097 17343 net.cpp:356] loss -> loss
I0225 22:19:51.584105 17343 net.cpp:96] Setting up loss
I0225 22:19:51.584113 17343 net.cpp:103] Top shape: 1 1 1 1 (1)
I0225 22:19:51.584118 17343 net.cpp:109]     with loss weight 1
I0225 22:19:51.584134 17343 net.cpp:170] loss needs backward computation.
I0225 22:19:51.584141 17343 net.cpp:172] accuracy does not need backward computation.
I0225 22:19:51.584146 17343 net.cpp:170] ip3_ip3_0_split needs backward computation.
I0225 22:19:51.584151 17343 net.cpp:170] ip3 needs backward computation.
I0225 22:19:51.584156 17343 net.cpp:170] relu2 needs backward computation.
…
