…
Log line format: [IWEF]mmdd hh:mm:ss.uuuuuu threadid file:line] msg
I0226 19:03:27.038200 27865 caffe.cpp:134] Use GPU with device ID 0
I0226 19:03:27.301594 27865 net.cpp:275] The NetState phase (1) differed from the phase (0) specified by a rule in layer data
I0226 19:03:27.301843 27865 net.cpp:39] Initializing net from parameters: 
name: "LogisticRegressionNet"
layers {
  top: "data"
  top: "label"
  top: "sample_weight"
  name: "data"
  type: HDF5_DATA
  hdf5_data_param {
    source: "/share/project/shapes/caffe-weighted-samples/examples/singleNet/testFileList.txt"
    batch_size: 100
  }
  include {
    phase: TEST
  }
}
layers {
  bottom: "data"
  top: "conv1"
  name: "conv1"
  type: CONVOLUTION
  blobs_lr: 1
  blobs_lr: 2
  convolution_param {
    num_output: 96
    kernel_size: 4
    stride: 1
    weight_filler {
      type: "xavier"
    }
    bias_filler {
      type: "constant"
    }
  }
}
layers {
  bottom: "conv1"
  top: "conv1"
  name: "relu_conv1"
  type: RELU
}
layers {
  bottom: "conv1"
  top: "pool1"
  name: "pool1"
  type: POOLING
  pooling_param {
    pool: MAX
    kernel_size: 2
    stride: 2
  }
}
layers {
  bottom: "pool1"
  top: "conv2"
  name: "conv2"
  type: CONVOLUTION
  blobs_lr: 1
  blobs_lr: 2
  convolution_param {
    num_output: 256
    kernel_size: 3
    stride: 1
    weight_filler {
      type: "xavier"
    }
    bias_filler {
      type: "constant"
    }
  }
}
layers {
  bottom: "conv2"
  top: "conv2"
  name: "relu_conv2"
  type: RELU
}
layers {
  bottom: "conv2"
  top: "pool2"
  name: "pool2"
  type: POOLING
  pooling_param {
    pool: MAX
    kernel_size: 2
    stride: 2
  }
}
layers {
  bottom: "pool2"
  top: "conv3"
  name: "conv3"
  type: CONVOLUTION
  blobs_lr: 1
  blobs_lr: 2
  convolution_param {
    num_output: 64
    kernel_size: 4
    stride: 1
    weight_filler {
      type: "xavier"
    }
    bias_filler {
      type: "constant"
    }
  }
}
layers {
  bottom: "conv3"
  top: "conv3"
  name: "relu_conv3"
  type: RELU
}
layers {
  bottom: "conv3"
  top: "ip1"
  name: "ip1"
  type: INNER_PRODUCT
  blobs_lr: 1
  blobs_lr: 2
  inner_product_param {
    num_output: 256
    weight_filler {
      type: "xavier"
    }
    bias_filler {
      type: "constant"
    }
  }
}
layers {
  bottom: "ip1"
  top: "ip1"
  name: "relu1"
  type: RELU
}
layers {
  bottom: "ip1"
  top: "ip2"
  name: "ip2"
  type: INNER_PRODUCT
  blobs_lr: 1
  blobs_lr: 2
  inner_product_param {
    num_output: 256
    weight_filler {
      type: "xavier"
    }
    bias_filler {
      type: "constant"
    }
  }
}
layers {
  bottom: "ip2"
  top: "ip2"
  name: "relu2"
  type: RELU
}
layers {
  bottom: "ip2"
  top: "ip3"
  name: "ip3"
  type: INNER_PRODUCT
  blobs_lr: 1
  blobs_lr: 2
  inner_product_param {
    num_output: 2
    weight_filler {
      type: "xavier"
    }
    bias_filler {
      type: "constant"
    }
  }
}
layers {
  bottom: "ip3"
  bottom: "label"
  top: "accuracy"
  name: "accuracy"
  type: ACCURACY
  include {
    phase: TEST
  }
}
layers {
  bottom: "ip3"
  bottom: "label"
  bottom: "sample_weight"
  top: "loss"
  name: "loss"
  type: SOFTMAX_LOSS
}
I0226 19:03:27.302101 27865 net.cpp:67] Creating Layer data
I0226 19:03:27.302114 27865 net.cpp:356] data -> data
I0226 19:03:27.302136 27865 net.cpp:356] data -> label
I0226 19:03:27.302153 27865 net.cpp:356] data -> sample_weight
I0226 19:03:27.302162 27865 net.cpp:96] Setting up data
I0226 19:03:27.302170 27865 hdf5_data_layer.cpp:63] Loading filename from /share/project/shapes/caffe-weighted-samples/examples/singleNet/testFileList.txt
I0226 19:03:27.344818 27865 hdf5_data_layer.cpp:75] Number of files: 1
I0226 19:03:27.344848 27865 hdf5_data_layer.cpp:29] Loading HDF5 file/scratch/stephenchen/shapes/singleNet/hdf5/test_batch_35x35/testHDF_1_35x35.h5
I0226 19:03:38.189471 27865 hdf5_data_layer.cpp:55] Successully loaded 59000 rows
I0226 19:03:38.189522 27865 hdf5_data_layer.cpp:89] output data size: 100,4,35,35
I0226 19:03:38.189564 27865 net.cpp:103] Top shape: 100 4 35 35 (490000)
I0226 19:03:38.189574 27865 net.cpp:103] Top shape: 100 1 1 1 (100)
I0226 19:03:38.189582 27865 net.cpp:103] Top shape: 100 1 1 1 (100)
I0226 19:03:38.189600 27865 net.cpp:67] Creating Layer label_data_1_split
I0226 19:03:38.189615 27865 net.cpp:394] label_data_1_split <- label
I0226 19:03:38.189642 27865 net.cpp:356] label_data_1_split -> label_data_1_split_0
I0226 19:03:38.189661 27865 net.cpp:356] label_data_1_split -> label_data_1_split_1
I0226 19:03:38.189672 27865 net.cpp:96] Setting up label_data_1_split
I0226 19:03:38.189682 27865 net.cpp:103] Top shape: 100 1 1 1 (100)
I0226 19:03:38.189690 27865 net.cpp:103] Top shape: 100 1 1 1 (100)
I0226 19:03:38.189704 27865 net.cpp:67] Creating Layer conv1
I0226 19:03:38.189713 27865 net.cpp:394] conv1 <- data
I0226 19:03:38.189723 27865 net.cpp:356] conv1 -> conv1
I0226 19:03:38.189736 27865 net.cpp:96] Setting up conv1
I0226 19:03:38.190714 27865 net.cpp:103] Top shape: 100 96 32 32 (9830400)
I0226 19:03:38.190793 27865 net.cpp:67] Creating Layer relu_conv1
I0226 19:03:38.190803 27865 net.cpp:394] relu_conv1 <- conv1
I0226 19:03:38.190814 27865 net.cpp:345] relu_conv1 -> conv1 (in-place)
I0226 19:03:38.190825 27865 net.cpp:96] Setting up relu_conv1
I0226 19:03:38.190834 27865 net.cpp:103] Top shape: 100 96 32 32 (9830400)
I0226 19:03:38.190845 27865 net.cpp:67] Creating Layer pool1
I0226 19:03:38.190852 27865 net.cpp:394] pool1 <- conv1
I0226 19:03:38.190862 27865 net.cpp:356] pool1 -> pool1
I0226 19:03:38.190873 27865 net.cpp:96] Setting up pool1
I0226 19:03:38.190901 27865 net.cpp:103] Top shape: 100 96 16 16 (2457600)
I0226 19:03:38.190913 27865 net.cpp:67] Creating Layer conv2
I0226 19:03:38.190922 27865 net.cpp:394] conv2 <- pool1
I0226 19:03:38.190932 27865 net.cpp:356] conv2 -> conv2
I0226 19:03:38.190944 27865 net.cpp:96] Setting up conv2
I0226 19:03:38.194663 27865 net.cpp:103] Top shape: 100 256 14 14 (5017600)
I0226 19:03:38.194686 27865 net.cpp:67] Creating Layer relu_conv2
I0226 19:03:38.194695 27865 net.cpp:394] relu_conv2 <- conv2
I0226 19:03:38.194705 27865 net.cpp:345] relu_conv2 -> conv2 (in-place)
I0226 19:03:38.194715 27865 net.cpp:96] Setting up relu_conv2
I0226 19:03:38.194723 27865 net.cpp:103] Top shape: 100 256 14 14 (5017600)
I0226 19:03:38.194733 27865 net.cpp:67] Creating Layer pool2
I0226 19:03:38.194741 27865 net.cpp:394] pool2 <- conv2
I0226 19:03:38.194751 27865 net.cpp:356] pool2 -> pool2
I0226 19:03:38.194762 27865 net.cpp:96] Setting up pool2
I0226 19:03:38.194772 27865 net.cpp:103] Top shape: 100 256 7 7 (1254400)
I0226 19:03:38.194785 27865 net.cpp:67] Creating Layer conv3
I0226 19:03:38.194793 27865 net.cpp:394] conv3 <- pool2
I0226 19:03:38.194804 27865 net.cpp:356] conv3 -> conv3
I0226 19:03:38.194814 27865 net.cpp:96] Setting up conv3
I0226 19:03:38.198647 27865 net.cpp:103] Top shape: 100 64 4 4 (102400)
I0226 19:03:38.198665 27865 net.cpp:67] Creating Layer relu_conv3
I0226 19:03:38.198671 27865 net.cpp:394] relu_conv3 <- conv3
I0226 19:03:38.198678 27865 net.cpp:345] relu_conv3 -> conv3 (in-place)
I0226 19:03:38.198685 27865 net.cpp:96] Setting up relu_conv3
I0226 19:03:38.198690 27865 net.cpp:103] Top shape: 100 64 4 4 (102400)
I0226 19:03:38.198698 27865 net.cpp:67] Creating Layer ip1
I0226 19:03:38.198703 27865 net.cpp:394] ip1 <- conv3
I0226 19:03:38.198709 27865 net.cpp:356] ip1 -> ip1
I0226 19:03:38.198716 27865 net.cpp:96] Setting up ip1
I0226 19:03:38.201565 27865 net.cpp:103] Top shape: 100 256 1 1 (25600)
I0226 19:03:38.201581 27865 net.cpp:67] Creating Layer relu1
I0226 19:03:38.201586 27865 net.cpp:394] relu1 <- ip1
I0226 19:03:38.201593 27865 net.cpp:345] relu1 -> ip1 (in-place)
I0226 19:03:38.201599 27865 net.cpp:96] Setting up relu1
I0226 19:03:38.201604 27865 net.cpp:103] Top shape: 100 256 1 1 (25600)
I0226 19:03:38.201611 27865 net.cpp:67] Creating Layer ip2
I0226 19:03:38.201617 27865 net.cpp:394] ip2 <- ip1
I0226 19:03:38.201623 27865 net.cpp:356] ip2 -> ip2
I0226 19:03:38.201630 27865 net.cpp:96] Setting up ip2
I0226 19:03:38.202283 27865 net.cpp:103] Top shape: 100 256 1 1 (25600)
I0226 19:03:38.202298 27865 net.cpp:67] Creating Layer relu2
I0226 19:03:38.202304 27865 net.cpp:394] relu2 <- ip2
I0226 19:03:38.202311 27865 net.cpp:345] relu2 -> ip2 (in-place)
I0226 19:03:38.202317 27865 net.cpp:96] Setting up relu2
I0226 19:03:38.202325 27865 net.cpp:103] Top shape: 100 256 1 1 (25600)
I0226 19:03:38.202333 27865 net.cpp:67] Creating Layer ip3
I0226 19:03:38.202337 27865 net.cpp:394] ip3 <- ip2
I0226 19:03:38.202344 27865 net.cpp:356] ip3 -> ip3
I0226 19:03:38.202352 27865 net.cpp:96] Setting up ip3
I0226 19:03:38.202365 27865 net.cpp:103] Top shape: 100 2 1 1 (200)
I0226 19:03:38.202374 27865 net.cpp:67] Creating Layer ip3_ip3_0_split
I0226 19:03:38.202379 27865 net.cpp:394] ip3_ip3_0_split <- ip3
I0226 19:03:38.202386 27865 net.cpp:356] ip3_ip3_0_split -> ip3_ip3_0_split_0
I0226 19:03:38.202394 27865 net.cpp:356] ip3_ip3_0_split -> ip3_ip3_0_split_1
I0226 19:03:38.202400 27865 net.cpp:96] Setting up ip3_ip3_0_split
I0226 19:03:38.202406 27865 net.cpp:103] Top shape: 100 2 1 1 (200)
I0226 19:03:38.202411 27865 net.cpp:103] Top shape: 100 2 1 1 (200)
I0226 19:03:38.202419 27865 net.cpp:67] Creating Layer accuracy
I0226 19:03:38.202425 27865 net.cpp:394] accuracy <- ip3_ip3_0_split_0
I0226 19:03:38.202430 27865 net.cpp:394] accuracy <- label_data_1_split_0
I0226 19:03:38.202436 27865 net.cpp:356] accuracy -> accuracy
I0226 19:03:38.202445 27865 net.cpp:96] Setting up accuracy
I0226 19:03:38.202450 27865 net.cpp:103] Top shape: 1 1 1 1 (1)
I0226 19:03:38.202460 27865 net.cpp:67] Creating Layer loss
I0226 19:03:38.202464 27865 net.cpp:394] loss <- ip3_ip3_0_split_1
I0226 19:03:38.202471 27865 net.cpp:394] loss <- label_data_1_split_1
I0226 19:03:38.202476 27865 net.cpp:394] loss <- sample_weight
I0226 19:03:38.202482 27865 net.cpp:356] loss -> loss
I0226 19:03:38.202503 27865 net.cpp:96] Setting up loss
I0226 19:03:38.202518 27865 net.cpp:103] Top shape: 1 1 1 1 (1)
I0226 19:03:38.202524 27865 net.cpp:109]     with loss weight 1
I0226 19:03:38.202579 27865 net.cpp:170] loss needs backward computation.
I0226 19:03:38.202586 27865 net.cpp:172] accuracy does not need backward computation.
I0226 19:03:38.202591 27865 net.cpp:170] ip3_ip3_0_split needs backward computation.
I0226 19:03:38.202597 27865 net.cpp:170] ip3 needs backward computation.
I0226 19:03:38.202602 27865 net.cpp:170] relu2 needs backward computation.
…
