…
I0204 22:42:49.069053 14640 net.cpp:275] The NetState phase (0) differed from the phase (1) specified by a rule in layer data
I0204 22:42:49.069087 14640 net.cpp:275] The NetState phase (0) differed from the phase (1) specified by a rule in layer accuracy
I0204 22:42:49.069365 14640 net.cpp:39] Initializing net from parameters: 
name: "LogisticRegressionNet"
layers {
  top: "data"
  top: "label"
  top: "sample_weight"
  name: "data"
  type: HDF5_DATA
  hdf5_data_param {
    source: "/share/project/shapes/caffe-weighted-samples/examples/singleNet/trainFileList.txt"
    batch_size: 100
  }
  include {
    phase: TRAIN
  }
}
layers {
  bottom: "data"
  top: "conv1"
  name: "conv1"
  type: CONVOLUTION
  blobs_lr: 1
  blobs_lr: 2
  convolution_param {
    num_output: 96
    pad: 2
    kernel_size: 5
    stride: 1
    weight_filler {
      type: "gaussian"
      std: 0.0001
    }
    bias_filler {
      type: "constant"
    }
  }
}
layers {
  bottom: "conv1"
  top: "pool1"
  name: "pool1"
  type: POOLING
  pooling_param {
    pool: MAX
    kernel_size: 3
    stride: 2
  }
}
layers {
  bottom: "pool1"
  top: "pool1"
  name: "relu1"
  type: RELU
}
layers {
  bottom: "pool1"
  top: "norm1"
  name: "norm1"
  type: LRN
  lrn_param {
    local_size: 3
    alpha: 5e-05
    beta: 0.75
    norm_region: WITHIN_CHANNEL
  }
}
layers {
  bottom: "norm1"
  top: "conv2"
  name: "conv2"
  type: CONVOLUTION
  blobs_lr: 1
  blobs_lr: 2
  convolution_param {
    num_output: 256
    pad: 2
    kernel_size: 5
    stride: 1
    weight_filler {
      type: "gaussian"
      std: 0.01
    }
    bias_filler {
      type: "constant"
    }
  }
}
layers {
  bottom: "conv2"
  top: "conv2"
  name: "relu2"
  type: RELU
}
layers {
  bottom: "conv2"
  top: "pool2"
  name: "pool2"
  type: POOLING
  pooling_param {
    pool: AVE
    kernel_size: 3
    stride: 2
  }
}
layers {
  bottom: "pool2"
  top: "norm2"
  name: "norm2"
  type: LRN
  lrn_param {
    local_size: 3
    alpha: 5e-05
    beta: 0.75
    norm_region: WITHIN_CHANNEL
  }
}
layers {
  bottom: "norm2"
  top: "conv3"
  name: "conv3"
  type: CONVOLUTION
  convolution_param {
    num_output: 64
    pad: 2
    kernel_size: 5
    stride: 1
    weight_filler {
      type: "gaussian"
      std: 0.01
    }
    bias_filler {
      type: "constant"
    }
  }
}
layers {
  bottom: "conv3"
  top: "conv3"
  name: "relu3"
  type: RELU
}
layers {
  bottom: "conv3"
  top: "pool3"
  name: "pool3"
  type: POOLING
  pooling_param {
    pool: AVE
    kernel_size: 3
    stride: 2
  }
}
layers {
  bottom: "pool3"
  top: "ip1"
  name: "ip1"
  type: INNER_PRODUCT
  blobs_lr: 1
  blobs_lr: 2
  weight_decay: 250
  weight_decay: 0
  inner_product_param {
    num_output: 2
    weight_filler {
      type: "gaussian"
      std: 0.01
    }
    bias_filler {
      type: "constant"
    }
  }
}
layers {
  bottom: "ip1"
  bottom: "label"
  bottom: "sample_weight"
  top: "loss"
  name: "loss"
  type: SOFTMAX_LOSS
}
state {
  phase: TRAIN
}
I0204 22:42:49.069648 14640 net.cpp:67] Creating Layer data
I0204 22:42:49.069666 14640 net.cpp:356] data -> data
I0204 22:42:49.069705 14640 net.cpp:356] data -> label
I0204 22:42:49.069732 14640 net.cpp:356] data -> sample_weight
I0204 22:42:49.069746 14640 net.cpp:96] Setting up data
I0204 22:42:49.069759 14640 hdf5_data_layer.cpp:63] Loading filename from /share/project/shapes/caffe-weighted-samples/examples/singleNet/trainFileList.txt
I0204 22:42:49.086798 14640 hdf5_data_layer.cpp:75] Number of files: 15
I0204 22:42:49.086832 14640 hdf5_data_layer.cpp:29] Loading HDF5 file/scratch/stephenchen/shapes/singleNet/hdf5/train_batch_35x35/trainHDF_1_35x35.h5
I0204 22:43:30.338776 14640 hdf5_data_layer.cpp:55] Successully loaded 220600 rows
I0204 22:43:30.339274 14640 hdf5_data_layer.cpp:89] output data size: 100,4,35,35
I0204 22:43:30.339324 14640 net.cpp:103] Top shape: 100 4 35 35 (490000)
I0204 22:43:30.339332 14640 net.cpp:103] Top shape: 100 1 1 1 (100)
I0204 22:43:30.339337 14640 net.cpp:103] Top shape: 100 1 1 1 (100)
I0204 22:43:30.339355 14640 net.cpp:67] Creating Layer conv1
I0204 22:43:30.339361 14640 net.cpp:394] conv1 <- data
I0204 22:43:30.339383 14640 net.cpp:356] conv1 -> conv1
I0204 22:43:30.339396 14640 net.cpp:96] Setting up conv1
I0204 22:43:30.340222 14640 net.cpp:103] Top shape: 100 96 35 35 (11760000)
I0204 22:43:30.340288 14640 net.cpp:67] Creating Layer pool1
I0204 22:43:30.340296 14640 net.cpp:394] pool1 <- conv1
I0204 22:43:30.340303 14640 net.cpp:356] pool1 -> pool1
I0204 22:43:30.340312 14640 net.cpp:96] Setting up pool1
I0204 22:43:30.340334 14640 net.cpp:103] Top shape: 100 96 17 17 (2774400)
I0204 22:43:30.340343 14640 net.cpp:67] Creating Layer relu1
I0204 22:43:30.340348 14640 net.cpp:394] relu1 <- pool1
I0204 22:43:30.340355 14640 net.cpp:345] relu1 -> pool1 (in-place)
I0204 22:43:30.340363 14640 net.cpp:96] Setting up relu1
I0204 22:43:30.340368 14640 net.cpp:103] Top shape: 100 96 17 17 (2774400)
I0204 22:43:30.340376 14640 net.cpp:67] Creating Layer norm1
I0204 22:43:30.340381 14640 net.cpp:394] norm1 <- pool1
I0204 22:43:30.340387 14640 net.cpp:356] norm1 -> norm1
I0204 22:43:30.340394 14640 net.cpp:96] Setting up norm1
I0204 22:43:30.340419 14640 net.cpp:103] Top shape: 100 96 17 17 (2774400)
I0204 22:43:30.340427 14640 net.cpp:67] Creating Layer conv2
I0204 22:43:30.340432 14640 net.cpp:394] conv2 <- norm1
I0204 22:43:30.340440 14640 net.cpp:356] conv2 -> conv2
I0204 22:43:30.340446 14640 net.cpp:96] Setting up conv2
I0204 22:43:30.353030 14640 net.cpp:103] Top shape: 100 256 17 17 (7398400)
I0204 22:43:30.353073 14640 net.cpp:67] Creating Layer relu2
I0204 22:43:30.353080 14640 net.cpp:394] relu2 <- conv2
I0204 22:43:30.353088 14640 net.cpp:345] relu2 -> conv2 (in-place)
I0204 22:43:30.353097 14640 net.cpp:96] Setting up relu2
I0204 22:43:30.353102 14640 net.cpp:103] Top shape: 100 256 17 17 (7398400)
I0204 22:43:30.353111 14640 net.cpp:67] Creating Layer pool2
I0204 22:43:30.353114 14640 net.cpp:394] pool2 <- conv2
I0204 22:43:30.353121 14640 net.cpp:356] pool2 -> pool2
I0204 22:43:30.353129 14640 net.cpp:96] Setting up pool2
I0204 22:43:30.353137 14640 net.cpp:103] Top shape: 100 256 8 8 (1638400)
I0204 22:43:30.353147 14640 net.cpp:67] Creating Layer norm2
I0204 22:43:30.353152 14640 net.cpp:394] norm2 <- pool2
I0204 22:43:30.353157 14640 net.cpp:356] norm2 -> norm2
I0204 22:43:30.353166 14640 net.cpp:96] Setting up norm2
I0204 22:43:30.353183 14640 net.cpp:103] Top shape: 100 256 8 8 (1638400)
I0204 22:43:30.353193 14640 net.cpp:67] Creating Layer conv3
I0204 22:43:30.353199 14640 net.cpp:394] conv3 <- norm2
I0204 22:43:30.353204 14640 net.cpp:356] conv3 -> conv3
I0204 22:43:30.353211 14640 net.cpp:96] Setting up conv3
I0204 22:43:30.361593 14640 net.cpp:103] Top shape: 100 64 8 8 (409600)
I0204 22:43:30.361631 14640 net.cpp:67] Creating Layer relu3
I0204 22:43:30.361639 14640 net.cpp:394] relu3 <- conv3
I0204 22:43:30.361646 14640 net.cpp:345] relu3 -> conv3 (in-place)
I0204 22:43:30.361655 14640 net.cpp:96] Setting up relu3
I0204 22:43:30.361660 14640 net.cpp:103] Top shape: 100 64 8 8 (409600)
I0204 22:43:30.361667 14640 net.cpp:67] Creating Layer pool3
I0204 22:43:30.361672 14640 net.cpp:394] pool3 <- conv3
I0204 22:43:30.361680 14640 net.cpp:356] pool3 -> pool3
I0204 22:43:30.361687 14640 net.cpp:96] Setting up pool3
I0204 22:43:30.361695 14640 net.cpp:103] Top shape: 100 64 4 4 (102400)
I0204 22:43:30.361702 14640 net.cpp:67] Creating Layer ip1
I0204 22:43:30.361707 14640 net.cpp:394] ip1 <- pool3
I0204 22:43:30.361713 14640 net.cpp:356] ip1 -> ip1
I0204 22:43:30.361721 14640 net.cpp:96] Setting up ip1
I0204 22:43:30.361778 14640 net.cpp:103] Top shape: 100 2 1 1 (200)
I0204 22:43:30.361793 14640 net.cpp:67] Creating Layer loss
I0204 22:43:30.361799 14640 net.cpp:394] loss <- ip1
I0204 22:43:30.361804 14640 net.cpp:394] loss <- label
I0204 22:43:30.361809 14640 net.cpp:394] loss <- sample_weight
I0204 22:43:30.361815 14640 net.cpp:356] loss -> loss
I0204 22:43:30.361824 14640 net.cpp:96] Setting up loss
I0204 22:43:30.361834 14640 net.cpp:103] Top shape: 1 1 1 1 (1)
I0204 22:43:30.361838 14640 net.cpp:109]     with loss weight 1
I0204 22:43:30.361910 14640 net.cpp:170] loss needs backward computation.
I0204 22:43:30.361917 14640 net.cpp:170] ip1 needs backward computation.
I0204 22:43:30.361922 14640 net.cpp:170] pool3 needs backward computation.
I0204 22:43:30.361927 14640 net.cpp:170] relu3 needs backward computation.
I0204 22:43:30.361930 14640 net.cpp:170] conv3 needs backward computation.
…
I0204 22:43:30.627317 14640 solver.cpp:151] Creating test net (#0) specified by net file: examples/singleNet/train_val_v0.3.prototxt
I0204 22:43:30.627363 14640 net.cpp:275] The NetState phase (1) differed from the phase (0) specified by a rule in layer data
I0204 22:43:30.638149 14640 net.cpp:39] Initializing net from parameters: 
name: "LogisticRegressionNet"
layers {
  top: "data"
  top: "label"
  top: "sample_weight"
  name: "data"
  type: HDF5_DATA
  hdf5_data_param {
    source: "/share/project/shapes/caffe-weighted-samples/examples/singleNet/testFileList.txt"
    batch_size: 10
  }
  include {
    phase: TEST
  }
}
layers {
  bottom: "data"
  top: "conv1"
  name: "conv1"
  type: CONVOLUTION
  blobs_lr: 1
  blobs_lr: 2
  convolution_param {
    num_output: 96
    pad: 2
    kernel_size: 5
    stride: 1
    weight_filler {
      type: "gaussian"
      std: 0.0001
    }
    bias_filler {
      type: "constant"
    }
  }
}
layers {
  bottom: "conv1"
  top: "pool1"
  name: "pool1"
  type: POOLING
  pooling_param {
    pool: MAX
    kernel_size: 3
    stride: 2
  }
}
layers {
  bottom: "pool1"
  top: "pool1"
  name: "relu1"
  type: RELU
}
layers {
  bottom: "pool1"
  top: "norm1"
  name: "norm1"
  type: LRN
  lrn_param {
    local_size: 3
    alpha: 5e-05
    beta: 0.75
    norm_region: WITHIN_CHANNEL
  }
}
layers {
  bottom: "norm1"
  top: "conv2"
  name: "conv2"
  type: CONVOLUTION
  blobs_lr: 1
  blobs_lr: 2
  convolution_param {
    num_output: 256
    pad: 2
    kernel_size: 5
    stride: 1
    weight_filler {
      type: "gaussian"
      std: 0.01
    }
    bias_filler {
      type: "constant"
    }
  }
}
layers {
  bottom: "conv2"
  top: "conv2"
  name: "relu2"
  type: RELU
}
layers {
  bottom: "conv2"
  top: "pool2"
  name: "pool2"
  type: POOLING
  pooling_param {
    pool: AVE
    kernel_size: 3
    stride: 2
  }
}
layers {
  bottom: "pool2"
  top: "norm2"
  name: "norm2"
  type: LRN
  lrn_param {
    local_size: 3
    alpha: 5e-05
    beta: 0.75
    norm_region: WITHIN_CHANNEL
  }
}
layers {
  bottom: "norm2"
  top: "conv3"
  name: "conv3"
  type: CONVOLUTION
  convolution_param {
    num_output: 64
    pad: 2
    kernel_size: 5
    stride: 1
    weight_filler {
      type: "gaussian"
      std: 0.01
    }
    bias_filler {
      type: "constant"
    }
  }
}
layers {
  bottom: "conv3"
  top: "conv3"
  name: "relu3"
  type: RELU
}
layers {
  bottom: "conv3"
  top: "pool3"
  name: "pool3"
  type: POOLING
  pooling_param {
    pool: AVE
    kernel_size: 3
    stride: 2
  }
}
layers {
  bottom: "pool3"
  top: "ip1"
  name: "ip1"
  type: INNER_PRODUCT
  blobs_lr: 1
  blobs_lr: 2
  weight_decay: 250
  weight_decay: 0
  inner_product_param {
    num_output: 2
    weight_filler {
      type: "gaussian"
      std: 0.01
    }
    bias_filler {
      type: "constant"
    }
  }
}
layers {
  bottom: "ip1"
  bottom: "label"
  top: "accuracy"
  name: "accuracy"
  type: ACCURACY
  include {
    phase: TEST
  }
}
layers {
  bottom: "ip1"
  bottom: "label"
  bottom: "sample_weight"
  top: "loss"
  name: "loss"
  type: SOFTMAX_LOSS
}
state {
  phase: TEST
}
I0204 22:43:30.638370 14640 net.cpp:67] Creating Layer data
I0204 22:43:30.638381 14640 net.cpp:356] data -> data
I0204 22:43:30.638396 14640 net.cpp:356] data -> label
I0204 22:43:30.638404 14640 net.cpp:356] data -> sample_weight
I0204 22:43:30.638412 14640 net.cpp:96] Setting up data
I0204 22:43:30.638417 14640 hdf5_data_layer.cpp:63] Loading filename from /share/project/shapes/caffe-weighted-samples/examples/singleNet/testFileList.txt
I0204 22:43:30.670016 14640 hdf5_data_layer.cpp:75] Number of files: 4
I0204 22:43:30.670039 14640 hdf5_data_layer.cpp:29] Loading HDF5 file/scratch/stephenchen/shapes/singleNet/hdf5/test_batch_35x35/testHDF_1_35x35.h5
I0204 22:43:54.935789 14640 hdf5_data_layer.cpp:55] Successully loaded 112600 rows
I0204 22:43:54.935818 14640 hdf5_data_layer.cpp:89] output data size: 10,4,35,35
I0204 22:43:54.935827 14640 net.cpp:103] Top shape: 10 4 35 35 (49000)
I0204 22:43:54.935832 14640 net.cpp:103] Top shape: 10 1 1 1 (10)
I0204 22:43:54.935837 14640 net.cpp:103] Top shape: 10 1 1 1 (10)
I0204 22:43:54.935852 14640 net.cpp:67] Creating Layer label_data_1_split
I0204 22:43:54.935858 14640 net.cpp:394] label_data_1_split <- label
I0204 22:43:54.935868 14640 net.cpp:356] label_data_1_split -> label_data_1_split_0
I0204 22:43:54.935878 14640 net.cpp:356] label_data_1_split -> label_data_1_split_1
I0204 22:43:54.935888 14640 net.cpp:96] Setting up label_data_1_split
I0204 22:43:54.935894 14640 net.cpp:103] Top shape: 10 1 1 1 (10)
I0204 22:43:54.935899 14640 net.cpp:103] Top shape: 10 1 1 1 (10)
I0204 22:43:54.935909 14640 net.cpp:67] Creating Layer conv1
I0204 22:43:54.935914 14640 net.cpp:394] conv1 <- data
I0204 22:43:54.935920 14640 net.cpp:356] conv1 -> conv1
I0204 22:43:54.935928 14640 net.cpp:96] Setting up conv1
I0204 22:43:54.936127 14640 net.cpp:103] Top shape: 10 96 35 35 (1176000)
I0204 22:43:54.936144 14640 net.cpp:67] Creating Layer pool1
I0204 22:43:54.936151 14640 net.cpp:394] pool1 <- conv1
I0204 22:43:54.936157 14640 net.cpp:356] pool1 -> pool1
I0204 22:43:54.936166 14640 net.cpp:96] Setting up pool1
I0204 22:43:54.936172 14640 net.cpp:103] Top shape: 10 96 17 17 (277440)
I0204 22:43:54.936180 14640 net.cpp:67] Creating Layer relu1
I0204 22:43:54.936184 14640 net.cpp:394] relu1 <- pool1
I0204 22:43:54.936190 14640 net.cpp:345] relu1 -> pool1 (in-place)
I0204 22:43:54.936197 14640 net.cpp:96] Setting up relu1
I0204 22:43:54.936203 14640 net.cpp:103] Top shape: 10 96 17 17 (277440)
I0204 22:43:54.936209 14640 net.cpp:67] Creating Layer norm1
I0204 22:43:54.936214 14640 net.cpp:394] norm1 <- pool1
I0204 22:43:54.936221 14640 net.cpp:356] norm1 -> norm1
I0204 22:43:54.936228 14640 net.cpp:96] Setting up norm1
I0204 22:43:54.936244 14640 net.cpp:103] Top shape: 10 96 17 17 (277440)
I0204 22:43:54.936254 14640 net.cpp:67] Creating Layer conv2
I0204 22:43:54.936259 14640 net.cpp:394] conv2 <- norm1
I0204 22:43:54.936265 14640 net.cpp:356] conv2 -> conv2
I0204 22:43:54.936272 14640 net.cpp:96] Setting up conv2
I0204 22:43:54.948922 14640 net.cpp:103] Top shape: 10 256 17 17 (739840)
I0204 22:43:54.948961 14640 net.cpp:67] Creating Layer relu2
I0204 22:43:54.948967 14640 net.cpp:394] relu2 <- conv2
I0204 22:43:54.948976 14640 net.cpp:345] relu2 -> conv2 (in-place)
I0204 22:43:54.948986 14640 net.cpp:96] Setting up relu2
I0204 22:43:54.948990 14640 net.cpp:103] Top shape: 10 256 17 17 (739840)
I0204 22:43:54.948999 14640 net.cpp:67] Creating Layer pool2
I0204 22:43:54.949009 14640 net.cpp:394] pool2 <- conv2
I0204 22:43:54.949018 14640 net.cpp:356] pool2 -> pool2
I0204 22:43:54.949025 14640 net.cpp:96] Setting up pool2
I0204 22:43:54.949031 14640 net.cpp:103] Top shape: 10 256 8 8 (163840)
I0204 22:43:54.949039 14640 net.cpp:67] Creating Layer norm2
I0204 22:43:54.949044 14640 net.cpp:394] norm2 <- pool2
I0204 22:43:54.949050 14640 net.cpp:356] norm2 -> norm2
I0204 22:43:54.949057 14640 net.cpp:96] Setting up norm2
I0204 22:43:54.949075 14640 net.cpp:103] Top shape: 10 256 8 8 (163840)
I0204 22:43:54.949084 14640 net.cpp:67] Creating Layer conv3
I0204 22:43:54.949089 14640 net.cpp:394] conv3 <- norm2
I0204 22:43:54.949095 14640 net.cpp:356] conv3 -> conv3
I0204 22:43:54.949103 14640 net.cpp:96] Setting up conv3
I0204 22:43:54.957332 14640 net.cpp:103] Top shape: 10 64 8 8 (40960)
I0204 22:43:54.957350 14640 net.cpp:67] Creating Layer relu3
I0204 22:43:54.957356 14640 net.cpp:394] relu3 <- conv3
I0204 22:43:54.957363 14640 net.cpp:345] relu3 -> conv3 (in-place)
I0204 22:43:54.957370 14640 net.cpp:96] Setting up relu3
I0204 22:43:54.957376 14640 net.cpp:103] Top shape: 10 64 8 8 (40960)
I0204 22:43:54.957382 14640 net.cpp:67] Creating Layer pool3
I0204 22:43:54.957387 14640 net.cpp:394] pool3 <- conv3
I0204 22:43:54.957394 14640 net.cpp:356] pool3 -> pool3
I0204 22:43:54.957401 14640 net.cpp:96] Setting up pool3
I0204 22:43:54.957407 14640 net.cpp:103] Top shape: 10 64 4 4 (10240)
I0204 22:43:54.957415 14640 net.cpp:67] Creating Layer ip1
I0204 22:43:54.957419 14640 net.cpp:394] ip1 <- pool3
I0204 22:43:54.957427 14640 net.cpp:356] ip1 -> ip1
I0204 22:43:54.957434 14640 net.cpp:96] Setting up ip1
I0204 22:43:54.957484 14640 net.cpp:103] Top shape: 10 2 1 1 (20)
I0204 22:43:54.957492 14640 net.cpp:67] Creating Layer ip1_ip1_0_split
I0204 22:43:54.957499 14640 net.cpp:394] ip1_ip1_0_split <- ip1
I0204 22:43:54.957504 14640 net.cpp:356] ip1_ip1_0_split -> ip1_ip1_0_split_0
I0204 22:43:54.957512 14640 net.cpp:356] ip1_ip1_0_split -> ip1_ip1_0_split_1
I0204 22:43:54.957520 14640 net.cpp:96] Setting up ip1_ip1_0_split
I0204 22:43:54.957525 14640 net.cpp:103] Top shape: 10 2 1 1 (20)
I0204 22:43:54.957530 14640 net.cpp:103] Top shape: 10 2 1 1 (20)
I0204 22:43:54.957553 14640 net.cpp:67] Creating Layer accuracy
I0204 22:43:54.957561 14640 net.cpp:394] accuracy <- ip1_ip1_0_split_0
I0204 22:43:54.957567 14640 net.cpp:394] accuracy <- label_data_1_split_0
I0204 22:43:54.957574 14640 net.cpp:356] accuracy -> accuracy
I0204 22:43:54.957584 14640 net.cpp:96] Setting up accuracy
I0204 22:43:54.957590 14640 net.cpp:103] Top shape: 1 1 1 1 (1)
I0204 22:43:54.957600 14640 net.cpp:67] Creating Layer loss
I0204 22:43:54.957605 14640 net.cpp:394] loss <- ip1_ip1_0_split_1
I0204 22:43:54.957612 14640 net.cpp:394] loss <- label_data_1_split_1
I0204 22:43:54.957617 14640 net.cpp:394] loss <- sample_weight
I0204 22:43:54.957623 14640 net.cpp:356] loss -> loss
I0204 22:43:54.957629 14640 net.cpp:96] Setting up loss
I0204 22:43:54.957638 14640 net.cpp:103] Top shape: 1 1 1 1 (1)
I0204 22:43:54.957643 14640 net.cpp:109]     with loss weight 1
I0204 22:43:54.957658 14640 net.cpp:170] loss needs backward computation.
I0204 22:43:54.957664 14640 net.cpp:172] accuracy does not need backward computation.
I0204 22:43:54.957669 14640 net.cpp:170] ip1_ip1_0_split needs backward computation.
I0204 22:43:54.957674 14640 net.cpp:170] ip1 needs backward computation.
I0204 22:43:54.957679 14640 net.cpp:170] pool3 needs backward computation.
…
