…
I0224 21:57:03.872961  8849 net.cpp:275] The NetState phase (0) differed from the phase (1) specified by a rule in layer data
I0224 21:57:03.872993  8849 net.cpp:275] The NetState phase (0) differed from the phase (1) specified by a rule in layer accuracy
I0224 21:57:03.873167  8849 net.cpp:39] Initializing net from parameters: 
name: "LogisticRegressionNet"
layers {
  top: "data"
  top: "label"
  top: "sample_weight"
  name: "data"
  type: HDF5_DATA
  hdf5_data_param {
    source: "/share/project/shapes/caffe-weighted-samples/examples/singleNet/trainFileList.txt"
    batch_size: 100
  }
  include {
    phase: TRAIN
  }
}
layers {
  bottom: "data"
  top: "conv1"
  name: "conv1"
  type: CONVOLUTION
  blobs_lr: 1
  blobs_lr: 2
  convolution_param {
    num_output: 96
    kernel_size: 4
    stride: 1
    weight_filler {
      type: "xavier"
    }
    bias_filler {
      type: "constant"
    }
  }
}
layers {
  bottom: "conv1"
  top: "conv1"
  name: "relu_conv1"
  type: RELU
}
layers {
  bottom: "conv1"
  top: "pool1"
  name: "pool1"
  type: POOLING
  pooling_param {
    pool: MAX
    kernel_size: 2
    stride: 2
  }
}
layers {
  bottom: "pool1"
  top: "conv2"
  name: "conv2"
  type: CONVOLUTION
  blobs_lr: 1
  blobs_lr: 2
  convolution_param {
    num_output: 256
    kernel_size: 3
    stride: 1
    weight_filler {
      type: "xavier"
    }
    bias_filler {
      type: "constant"
    }
  }
}
layers {
  bottom: "conv2"
  top: "conv2"
  name: "relu_conv2"
  type: RELU
}
layers {
  bottom: "conv2"
  top: "pool2"
  name: "pool2"
  type: POOLING
  pooling_param {
    pool: MAX
    kernel_size: 2
    stride: 2
  }
}
layers {
  bottom: "pool2"
  top: "conv3"
  name: "conv3"
  type: CONVOLUTION
  blobs_lr: 1
  blobs_lr: 2
  convolution_param {
    num_output: 64
    kernel_size: 4
    stride: 1
    weight_filler {
      type: "xavier"
    }
    bias_filler {
      type: "constant"
    }
  }
}
layers {
  bottom: "conv3"
  top: "conv3"
  name: "relu_conv3"
  type: RELU
}
layers {
  bottom: "conv3"
  top: "ip1"
  name: "ip1"
  type: INNER_PRODUCT
  blobs_lr: 1
  blobs_lr: 2
  inner_product_param {
    num_output: 256
    weight_filler {
      type: "xavier"
    }
    bias_filler {
      type: "constant"
    }
  }
}
layers {
  bottom: "ip1"
  top: "ip1"
  name: "relu1"
  type: RELU
}
layers {
  bottom: "ip1"
  top: "ip2"
  name: "ip2"
  type: INNER_PRODUCT
  blobs_lr: 1
  blobs_lr: 2
  inner_product_param {
    num_output: 256
    weight_filler {
      type: "xavier"
    }
    bias_filler {
      type: "constant"
    }
  }
}
layers {
  bottom: "ip2"
  top: "ip2"
  name: "relu2"
  type: RELU
}
layers {
  bottom: "ip2"
  top: "ip3"
  name: "ip3"
  type: INNER_PRODUCT
  blobs_lr: 1
  blobs_lr: 2
  inner_product_param {
    num_output: 2
    weight_filler {
      type: "xavier"
    }
    bias_filler {
      type: "constant"
    }
  }
}
layers {
  bottom: "ip3"
  bottom: "label"
  bottom: "sample_weight"
  top: "loss"
  name: "loss"
  type: SOFTMAX_LOSS
}
state {
  phase: TRAIN
}
I0224 21:57:03.873337  8849 net.cpp:67] Creating Layer data
I0224 21:57:03.873347  8849 net.cpp:356] data -> data
I0224 21:57:03.873375  8849 net.cpp:356] data -> label
I0224 21:57:03.873395  8849 net.cpp:356] data -> sample_weight
I0224 21:57:03.873404  8849 net.cpp:96] Setting up data
I0224 21:57:03.873411  8849 hdf5_data_layer.cpp:63] Loading filename from /share/project/shapes/caffe-weighted-samples/examples/singleNet/trainFileList.txt
I0224 21:57:03.897649  8849 hdf5_data_layer.cpp:75] Number of files: 3
I0224 21:57:03.897689  8849 hdf5_data_layer.cpp:29] Loading HDF5 file/scratch/stephenchen/shapes/singleNet/hdf5/train_batch_35x35/trainHDF_1_35x35.h5
I0224 21:57:47.769942  8849 hdf5_data_layer.cpp:55] Successully loaded 196600 rows
I0224 21:57:47.770382  8849 hdf5_data_layer.cpp:89] output data size: 100,4,35,35
I0224 21:57:47.787118  8849 net.cpp:103] Top shape: 100 4 35 35 (490000)
I0224 21:57:47.787134  8849 net.cpp:103] Top shape: 100 1 1 1 (100)
I0224 21:57:47.787140  8849 net.cpp:103] Top shape: 100 1 1 1 (100)
I0224 21:57:47.787161  8849 net.cpp:67] Creating Layer conv1
I0224 21:57:47.787168  8849 net.cpp:394] conv1 <- data
I0224 21:57:47.787194  8849 net.cpp:356] conv1 -> conv1
I0224 21:57:47.876727  8849 net.cpp:96] Setting up conv1
I0224 21:57:48.024963  8849 net.cpp:103] Top shape: 100 96 32 32 (9830400)
I0224 21:57:48.048841  8849 net.cpp:67] Creating Layer relu_conv1
I0224 21:57:48.048872  8849 net.cpp:394] relu_conv1 <- conv1
I0224 21:57:48.048882  8849 net.cpp:345] relu_conv1 -> conv1 (in-place)
I0224 21:57:48.048894  8849 net.cpp:96] Setting up relu_conv1
I0224 21:57:48.048900  8849 net.cpp:103] Top shape: 100 96 32 32 (9830400)
I0224 21:57:48.048909  8849 net.cpp:67] Creating Layer pool1
I0224 21:57:48.048914  8849 net.cpp:394] pool1 <- conv1
I0224 21:57:48.048921  8849 net.cpp:356] pool1 -> pool1
I0224 21:57:48.048930  8849 net.cpp:96] Setting up pool1
I0224 21:57:48.048957  8849 net.cpp:103] Top shape: 100 96 16 16 (2457600)
I0224 21:57:48.048970  8849 net.cpp:67] Creating Layer conv2
I0224 21:57:48.048975  8849 net.cpp:394] conv2 <- pool1
I0224 21:57:48.048984  8849 net.cpp:356] conv2 -> conv2
I0224 21:57:48.048991  8849 net.cpp:96] Setting up conv2
I0224 21:57:48.051738  8849 net.cpp:103] Top shape: 100 256 14 14 (5017600)
I0224 21:57:48.051785  8849 net.cpp:67] Creating Layer relu_conv2
I0224 21:57:48.051794  8849 net.cpp:394] relu_conv2 <- conv2
I0224 21:57:48.051802  8849 net.cpp:345] relu_conv2 -> conv2 (in-place)
I0224 21:57:48.051812  8849 net.cpp:96] Setting up relu_conv2
I0224 21:57:48.051818  8849 net.cpp:103] Top shape: 100 256 14 14 (5017600)
I0224 21:57:48.051826  8849 net.cpp:67] Creating Layer pool2
I0224 21:57:48.051831  8849 net.cpp:394] pool2 <- conv2
I0224 21:57:48.051838  8849 net.cpp:356] pool2 -> pool2
I0224 21:57:48.051846  8849 net.cpp:96] Setting up pool2
I0224 21:57:48.051853  8849 net.cpp:103] Top shape: 100 256 7 7 (1254400)
I0224 21:57:48.051862  8849 net.cpp:67] Creating Layer conv3
I0224 21:57:48.051868  8849 net.cpp:394] conv3 <- pool2
I0224 21:57:48.051875  8849 net.cpp:356] conv3 -> conv3
I0224 21:57:48.051882  8849 net.cpp:96] Setting up conv3
I0224 21:57:48.055367  8849 net.cpp:103] Top shape: 100 64 4 4 (102400)
I0224 21:57:48.055424  8849 net.cpp:67] Creating Layer relu_conv3
I0224 21:57:48.055433  8849 net.cpp:394] relu_conv3 <- conv3
I0224 21:57:48.056788  8849 net.cpp:345] relu_conv3 -> conv3 (in-place)
I0224 21:57:48.056836  8849 net.cpp:96] Setting up relu_conv3
I0224 21:57:48.056843  8849 net.cpp:103] Top shape: 100 64 4 4 (102400)
I0224 21:57:48.056857  8849 net.cpp:67] Creating Layer ip1
I0224 21:57:48.056864  8849 net.cpp:394] ip1 <- conv3
I0224 21:57:48.056872  8849 net.cpp:356] ip1 -> ip1
I0224 21:57:48.056884  8849 net.cpp:96] Setting up ip1
I0224 21:57:48.063032  8849 net.cpp:103] Top shape: 100 256 1 1 (25600)
I0224 21:57:48.063077  8849 net.cpp:67] Creating Layer relu1
I0224 21:57:48.063086  8849 net.cpp:394] relu1 <- ip1
I0224 21:57:48.063096  8849 net.cpp:345] relu1 -> ip1 (in-place)
I0224 21:57:48.063104  8849 net.cpp:96] Setting up relu1
I0224 21:57:48.063110  8849 net.cpp:103] Top shape: 100 256 1 1 (25600)
I0224 21:57:48.063118  8849 net.cpp:67] Creating Layer ip2
I0224 21:57:48.063123  8849 net.cpp:394] ip2 <- ip1
I0224 21:57:48.063130  8849 net.cpp:356] ip2 -> ip2
I0224 21:57:48.063139  8849 net.cpp:96] Setting up ip2
I0224 21:57:48.063928  8849 net.cpp:103] Top shape: 100 256 1 1 (25600)
I0224 21:57:48.063953  8849 net.cpp:67] Creating Layer relu2
I0224 21:57:48.063959  8849 net.cpp:394] relu2 <- ip2
I0224 21:57:48.063967  8849 net.cpp:345] relu2 -> ip2 (in-place)
I0224 21:57:48.063974  8849 net.cpp:96] Setting up relu2
I0224 21:57:48.063979  8849 net.cpp:103] Top shape: 100 256 1 1 (25600)
I0224 21:57:48.063987  8849 net.cpp:67] Creating Layer ip3
I0224 21:57:48.063992  8849 net.cpp:394] ip3 <- ip2
I0224 21:57:48.063998  8849 net.cpp:356] ip3 -> ip3
I0224 21:57:48.064007  8849 net.cpp:96] Setting up ip3
I0224 21:57:48.064021  8849 net.cpp:103] Top shape: 100 2 1 1 (200)
I0224 21:57:48.064039  8849 net.cpp:67] Creating Layer loss
I0224 21:57:48.064045  8849 net.cpp:394] loss <- ip3
I0224 21:57:48.064051  8849 net.cpp:394] loss <- label
I0224 21:57:48.064057  8849 net.cpp:394] loss <- sample_weight
I0224 21:57:48.064064  8849 net.cpp:356] loss -> loss
I0224 21:57:48.064072  8849 net.cpp:96] Setting up loss
I0224 21:57:48.064082  8849 net.cpp:103] Top shape: 1 1 1 1 (1)
I0224 21:57:48.064088  8849 net.cpp:109]     with loss weight 1
I0224 21:57:48.064163  8849 net.cpp:170] loss needs backward computation.
I0224 21:57:48.064169  8849 net.cpp:170] ip3 needs backward computation.
I0224 21:57:48.064174  8849 net.cpp:170] relu2 needs backward computation.
I0224 21:57:48.064179  8849 net.cpp:170] ip2 needs backward computation.
I0224 21:57:48.064184  8849 net.cpp:170] relu1 needs backward computation.
…
I0224 21:57:48.091929  8849 solver.cpp:151] Creating test net (#0) specified by net file: examples/singleNet/train_val_v0.3.prototxt
I0224 21:57:48.091969  8849 net.cpp:275] The NetState phase (1) differed from the phase (0) specified by a rule in layer data
I0224 21:57:48.092136  8849 net.cpp:39] Initializing net from parameters: 
name: "LogisticRegressionNet"
layers {
  top: "data"
  top: "label"
  top: "sample_weight"
  name: "data"
  type: HDF5_DATA
  hdf5_data_param {
    source: "/share/project/shapes/caffe-weighted-samples/examples/singleNet/testFileList.txt"
    batch_size: 60
  }
  include {
    phase: TEST
  }
}
layers {
  bottom: "data"
  top: "conv1"
  name: "conv1"
  type: CONVOLUTION
  blobs_lr: 1
  blobs_lr: 2
  convolution_param {
    num_output: 96
    kernel_size: 4
    stride: 1
    weight_filler {
      type: "xavier"
    }
    bias_filler {
      type: "constant"
    }
  }
}
layers {
  bottom: "conv1"
  top: "conv1"
  name: "relu_conv1"
  type: RELU
}
layers {
  bottom: "conv1"
  top: "pool1"
  name: "pool1"
  type: POOLING
  pooling_param {
    pool: MAX
    kernel_size: 2
    stride: 2
  }
}
layers {
  bottom: "pool1"
  top: "conv2"
  name: "conv2"
  type: CONVOLUTION
  blobs_lr: 1
  blobs_lr: 2
  convolution_param {
    num_output: 256
    kernel_size: 3
    stride: 1
    weight_filler {
      type: "xavier"
    }
    bias_filler {
      type: "constant"
    }
  }
}
layers {
  bottom: "conv2"
  top: "conv2"
  name: "relu_conv2"
  type: RELU
}
layers {
  bottom: "conv2"
  top: "pool2"
  name: "pool2"
  type: POOLING
  pooling_param {
    pool: MAX
    kernel_size: 2
    stride: 2
  }
}
layers {
  bottom: "pool2"
  top: "conv3"
  name: "conv3"
  type: CONVOLUTION
  blobs_lr: 1
  blobs_lr: 2
  convolution_param {
    num_output: 64
    kernel_size: 4
    stride: 1
    weight_filler {
      type: "xavier"
    }
    bias_filler {
      type: "constant"
    }
  }
}
layers {
  bottom: "conv3"
  top: "conv3"
  name: "relu_conv3"
  type: RELU
}
layers {
  bottom: "conv3"
  top: "ip1"
  name: "ip1"
  type: INNER_PRODUCT
  blobs_lr: 1
  blobs_lr: 2
  inner_product_param {
    num_output: 256
    weight_filler {
      type: "xavier"
    }
    bias_filler {
      type: "constant"
    }
  }
}
layers {
  bottom: "ip1"
  top: "ip1"
  name: "relu1"
  type: RELU
}
layers {
  bottom: "ip1"
  top: "ip2"
  name: "ip2"
  type: INNER_PRODUCT
  blobs_lr: 1
  blobs_lr: 2
  inner_product_param {
    num_output: 256
    weight_filler {
      type: "xavier"
    }
    bias_filler {
      type: "constant"
    }
  }
}
layers {
  bottom: "ip2"
  top: "ip2"
  name: "relu2"
  type: RELU
}
layers {
  bottom: "ip2"
  top: "ip3"
  name: "ip3"
  type: INNER_PRODUCT
  blobs_lr: 1
  blobs_lr: 2
  inner_product_param {
    num_output: 2
    weight_filler {
      type: "xavier"
    }
    bias_filler {
      type: "constant"
    }
  }
}
layers {
  bottom: "ip3"
  bottom: "label"
  top: "accuracy"
  name: "accuracy"
  type: ACCURACY
  include {
    phase: TEST
  }
}
layers {
  bottom: "ip3"
  bottom: "label"
  bottom: "sample_weight"
  top: "loss"
  name: "loss"
  type: SOFTMAX_LOSS
}
state {
  phase: TEST
}
I0224 21:57:48.092331  8849 net.cpp:67] Creating Layer data
I0224 21:57:48.092342  8849 net.cpp:356] data -> data
I0224 21:57:48.092353  8849 net.cpp:356] data -> label
I0224 21:57:48.092362  8849 net.cpp:356] data -> sample_weight
I0224 21:57:48.092370  8849 net.cpp:96] Setting up data
I0224 21:57:48.092375  8849 hdf5_data_layer.cpp:63] Loading filename from /share/project/shapes/caffe-weighted-samples/examples/singleNet/testFileList.txt
I0224 21:57:48.196640  8849 hdf5_data_layer.cpp:75] Number of files: 1
I0224 21:57:48.196671  8849 hdf5_data_layer.cpp:29] Loading HDF5 file/scratch/stephenchen/shapes/singleNet/hdf5/test_batch_35x35/testHDF_1_35x35.h5
I0224 21:58:00.013186  8849 hdf5_data_layer.cpp:55] Successully loaded 59000 rows
I0224 21:58:00.013212  8849 hdf5_data_layer.cpp:89] output data size: 60,4,35,35
I0224 21:58:00.116375  8849 net.cpp:103] Top shape: 60 4 35 35 (294000)
I0224 21:58:00.116389  8849 net.cpp:103] Top shape: 60 1 1 1 (60)
I0224 21:58:00.116394  8849 net.cpp:103] Top shape: 60 1 1 1 (60)
I0224 21:58:00.116410  8849 net.cpp:67] Creating Layer label_data_1_split
I0224 21:58:00.116416  8849 net.cpp:394] label_data_1_split <- label
I0224 21:58:00.116425  8849 net.cpp:356] label_data_1_split -> label_data_1_split_0
I0224 21:58:00.227764  8849 net.cpp:356] label_data_1_split -> label_data_1_split_1
I0224 21:58:00.227807  8849 net.cpp:96] Setting up label_data_1_split
I0224 21:58:00.227815  8849 net.cpp:103] Top shape: 60 1 1 1 (60)
I0224 21:58:00.227823  8849 net.cpp:103] Top shape: 60 1 1 1 (60)
I0224 21:58:00.227834  8849 net.cpp:67] Creating Layer conv1
I0224 21:58:00.227840  8849 net.cpp:394] conv1 <- data
I0224 21:58:00.227849  8849 net.cpp:356] conv1 -> conv1
I0224 21:58:00.227857  8849 net.cpp:96] Setting up conv1
I0224 21:58:00.227952  8849 net.cpp:103] Top shape: 60 96 32 32 (5898240)
I0224 21:58:00.243475  8849 net.cpp:67] Creating Layer relu_conv1
I0224 21:58:00.243505  8849 net.cpp:394] relu_conv1 <- conv1
I0224 21:58:00.243515  8849 net.cpp:345] relu_conv1 -> conv1 (in-place)
I0224 21:58:00.243525  8849 net.cpp:96] Setting up relu_conv1
I0224 21:58:00.243531  8849 net.cpp:103] Top shape: 60 96 32 32 (5898240)
I0224 21:58:00.243541  8849 net.cpp:67] Creating Layer pool1
I0224 21:58:00.243546  8849 net.cpp:394] pool1 <- conv1
I0224 21:58:00.243552  8849 net.cpp:356] pool1 -> pool1
I0224 21:58:00.243561  8849 net.cpp:96] Setting up pool1
I0224 21:58:00.243568  8849 net.cpp:103] Top shape: 60 96 16 16 (1474560)
I0224 21:58:00.243578  8849 net.cpp:67] Creating Layer conv2
I0224 21:58:00.243583  8849 net.cpp:394] conv2 <- pool1
I0224 21:58:00.243589  8849 net.cpp:356] conv2 -> conv2
I0224 21:58:00.243597  8849 net.cpp:96] Setting up conv2
I0224 21:58:00.246207  8849 net.cpp:103] Top shape: 60 256 14 14 (3010560)
I0224 21:58:00.246225  8849 net.cpp:67] Creating Layer relu_conv2
I0224 21:58:00.246230  8849 net.cpp:394] relu_conv2 <- conv2
I0224 21:58:00.246238  8849 net.cpp:345] relu_conv2 -> conv2 (in-place)
I0224 21:58:00.246249  8849 net.cpp:96] Setting up relu_conv2
I0224 21:58:00.246254  8849 net.cpp:103] Top shape: 60 256 14 14 (3010560)
I0224 21:58:00.246261  8849 net.cpp:67] Creating Layer pool2
I0224 21:58:00.246266  8849 net.cpp:394] pool2 <- conv2
I0224 21:58:00.246273  8849 net.cpp:356] pool2 -> pool2
I0224 21:58:00.246281  8849 net.cpp:96] Setting up pool2
I0224 21:58:00.246289  8849 net.cpp:103] Top shape: 60 256 7 7 (752640)
I0224 21:58:00.246297  8849 net.cpp:67] Creating Layer conv3
I0224 21:58:00.246302  8849 net.cpp:394] conv3 <- pool2
I0224 21:58:00.246309  8849 net.cpp:356] conv3 -> conv3
I0224 21:58:00.246317  8849 net.cpp:96] Setting up conv3
I0224 21:58:00.249393  8849 net.cpp:103] Top shape: 60 64 4 4 (61440)
I0224 21:58:00.249415  8849 net.cpp:67] Creating Layer relu_conv3
I0224 21:58:00.249423  8849 net.cpp:394] relu_conv3 <- conv3
I0224 21:58:00.249429  8849 net.cpp:345] relu_conv3 -> conv3 (in-place)
I0224 21:58:00.249438  8849 net.cpp:96] Setting up relu_conv3
I0224 21:58:00.249443  8849 net.cpp:103] Top shape: 60 64 4 4 (61440)
I0224 21:58:00.249450  8849 net.cpp:67] Creating Layer ip1
I0224 21:58:00.249455  8849 net.cpp:394] ip1 <- conv3
I0224 21:58:00.249462  8849 net.cpp:356] ip1 -> ip1
I0224 21:58:00.249470  8849 net.cpp:96] Setting up ip1
I0224 21:58:00.252564  8849 net.cpp:103] Top shape: 60 256 1 1 (15360)
I0224 21:58:00.252583  8849 net.cpp:67] Creating Layer relu1
I0224 21:58:00.252588  8849 net.cpp:394] relu1 <- ip1
I0224 21:58:00.252595  8849 net.cpp:345] relu1 -> ip1 (in-place)
I0224 21:58:00.252604  8849 net.cpp:96] Setting up relu1
I0224 21:58:00.252609  8849 net.cpp:103] Top shape: 60 256 1 1 (15360)
I0224 21:58:00.252616  8849 net.cpp:67] Creating Layer ip2
I0224 21:58:00.252621  8849 net.cpp:394] ip2 <- ip1
I0224 21:58:00.252629  8849 net.cpp:356] ip2 -> ip2
I0224 21:58:00.252635  8849 net.cpp:96] Setting up ip2
I0224 21:58:00.253320  8849 net.cpp:103] Top shape: 60 256 1 1 (15360)
I0224 21:58:00.253336  8849 net.cpp:67] Creating Layer relu2
I0224 21:58:00.253342  8849 net.cpp:394] relu2 <- ip2
I0224 21:58:00.253348  8849 net.cpp:345] relu2 -> ip2 (in-place)
I0224 21:58:00.253355  8849 net.cpp:96] Setting up relu2
I0224 21:58:00.253360  8849 net.cpp:103] Top shape: 60 256 1 1 (15360)
I0224 21:58:00.253368  8849 net.cpp:67] Creating Layer ip3
I0224 21:58:00.253373  8849 net.cpp:394] ip3 <- ip2
I0224 21:58:00.253379  8849 net.cpp:356] ip3 -> ip3
I0224 21:58:00.253387  8849 net.cpp:96] Setting up ip3
I0224 21:58:00.253402  8849 net.cpp:103] Top shape: 60 2 1 1 (120)
I0224 21:58:00.253412  8849 net.cpp:67] Creating Layer ip3_ip3_0_split
I0224 21:58:00.253417  8849 net.cpp:394] ip3_ip3_0_split <- ip3
I0224 21:58:00.253423  8849 net.cpp:356] ip3_ip3_0_split -> ip3_ip3_0_split_0
I0224 21:58:00.253432  8849 net.cpp:356] ip3_ip3_0_split -> ip3_ip3_0_split_1
I0224 21:58:00.253438  8849 net.cpp:96] Setting up ip3_ip3_0_split
I0224 21:58:00.253444  8849 net.cpp:103] Top shape: 60 2 1 1 (120)
I0224 21:58:00.253449  8849 net.cpp:103] Top shape: 60 2 1 1 (120)
I0224 21:58:00.253458  8849 net.cpp:67] Creating Layer accuracy
I0224 21:58:00.253463  8849 net.cpp:394] accuracy <- ip3_ip3_0_split_0
I0224 21:58:00.253469  8849 net.cpp:394] accuracy <- label_data_1_split_0
I0224 21:58:00.253475  8849 net.cpp:356] accuracy -> accuracy
I0224 21:58:00.253484  8849 net.cpp:96] Setting up accuracy
I0224 21:58:00.253489  8849 net.cpp:103] Top shape: 1 1 1 1 (1)
I0224 21:58:00.253500  8849 net.cpp:67] Creating Layer loss
I0224 21:58:00.253505  8849 net.cpp:394] loss <- ip3_ip3_0_split_1
I0224 21:58:00.253511  8849 net.cpp:394] loss <- label_data_1_split_1
I0224 21:58:00.253517  8849 net.cpp:394] loss <- sample_weight
I0224 21:58:00.253523  8849 net.cpp:356] loss -> loss
I0224 21:58:00.253545  8849 net.cpp:96] Setting up loss
I0224 21:58:00.253556  8849 net.cpp:103] Top shape: 1 1 1 1 (1)
I0224 21:58:00.253561  8849 net.cpp:109]     with loss weight 1
I0224 21:58:00.253573  8849 net.cpp:170] loss needs backward computation.
I0224 21:58:00.253579  8849 net.cpp:172] accuracy does not need backward computation.
I0224 21:58:00.253587  8849 net.cpp:170] ip3_ip3_0_split needs backward computation.
I0224 21:58:00.253592  8849 net.cpp:170] ip3 needs backward computation.
I0224 21:58:00.253597  8849 net.cpp:170] relu2 needs backward computation.
…
