…
I1224 22:03:49.858818 25819 net.cpp:275] The NetState phase (0) differed from the phase (1) specified by a rule in layer data
I1224 22:03:49.858837 25819 net.cpp:275] The NetState phase (0) differed from the phase (1) specified by a rule in layer accuracy
I1224 22:03:49.858981 25819 net.cpp:39] Initializing net from parameters: 
name: "LogisticRegressionNet"
layers {
  top: "data"
  top: "label"
  top: "sample_weight"
  name: "data"
  type: HDF5_DATA
  hdf5_data_param {
    source: "/share/project/shapes/caffe-weighted-samples/examples/singleNet/trainFileList.txt"
    batch_size: 100
  }
  include {
    phase: TRAIN
  }
}
layers {
  bottom: "data"
  top: "conv1"
  name: "conv1"
  type: CONVOLUTION
  blobs_lr: 1
  blobs_lr: 2
  convolution_param {
    num_output: 96
    kernel_size: 5
    stride: 1
    weight_filler {
      type: "xavier"
    }
    bias_filler {
      type: "constant"
    }
  }
}
layers {
  bottom: "conv1"
  top: "pool1"
  name: "pool1"
  type: POOLING
  pooling_param {
    pool: MAX
    kernel_size: 2
    stride: 2
  }
}
layers {
  bottom: "pool1"
  top: "conv2"
  name: "conv2"
  type: CONVOLUTION
  blobs_lr: 1
  blobs_lr: 2
  convolution_param {
    num_output: 256
    kernel_size: 3
    stride: 1
    weight_filler {
      type: "xavier"
    }
    bias_filler {
      type: "constant"
    }
  }
}
layers {
  bottom: "conv2"
  top: "pool2"
  name: "pool2"
  type: POOLING
  pooling_param {
    pool: MAX
    kernel_size: 2
    stride: 2
  }
}
layers {
  bottom: "pool2"
  top: "conv3"
  name: "conv3"
  type: CONVOLUTION
  blobs_lr: 1
  blobs_lr: 2
  convolution_param {
    num_output: 64
    kernel_size: 3
    stride: 1
    weight_filler {
      type: "xavier"
    }
    bias_filler {
      type: "constant"
    }
  }
}
layers {
  bottom: "conv3"
  top: "ip1"
  name: "ip1"
  type: INNER_PRODUCT
  blobs_lr: 1
  blobs_lr: 2
  inner_product_param {
    num_output: 1024
    weight_filler {
      type: "xavier"
    }
    bias_filler {
      type: "constant"
    }
  }
}
layers {
  bottom: "ip1"
  top: "ip1"
  name: "relu1"
  type: RELU
}
layers {
  bottom: "ip1"
  top: "ip2"
  name: "ip2"
  type: INNER_PRODUCT
  blobs_lr: 1
  blobs_lr: 2
  inner_product_param {
    num_output: 1024
    weight_filler {
      type: "xavier"
    }
    bias_filler {
      type: "constant"
    }
  }
}
layers {
  bottom: "ip2"
  top: "ip2"
  name: "relu2"
  type: RELU
}
layers {
  bottom: "ip2"
  top: "ip3"
  name: "ip3"
  type: INNER_PRODUCT
  blobs_lr: 1
  blobs_lr: 2
  inner_product_param {
    num_output: 2
    weight_filler {
      type: "xavier"
    }
    bias_filler {
      type: "constant"
    }
  }
}
layers {
  bottom: "ip3"
  bottom: "label"
  bottom: "sample_weight"
  top: "loss"
  name: "loss"
  type: SOFTMAX_LOSS
}
state {
  phase: TRAIN
}
I1224 22:03:49.859127 25819 net.cpp:67] Creating Layer data
I1224 22:03:49.859138 25819 net.cpp:356] data -> data
I1224 22:03:49.859163 25819 net.cpp:356] data -> label
I1224 22:03:49.859182 25819 net.cpp:356] data -> sample_weight
I1224 22:03:49.859191 25819 net.cpp:96] Setting up data
I1224 22:03:49.859200 25819 hdf5_data_layer.cpp:63] Loading filename from /share/project/shapes/caffe-weighted-samples/examples/singleNet/trainFileList.txt
I1224 22:03:49.859959 25819 hdf5_data_layer.cpp:75] Number of files: 10
I1224 22:03:49.859977 25819 hdf5_data_layer.cpp:29] Loading HDF5 file/scratch/stephenchen/shapes/singleNet/hdf5/train_batch_35x35/trainHDF_1_35x35.h5
I1224 22:04:24.049707 25819 hdf5_data_layer.cpp:55] Successully loaded 210339 rows
I1224 22:04:24.361579 25819 hdf5_data_layer.cpp:89] output data size: 100,4,35,35
I1224 22:04:24.361639 25819 net.cpp:103] Top shape: 100 4 35 35 (490000)
I1224 22:04:24.361649 25819 net.cpp:103] Top shape: 100 1 1 1 (100)
I1224 22:04:24.361655 25819 net.cpp:103] Top shape: 100 1 1 1 (100)
I1224 22:04:24.361677 25819 net.cpp:67] Creating Layer conv1
I1224 22:04:24.361685 25819 net.cpp:394] conv1 <- data
I1224 22:04:24.361706 25819 net.cpp:356] conv1 -> conv1
I1224 22:04:24.361721 25819 net.cpp:96] Setting up conv1
I1224 22:04:24.362457 25819 net.cpp:103] Top shape: 100 96 31 31 (9225600)
I1224 22:04:24.382833 25819 net.cpp:67] Creating Layer pool1
I1224 22:04:24.382844 25819 net.cpp:394] pool1 <- conv1
I1224 22:04:24.382853 25819 net.cpp:356] pool1 -> pool1
I1224 22:04:24.382863 25819 net.cpp:96] Setting up pool1
I1224 22:04:24.382885 25819 net.cpp:103] Top shape: 100 96 16 16 (2457600)
I1224 22:04:24.382895 25819 net.cpp:67] Creating Layer conv2
I1224 22:04:24.382900 25819 net.cpp:394] conv2 <- pool1
I1224 22:04:24.382908 25819 net.cpp:356] conv2 -> conv2
I1224 22:04:24.382916 25819 net.cpp:96] Setting up conv2
I1224 22:04:24.385447 25819 net.cpp:103] Top shape: 100 256 14 14 (5017600)
I1224 22:04:24.385468 25819 net.cpp:67] Creating Layer pool2
I1224 22:04:24.385473 25819 net.cpp:394] pool2 <- conv2
I1224 22:04:24.385481 25819 net.cpp:356] pool2 -> pool2
I1224 22:04:24.385489 25819 net.cpp:96] Setting up pool2
I1224 22:04:24.385495 25819 net.cpp:103] Top shape: 100 256 7 7 (1254400)
I1224 22:04:24.385504 25819 net.cpp:67] Creating Layer conv3
I1224 22:04:24.385509 25819 net.cpp:394] conv3 <- pool2
I1224 22:04:24.385516 25819 net.cpp:356] conv3 -> conv3
I1224 22:04:24.385524 25819 net.cpp:96] Setting up conv3
I1224 22:04:24.387202 25819 net.cpp:103] Top shape: 100 64 5 5 (160000)
I1224 22:04:24.387220 25819 net.cpp:67] Creating Layer ip1
I1224 22:04:24.387231 25819 net.cpp:394] ip1 <- conv3
I1224 22:04:24.387239 25819 net.cpp:356] ip1 -> ip1
I1224 22:04:24.387249 25819 net.cpp:96] Setting up ip1
I1224 22:04:24.406252 25819 net.cpp:103] Top shape: 100 1024 1 1 (102400)
I1224 22:04:24.406288 25819 net.cpp:67] Creating Layer relu1
I1224 22:04:24.406296 25819 net.cpp:394] relu1 <- ip1
I1224 22:04:24.406304 25819 net.cpp:345] relu1 -> ip1 (in-place)
I1224 22:04:24.406313 25819 net.cpp:96] Setting up relu1
I1224 22:04:24.406318 25819 net.cpp:103] Top shape: 100 1024 1 1 (102400)
I1224 22:04:24.406329 25819 net.cpp:67] Creating Layer ip2
I1224 22:04:24.406334 25819 net.cpp:394] ip2 <- ip1
I1224 22:04:24.406342 25819 net.cpp:356] ip2 -> ip2
I1224 22:04:24.406350 25819 net.cpp:96] Setting up ip2
I1224 22:04:24.418555 25819 net.cpp:103] Top shape: 100 1024 1 1 (102400)
I1224 22:04:24.418583 25819 net.cpp:67] Creating Layer relu2
I1224 22:04:24.418591 25819 net.cpp:394] relu2 <- ip2
I1224 22:04:24.418597 25819 net.cpp:345] relu2 -> ip2 (in-place)
I1224 22:04:24.418606 25819 net.cpp:96] Setting up relu2
I1224 22:04:24.418611 25819 net.cpp:103] Top shape: 100 1024 1 1 (102400)
I1224 22:04:24.418618 25819 net.cpp:67] Creating Layer ip3
I1224 22:04:24.418623 25819 net.cpp:394] ip3 <- ip2
I1224 22:04:24.418630 25819 net.cpp:356] ip3 -> ip3
I1224 22:04:24.418638 25819 net.cpp:96] Setting up ip3
I1224 22:04:24.418669 25819 net.cpp:103] Top shape: 100 2 1 1 (200)
I1224 22:04:24.418685 25819 net.cpp:67] Creating Layer loss
I1224 22:04:24.418690 25819 net.cpp:394] loss <- ip3
I1224 22:04:24.418696 25819 net.cpp:394] loss <- label
I1224 22:04:24.418702 25819 net.cpp:394] loss <- sample_weight
I1224 22:04:24.418710 25819 net.cpp:356] loss -> loss
I1224 22:04:24.418719 25819 net.cpp:96] Setting up loss
I1224 22:04:24.418730 25819 net.cpp:103] Top shape: 1 1 1 1 (1)
I1224 22:04:24.418735 25819 net.cpp:109]     with loss weight 1
I1224 22:04:24.418807 25819 net.cpp:170] loss needs backward computation.
I1224 22:04:24.418812 25819 net.cpp:170] ip3 needs backward computation.
I1224 22:04:24.418817 25819 net.cpp:170] relu2 needs backward computation.
I1224 22:04:24.418823 25819 net.cpp:170] ip2 needs backward computation.
I1224 22:04:24.418826 25819 net.cpp:170] relu1 needs backward computation.
…
I1224 22:04:24.447688 25819 solver.cpp:151] Creating test net (#0) specified by net file: examples/singleNet/train_val.prototxt
I1224 22:04:24.447724 25819 net.cpp:275] The NetState phase (1) differed from the phase (0) specified by a rule in layer data
I1224 22:04:24.447877 25819 net.cpp:39] Initializing net from parameters: 
name: "LogisticRegressionNet"
layers {
  top: "data"
  top: "label"
  top: "sample_weight"
  name: "data"
  type: HDF5_DATA
  hdf5_data_param {
    source: "/share/project/shapes/caffe-weighted-samples/examples/singleNet/testFileList.txt"
    batch_size: 10
  }
  include {
    phase: TEST
  }
}
layers {
  bottom: "data"
  top: "conv1"
  name: "conv1"
  type: CONVOLUTION
  blobs_lr: 1
  blobs_lr: 2
  convolution_param {
    num_output: 96
    kernel_size: 5
    stride: 1
    weight_filler {
      type: "xavier"
    }
    bias_filler {
      type: "constant"
    }
  }
}
layers {
  bottom: "conv1"
  top: "pool1"
  name: "pool1"
  type: POOLING
  pooling_param {
    pool: MAX
    kernel_size: 2
    stride: 2
  }
}
layers {
  bottom: "pool1"
  top: "conv2"
  name: "conv2"
  type: CONVOLUTION
  blobs_lr: 1
  blobs_lr: 2
  convolution_param {
    num_output: 256
    kernel_size: 3
    stride: 1
    weight_filler {
      type: "xavier"
    }
    bias_filler {
      type: "constant"
    }
  }
}
layers {
  bottom: "conv2"
  top: "pool2"
  name: "pool2"
  type: POOLING
  pooling_param {
    pool: MAX
    kernel_size: 2
    stride: 2
  }
}
layers {
  bottom: "pool2"
  top: "conv3"
  name: "conv3"
  type: CONVOLUTION
  blobs_lr: 1
  blobs_lr: 2
  convolution_param {
    num_output: 64
    kernel_size: 3
    stride: 1
    weight_filler {
      type: "xavier"
    }
    bias_filler {
      type: "constant"
    }
  }
}
layers {
  bottom: "conv3"
  top: "ip1"
  name: "ip1"
  type: INNER_PRODUCT
  blobs_lr: 1
  blobs_lr: 2
  inner_product_param {
    num_output: 1024
    weight_filler {
      type: "xavier"
    }
    bias_filler {
      type: "constant"
    }
  }
}
layers {
  bottom: "ip1"
  top: "ip1"
  name: "relu1"
  type: RELU
}
layers {
  bottom: "ip1"
  top: "ip2"
  name: "ip2"
  type: INNER_PRODUCT
  blobs_lr: 1
  blobs_lr: 2
  inner_product_param {
    num_output: 1024
    weight_filler {
      type: "xavier"
    }
    bias_filler {
      type: "constant"
    }
  }
}
layers {
  bottom: "ip2"
  top: "ip2"
  name: "relu2"
  type: RELU
}
layers {
  bottom: "ip2"
  top: "ip3"
  name: "ip3"
  type: INNER_PRODUCT
  blobs_lr: 1
  blobs_lr: 2
  inner_product_param {
    num_output: 2
    weight_filler {
      type: "xavier"
    }
    bias_filler {
      type: "constant"
    }
  }
}
layers {
  bottom: "ip3"
  bottom: "label"
  top: "accuracy"
  name: "accuracy"
  type: ACCURACY
  include {
    phase: TEST
  }
}
layers {
  bottom: "ip3"
  bottom: "label"
  bottom: "sample_weight"
  top: "loss"
  name: "loss"
  type: SOFTMAX_LOSS
}
state {
  phase: TEST
}
I1224 22:04:24.448051 25819 net.cpp:67] Creating Layer data
I1224 22:04:24.448062 25819 net.cpp:356] data -> data
I1224 22:04:24.448072 25819 net.cpp:356] data -> label
I1224 22:04:24.448081 25819 net.cpp:356] data -> sample_weight
I1224 22:04:24.448091 25819 net.cpp:96] Setting up data
I1224 22:04:24.448096 25819 hdf5_data_layer.cpp:63] Loading filename from /share/project/shapes/caffe-weighted-samples/examples/singleNet/testFileList.txt
I1224 22:04:24.451709 25819 hdf5_data_layer.cpp:75] Number of files: 5
I1224 22:04:24.451720 25819 hdf5_data_layer.cpp:29] Loading HDF5 file/scratch/stephenchen/shapes/singleNet/hdf5/test_batch_35x35/testHDF_1_35x35.h5
I1224 22:04:35.479792 25819 hdf5_data_layer.cpp:55] Successully loaded 57015 rows
I1224 22:04:35.479820 25819 hdf5_data_layer.cpp:89] output data size: 10,4,35,35
I1224 22:04:35.479828 25819 net.cpp:103] Top shape: 10 4 35 35 (49000)
I1224 22:04:35.479835 25819 net.cpp:103] Top shape: 10 1 1 1 (10)
I1224 22:04:35.479840 25819 net.cpp:103] Top shape: 10 1 1 1 (10)
I1224 22:04:35.479853 25819 net.cpp:67] Creating Layer label_data_1_split
I1224 22:04:35.479861 25819 net.cpp:394] label_data_1_split <- label
I1224 22:04:35.479869 25819 net.cpp:356] label_data_1_split -> label_data_1_split_0
I1224 22:04:35.479882 25819 net.cpp:356] label_data_1_split -> label_data_1_split_1
I1224 22:04:35.479890 25819 net.cpp:96] Setting up label_data_1_split
I1224 22:04:35.479897 25819 net.cpp:103] Top shape: 10 1 1 1 (10)
I1224 22:04:35.479902 25819 net.cpp:103] Top shape: 10 1 1 1 (10)
I1224 22:04:35.479912 25819 net.cpp:67] Creating Layer conv1
I1224 22:04:35.479918 25819 net.cpp:394] conv1 <- data
I1224 22:04:35.479925 25819 net.cpp:356] conv1 -> conv1
I1224 22:04:35.479933 25819 net.cpp:96] Setting up conv1
I1224 22:04:35.480051 25819 net.cpp:103] Top shape: 10 96 31 31 (922560)
I1224 22:04:35.480068 25819 net.cpp:67] Creating Layer pool1
I1224 22:04:35.480074 25819 net.cpp:394] pool1 <- conv1
I1224 22:04:35.480082 25819 net.cpp:356] pool1 -> pool1
I1224 22:04:35.480089 25819 net.cpp:96] Setting up pool1
I1224 22:04:35.480098 25819 net.cpp:103] Top shape: 10 96 16 16 (245760)
I1224 22:04:35.480105 25819 net.cpp:67] Creating Layer conv2
I1224 22:04:35.480111 25819 net.cpp:394] conv2 <- pool1
I1224 22:04:35.480118 25819 net.cpp:356] conv2 -> conv2
I1224 22:04:35.480125 25819 net.cpp:96] Setting up conv2
I1224 22:04:35.482714 25819 net.cpp:103] Top shape: 10 256 14 14 (501760)
I1224 22:04:35.482733 25819 net.cpp:67] Creating Layer pool2
I1224 22:04:35.482738 25819 net.cpp:394] pool2 <- conv2
I1224 22:04:35.482746 25819 net.cpp:356] pool2 -> pool2
I1224 22:04:35.482755 25819 net.cpp:96] Setting up pool2
I1224 22:04:35.482763 25819 net.cpp:103] Top shape: 10 256 7 7 (125440)
I1224 22:04:35.482770 25819 net.cpp:67] Creating Layer conv3
I1224 22:04:35.482775 25819 net.cpp:394] conv3 <- pool2
I1224 22:04:35.482782 25819 net.cpp:356] conv3 -> conv3
I1224 22:04:35.482789 25819 net.cpp:96] Setting up conv3
I1224 22:04:35.484477 25819 net.cpp:103] Top shape: 10 64 5 5 (16000)
I1224 22:04:35.484496 25819 net.cpp:67] Creating Layer ip1
I1224 22:04:35.484503 25819 net.cpp:394] ip1 <- conv3
I1224 22:04:35.484509 25819 net.cpp:356] ip1 -> ip1
I1224 22:04:35.484519 25819 net.cpp:96] Setting up ip1
I1224 22:04:35.503437 25819 net.cpp:103] Top shape: 10 1024 1 1 (10240)
I1224 22:04:35.503469 25819 net.cpp:67] Creating Layer relu1
I1224 22:04:35.503476 25819 net.cpp:394] relu1 <- ip1
I1224 22:04:35.503485 25819 net.cpp:345] relu1 -> ip1 (in-place)
I1224 22:04:35.503494 25819 net.cpp:96] Setting up relu1
I1224 22:04:35.503499 25819 net.cpp:103] Top shape: 10 1024 1 1 (10240)
I1224 22:04:35.503506 25819 net.cpp:67] Creating Layer ip2
I1224 22:04:35.503511 25819 net.cpp:394] ip2 <- ip1
I1224 22:04:35.503518 25819 net.cpp:356] ip2 -> ip2
I1224 22:04:35.503527 25819 net.cpp:96] Setting up ip2
I1224 22:04:35.515913 25819 net.cpp:103] Top shape: 10 1024 1 1 (10240)
I1224 22:04:35.515946 25819 net.cpp:67] Creating Layer relu2
I1224 22:04:35.515954 25819 net.cpp:394] relu2 <- ip2
I1224 22:04:35.515961 25819 net.cpp:345] relu2 -> ip2 (in-place)
I1224 22:04:35.515970 25819 net.cpp:96] Setting up relu2
I1224 22:04:35.515975 25819 net.cpp:103] Top shape: 10 1024 1 1 (10240)
I1224 22:04:35.515983 25819 net.cpp:67] Creating Layer ip3
I1224 22:04:35.515988 25819 net.cpp:394] ip3 <- ip2
I1224 22:04:35.515995 25819 net.cpp:356] ip3 -> ip3
I1224 22:04:35.516010 25819 net.cpp:96] Setting up ip3
I1224 22:04:35.516041 25819 net.cpp:103] Top shape: 10 2 1 1 (20)
I1224 22:04:35.516051 25819 net.cpp:67] Creating Layer ip3_ip3_0_split
I1224 22:04:35.516055 25819 net.cpp:394] ip3_ip3_0_split <- ip3
I1224 22:04:35.516062 25819 net.cpp:356] ip3_ip3_0_split -> ip3_ip3_0_split_0
I1224 22:04:35.516070 25819 net.cpp:356] ip3_ip3_0_split -> ip3_ip3_0_split_1
I1224 22:04:35.516078 25819 net.cpp:96] Setting up ip3_ip3_0_split
I1224 22:04:35.516083 25819 net.cpp:103] Top shape: 10 2 1 1 (20)
I1224 22:04:35.516088 25819 net.cpp:103] Top shape: 10 2 1 1 (20)
I1224 22:04:35.516096 25819 net.cpp:67] Creating Layer accuracy
I1224 22:04:35.516101 25819 net.cpp:394] accuracy <- ip3_ip3_0_split_0
I1224 22:04:35.516108 25819 net.cpp:394] accuracy <- label_data_1_split_0
I1224 22:04:35.516114 25819 net.cpp:356] accuracy -> accuracy
I1224 22:04:35.516121 25819 net.cpp:96] Setting up accuracy
I1224 22:04:35.516127 25819 net.cpp:103] Top shape: 1 1 1 1 (1)
I1224 22:04:35.516136 25819 net.cpp:67] Creating Layer loss
I1224 22:04:35.516141 25819 net.cpp:394] loss <- ip3_ip3_0_split_1
I1224 22:04:35.516147 25819 net.cpp:394] loss <- label_data_1_split_1
I1224 22:04:35.516154 25819 net.cpp:394] loss <- sample_weight
I1224 22:04:35.516160 25819 net.cpp:356] loss -> loss
I1224 22:04:35.516170 25819 net.cpp:96] Setting up loss
I1224 22:04:35.516178 25819 net.cpp:103] Top shape: 1 1 1 1 (1)
I1224 22:04:35.516183 25819 net.cpp:109]     with loss weight 1
I1224 22:04:35.516197 25819 net.cpp:170] loss needs backward computation.
I1224 22:04:35.516203 25819 net.cpp:172] accuracy does not need backward computation.
I1224 22:04:35.516208 25819 net.cpp:170] ip3_ip3_0_split needs backward computation.
I1224 22:04:35.516213 25819 net.cpp:170] ip3 needs backward computation.
I1224 22:04:35.516218 25819 net.cpp:170] relu2 needs backward computation.
…
