…
I0222 18:10:48.499478 31358 net.cpp:275] The NetState phase (0) differed from the phase (1) specified by a rule in layer data
I0222 18:10:48.499500 31358 net.cpp:275] The NetState phase (0) differed from the phase (1) specified by a rule in layer accuracy
I0222 18:10:48.499650 31358 net.cpp:39] Initializing net from parameters: 
name: "LogisticRegressionNet"
layers {
  top: "data"
  top: "label"
  top: "sample_weight"
  name: "data"
  type: HDF5_DATA
  hdf5_data_param {
    source: "/share/project/shapes/caffe-weighted-samples/examples/singleNet/trainFileList.txt"
    batch_size: 100
  }
  include {
    phase: TRAIN
  }
}
layers {
  bottom: "data"
  top: "conv1"
  name: "conv1"
  type: CONVOLUTION
  blobs_lr: 1
  blobs_lr: 2
  convolution_param {
    num_output: 96
    kernel_size: 4
    stride: 1
    weight_filler {
      type: "xavier"
    }
    bias_filler {
      type: "constant"
    }
  }
}
layers {
  bottom: "conv1"
  top: "conv1"
  name: "relu_conv1"
  type: RELU
}
layers {
  bottom: "conv1"
  top: "pool1"
  name: "pool1"
  type: POOLING
  pooling_param {
    pool: MAX
    kernel_size: 2
    stride: 2
  }
}
layers {
  bottom: "pool1"
  top: "conv2"
  name: "conv2"
  type: CONVOLUTION
  blobs_lr: 1
  blobs_lr: 2
  convolution_param {
    num_output: 256
    kernel_size: 3
    stride: 1
    weight_filler {
      type: "xavier"
    }
    bias_filler {
      type: "constant"
    }
  }
}
layers {
  bottom: "conv2"
  top: "conv2"
  name: "relu_conv2"
  type: RELU
}
layers {
  bottom: "conv2"
  top: "pool2"
  name: "pool2"
  type: POOLING
  pooling_param {
    pool: MAX
    kernel_size: 2
    stride: 2
  }
}
layers {
  bottom: "pool2"
  top: "conv3"
  name: "conv3"
  type: CONVOLUTION
  blobs_lr: 1
  blobs_lr: 2
  convolution_param {
    num_output: 64
    kernel_size: 4
    stride: 1
    weight_filler {
      type: "xavier"
    }
    bias_filler {
      type: "constant"
    }
  }
}
layers {
  bottom: "conv3"
  top: "conv3"
  name: "relu_conv3"
  type: RELU
}
layers {
  bottom: "conv3"
  top: "ip1"
  name: "ip1"
  type: INNER_PRODUCT
  blobs_lr: 1
  blobs_lr: 2
  inner_product_param {
    num_output: 256
    weight_filler {
      type: "xavier"
    }
    bias_filler {
      type: "constant"
    }
  }
}
layers {
  bottom: "ip1"
  top: "ip1"
  name: "relu1"
  type: RELU
}
layers {
  bottom: "ip1"
  top: "ip2"
  name: "ip2"
  type: INNER_PRODUCT
  blobs_lr: 1
  blobs_lr: 2
  inner_product_param {
    num_output: 256
    weight_filler {
      type: "xavier"
    }
    bias_filler {
      type: "constant"
    }
  }
}
layers {
  bottom: "ip2"
  top: "ip2"
  name: "relu2"
  type: RELU
}
layers {
  bottom: "ip2"
  top: "ip3"
  name: "ip3"
  type: INNER_PRODUCT
  blobs_lr: 1
  blobs_lr: 2
  inner_product_param {
    num_output: 2
    weight_filler {
      type: "xavier"
    }
    bias_filler {
      type: "constant"
    }
  }
}
layers {
  bottom: "ip3"
  bottom: "label"
  bottom: "sample_weight"
  top: "loss"
  name: "loss"
  type: SOFTMAX_LOSS
}
state {
  phase: TRAIN
}
I0222 18:10:48.499814 31358 net.cpp:67] Creating Layer data
I0222 18:10:48.499825 31358 net.cpp:356] data -> data
I0222 18:10:48.499869 31358 net.cpp:356] data -> label
I0222 18:10:48.499891 31358 net.cpp:356] data -> sample_weight
I0222 18:10:48.499898 31358 net.cpp:96] Setting up data
I0222 18:10:48.499907 31358 hdf5_data_layer.cpp:63] Loading filename from /share/project/shapes/caffe-weighted-samples/examples/singleNet/trainFileList.txt
I0222 18:10:48.515926 31358 hdf5_data_layer.cpp:75] Number of files: 15
I0222 18:10:48.515945 31358 hdf5_data_layer.cpp:29] Loading HDF5 file/scratch/stephenchen/shapes/singleNet/hdf5/train_batch_35x35/trainHDF_1_35x35.h5
I0222 18:11:39.672607 31358 hdf5_data_layer.cpp:55] Successully loaded 220600 rows
I0222 18:11:39.835866 31358 hdf5_data_layer.cpp:89] output data size: 100,4,35,35
I0222 18:11:39.835942 31358 net.cpp:103] Top shape: 100 4 35 35 (490000)
I0222 18:11:39.835952 31358 net.cpp:103] Top shape: 100 1 1 1 (100)
I0222 18:11:39.835957 31358 net.cpp:103] Top shape: 100 1 1 1 (100)
I0222 18:11:39.835979 31358 net.cpp:67] Creating Layer conv1
I0222 18:11:39.835988 31358 net.cpp:394] conv1 <- data
I0222 18:11:39.836012 31358 net.cpp:356] conv1 -> conv1
I0222 18:11:39.836027 31358 net.cpp:96] Setting up conv1
I0222 18:11:39.836707 31358 net.cpp:103] Top shape: 100 96 32 32 (9830400)
I0222 18:11:39.836777 31358 net.cpp:67] Creating Layer relu_conv1
I0222 18:11:39.836786 31358 net.cpp:394] relu_conv1 <- conv1
I0222 18:11:39.836792 31358 net.cpp:345] relu_conv1 -> conv1 (in-place)
I0222 18:11:39.836799 31358 net.cpp:96] Setting up relu_conv1
I0222 18:11:39.836817 31358 net.cpp:103] Top shape: 100 96 32 32 (9830400)
I0222 18:11:39.836827 31358 net.cpp:67] Creating Layer pool1
I0222 18:11:39.836832 31358 net.cpp:394] pool1 <- conv1
I0222 18:11:39.836838 31358 net.cpp:356] pool1 -> pool1
I0222 18:11:39.836846 31358 net.cpp:96] Setting up pool1
I0222 18:11:39.836869 31358 net.cpp:103] Top shape: 100 96 16 16 (2457600)
I0222 18:11:39.836879 31358 net.cpp:67] Creating Layer conv2
I0222 18:11:39.836884 31358 net.cpp:394] conv2 <- pool1
I0222 18:11:39.836891 31358 net.cpp:356] conv2 -> conv2
I0222 18:11:39.836899 31358 net.cpp:96] Setting up conv2
I0222 18:11:39.839488 31358 net.cpp:103] Top shape: 100 256 14 14 (5017600)
I0222 18:11:39.839504 31358 net.cpp:67] Creating Layer relu_conv2
I0222 18:11:39.839510 31358 net.cpp:394] relu_conv2 <- conv2
I0222 18:11:39.839517 31358 net.cpp:345] relu_conv2 -> conv2 (in-place)
I0222 18:11:39.839524 31358 net.cpp:96] Setting up relu_conv2
I0222 18:11:39.839529 31358 net.cpp:103] Top shape: 100 256 14 14 (5017600)
I0222 18:11:39.839535 31358 net.cpp:67] Creating Layer pool2
I0222 18:11:39.839540 31358 net.cpp:394] pool2 <- conv2
I0222 18:11:39.839546 31358 net.cpp:356] pool2 -> pool2
I0222 18:11:39.839553 31358 net.cpp:96] Setting up pool2
I0222 18:11:39.839560 31358 net.cpp:103] Top shape: 100 256 7 7 (1254400)
I0222 18:11:39.839567 31358 net.cpp:67] Creating Layer conv3
I0222 18:11:39.839572 31358 net.cpp:394] conv3 <- pool2
I0222 18:11:39.839578 31358 net.cpp:356] conv3 -> conv3
I0222 18:11:39.839586 31358 net.cpp:96] Setting up conv3
I0222 18:11:39.842622 31358 net.cpp:103] Top shape: 100 64 4 4 (102400)
I0222 18:11:39.842639 31358 net.cpp:67] Creating Layer relu_conv3
I0222 18:11:39.842645 31358 net.cpp:394] relu_conv3 <- conv3
I0222 18:11:39.842653 31358 net.cpp:345] relu_conv3 -> conv3 (in-place)
I0222 18:11:39.842659 31358 net.cpp:96] Setting up relu_conv3
I0222 18:11:39.842664 31358 net.cpp:103] Top shape: 100 64 4 4 (102400)
I0222 18:11:39.842671 31358 net.cpp:67] Creating Layer ip1
I0222 18:11:39.842676 31358 net.cpp:394] ip1 <- conv3
I0222 18:11:39.842684 31358 net.cpp:356] ip1 -> ip1
I0222 18:11:39.842691 31358 net.cpp:96] Setting up ip1
I0222 18:11:39.845672 31358 net.cpp:103] Top shape: 100 256 1 1 (25600)
I0222 18:11:39.845688 31358 net.cpp:67] Creating Layer relu1
I0222 18:11:39.845695 31358 net.cpp:394] relu1 <- ip1
I0222 18:11:39.845701 31358 net.cpp:345] relu1 -> ip1 (in-place)
I0222 18:11:39.845708 31358 net.cpp:96] Setting up relu1
I0222 18:11:39.845712 31358 net.cpp:103] Top shape: 100 256 1 1 (25600)
I0222 18:11:39.845720 31358 net.cpp:67] Creating Layer ip2
I0222 18:11:39.845724 31358 net.cpp:394] ip2 <- ip1
I0222 18:11:39.845731 31358 net.cpp:356] ip2 -> ip2
I0222 18:11:39.845738 31358 net.cpp:96] Setting up ip2
I0222 18:11:39.846436 31358 net.cpp:103] Top shape: 100 256 1 1 (25600)
I0222 18:11:39.846451 31358 net.cpp:67] Creating Layer relu2
I0222 18:11:39.846457 31358 net.cpp:394] relu2 <- ip2
I0222 18:11:39.846463 31358 net.cpp:345] relu2 -> ip2 (in-place)
I0222 18:11:39.846470 31358 net.cpp:96] Setting up relu2
I0222 18:11:39.846474 31358 net.cpp:103] Top shape: 100 256 1 1 (25600)
I0222 18:11:39.846482 31358 net.cpp:67] Creating Layer ip3
I0222 18:11:39.846487 31358 net.cpp:394] ip3 <- ip2
I0222 18:11:39.846493 31358 net.cpp:356] ip3 -> ip3
I0222 18:11:39.846500 31358 net.cpp:96] Setting up ip3
I0222 18:11:39.846514 31358 net.cpp:103] Top shape: 100 2 1 1 (200)
I0222 18:11:39.846528 31358 net.cpp:67] Creating Layer loss
I0222 18:11:39.846534 31358 net.cpp:394] loss <- ip3
I0222 18:11:39.846539 31358 net.cpp:394] loss <- label
I0222 18:11:39.846544 31358 net.cpp:394] loss <- sample_weight
I0222 18:11:39.846551 31358 net.cpp:356] loss -> loss
I0222 18:11:39.846559 31358 net.cpp:96] Setting up loss
I0222 18:11:39.846570 31358 net.cpp:103] Top shape: 1 1 1 1 (1)
I0222 18:11:39.846575 31358 net.cpp:109]     with loss weight 1
I0222 18:11:39.888486 31358 net.cpp:170] loss needs backward computation.
I0222 18:11:39.888499 31358 net.cpp:170] ip3 needs backward computation.
I0222 18:11:39.888507 31358 net.cpp:170] relu2 needs backward computation.
I0222 18:11:39.888511 31358 net.cpp:170] ip2 needs backward computation.
I0222 18:11:39.888516 31358 net.cpp:170] relu1 needs backward computation.
…
I0222 18:11:39.892407 31358 solver.cpp:151] Creating test net (#0) specified by net file: examples/singleNet/train_val_v0.3.prototxt
I0222 18:11:39.892441 31358 net.cpp:275] The NetState phase (1) differed from the phase (0) specified by a rule in layer data
I0222 18:11:39.893415 31358 net.cpp:39] Initializing net from parameters: 
name: "LogisticRegressionNet"
layers {
  top: "data"
  top: "label"
  top: "sample_weight"
  name: "data"
  type: HDF5_DATA
  hdf5_data_param {
    source: "/share/project/shapes/caffe-weighted-samples/examples/singleNet/testFileList.txt"
    batch_size: 10
  }
  include {
    phase: TEST
  }
}
layers {
  bottom: "data"
  top: "conv1"
  name: "conv1"
  type: CONVOLUTION
  blobs_lr: 1
  blobs_lr: 2
  convolution_param {
    num_output: 96
    kernel_size: 4
    stride: 1
    weight_filler {
      type: "xavier"
    }
    bias_filler {
      type: "constant"
    }
  }
}
layers {
  bottom: "conv1"
  top: "conv1"
  name: "relu_conv1"
  type: RELU
}
layers {
  bottom: "conv1"
  top: "pool1"
  name: "pool1"
  type: POOLING
  pooling_param {
    pool: MAX
    kernel_size: 2
    stride: 2
  }
}
layers {
  bottom: "pool1"
  top: "conv2"
  name: "conv2"
  type: CONVOLUTION
  blobs_lr: 1
  blobs_lr: 2
  convolution_param {
    num_output: 256
    kernel_size: 3
    stride: 1
    weight_filler {
      type: "xavier"
    }
    bias_filler {
      type: "constant"
    }
  }
}
layers {
  bottom: "conv2"
  top: "conv2"
  name: "relu_conv2"
  type: RELU
}
layers {
  bottom: "conv2"
  top: "pool2"
  name: "pool2"
  type: POOLING
  pooling_param {
    pool: MAX
    kernel_size: 2
    stride: 2
  }
}
layers {
  bottom: "pool2"
  top: "conv3"
  name: "conv3"
  type: CONVOLUTION
  blobs_lr: 1
  blobs_lr: 2
  convolution_param {
    num_output: 64
    kernel_size: 4
    stride: 1
    weight_filler {
      type: "xavier"
    }
    bias_filler {
      type: "constant"
    }
  }
}
layers {
  bottom: "conv3"
  top: "conv3"
  name: "relu_conv3"
  type: RELU
}
layers {
  bottom: "conv3"
  top: "ip1"
  name: "ip1"
  type: INNER_PRODUCT
  blobs_lr: 1
  blobs_lr: 2
  inner_product_param {
    num_output: 256
    weight_filler {
      type: "xavier"
    }
    bias_filler {
      type: "constant"
    }
  }
}
layers {
  bottom: "ip1"
  top: "ip1"
  name: "relu1"
  type: RELU
}
layers {
  bottom: "ip1"
  top: "ip2"
  name: "ip2"
  type: INNER_PRODUCT
  blobs_lr: 1
  blobs_lr: 2
  inner_product_param {
    num_output: 256
    weight_filler {
      type: "xavier"
    }
    bias_filler {
      type: "constant"
    }
  }
}
layers {
  bottom: "ip2"
  top: "ip2"
  name: "relu2"
  type: RELU
}
layers {
  bottom: "ip2"
  top: "ip3"
  name: "ip3"
  type: INNER_PRODUCT
  blobs_lr: 1
  blobs_lr: 2
  inner_product_param {
    num_output: 2
    weight_filler {
      type: "xavier"
    }
    bias_filler {
      type: "constant"
    }
  }
}
layers {
  bottom: "ip3"
  bottom: "label"
  top: "accuracy"
  name: "accuracy"
  type: ACCURACY
  include {
    phase: TEST
  }
}
layers {
  bottom: "ip3"
  bottom: "label"
  bottom: "sample_weight"
  top: "loss"
  name: "loss"
  type: SOFTMAX_LOSS
}
state {
  phase: TEST
}
I0222 18:11:39.893615 31358 net.cpp:67] Creating Layer data
I0222 18:11:39.893625 31358 net.cpp:356] data -> data
I0222 18:11:39.893635 31358 net.cpp:356] data -> label
I0222 18:11:39.893642 31358 net.cpp:356] data -> sample_weight
I0222 18:11:39.893651 31358 net.cpp:96] Setting up data
I0222 18:11:39.893656 31358 hdf5_data_layer.cpp:63] Loading filename from /share/project/shapes/caffe-weighted-samples/examples/singleNet/testFileList.txt
I0222 18:11:39.909706 31358 hdf5_data_layer.cpp:75] Number of files: 1
I0222 18:11:39.909720 31358 hdf5_data_layer.cpp:29] Loading HDF5 file/scratch/stephenchen/shapes/singleNet/hdf5/test_batch_35x35/testHDF_1_35x35.h5
I0222 18:11:53.420236 31358 hdf5_data_layer.cpp:55] Successully loaded 59000 rows
I0222 18:11:53.420264 31358 hdf5_data_layer.cpp:89] output data size: 10,4,35,35
I0222 18:11:53.420271 31358 net.cpp:103] Top shape: 10 4 35 35 (49000)
I0222 18:11:53.420277 31358 net.cpp:103] Top shape: 10 1 1 1 (10)
I0222 18:11:53.420282 31358 net.cpp:103] Top shape: 10 1 1 1 (10)
I0222 18:11:53.420296 31358 net.cpp:67] Creating Layer label_data_1_split
I0222 18:11:53.420302 31358 net.cpp:394] label_data_1_split <- label
I0222 18:11:53.420310 31358 net.cpp:356] label_data_1_split -> label_data_1_split_0
I0222 18:11:53.420322 31358 net.cpp:356] label_data_1_split -> label_data_1_split_1
I0222 18:11:53.420331 31358 net.cpp:96] Setting up label_data_1_split
I0222 18:11:53.420336 31358 net.cpp:103] Top shape: 10 1 1 1 (10)
I0222 18:11:53.420342 31358 net.cpp:103] Top shape: 10 1 1 1 (10)
I0222 18:11:53.420351 31358 net.cpp:67] Creating Layer conv1
I0222 18:11:53.420357 31358 net.cpp:394] conv1 <- data
I0222 18:11:53.420364 31358 net.cpp:356] conv1 -> conv1
I0222 18:11:53.420372 31358 net.cpp:96] Setting up conv1
I0222 18:11:53.420452 31358 net.cpp:103] Top shape: 10 96 32 32 (983040)
I0222 18:11:53.420469 31358 net.cpp:67] Creating Layer relu_conv1
I0222 18:11:53.420474 31358 net.cpp:394] relu_conv1 <- conv1
I0222 18:11:53.420480 31358 net.cpp:345] relu_conv1 -> conv1 (in-place)
I0222 18:11:53.420487 31358 net.cpp:96] Setting up relu_conv1
I0222 18:11:53.420492 31358 net.cpp:103] Top shape: 10 96 32 32 (983040)
I0222 18:11:53.420500 31358 net.cpp:67] Creating Layer pool1
I0222 18:11:53.420506 31358 net.cpp:394] pool1 <- conv1
I0222 18:11:53.420512 31358 net.cpp:356] pool1 -> pool1
I0222 18:11:53.420519 31358 net.cpp:96] Setting up pool1
I0222 18:11:53.420526 31358 net.cpp:103] Top shape: 10 96 16 16 (245760)
I0222 18:11:53.420533 31358 net.cpp:67] Creating Layer conv2
I0222 18:11:53.420538 31358 net.cpp:394] conv2 <- pool1
I0222 18:11:53.420545 31358 net.cpp:356] conv2 -> conv2
I0222 18:11:53.420552 31358 net.cpp:96] Setting up conv2
I0222 18:11:53.423154 31358 net.cpp:103] Top shape: 10 256 14 14 (501760)
I0222 18:11:53.423171 31358 net.cpp:67] Creating Layer relu_conv2
I0222 18:11:53.423177 31358 net.cpp:394] relu_conv2 <- conv2
I0222 18:11:53.423183 31358 net.cpp:345] relu_conv2 -> conv2 (in-place)
I0222 18:11:53.423194 31358 net.cpp:96] Setting up relu_conv2
I0222 18:11:53.423199 31358 net.cpp:103] Top shape: 10 256 14 14 (501760)
I0222 18:11:53.423207 31358 net.cpp:67] Creating Layer pool2
I0222 18:11:53.423210 31358 net.cpp:394] pool2 <- conv2
I0222 18:11:53.423218 31358 net.cpp:356] pool2 -> pool2
I0222 18:11:53.423224 31358 net.cpp:96] Setting up pool2
I0222 18:11:53.423231 31358 net.cpp:103] Top shape: 10 256 7 7 (125440)
I0222 18:11:53.423240 31358 net.cpp:67] Creating Layer conv3
I0222 18:11:53.423245 31358 net.cpp:394] conv3 <- pool2
I0222 18:11:53.423252 31358 net.cpp:356] conv3 -> conv3
I0222 18:11:53.423259 31358 net.cpp:96] Setting up conv3
I0222 18:11:53.426262 31358 net.cpp:103] Top shape: 10 64 4 4 (10240)
I0222 18:11:53.426280 31358 net.cpp:67] Creating Layer relu_conv3
I0222 18:11:53.426285 31358 net.cpp:394] relu_conv3 <- conv3
I0222 18:11:53.426292 31358 net.cpp:345] relu_conv3 -> conv3 (in-place)
I0222 18:11:53.426300 31358 net.cpp:96] Setting up relu_conv3
I0222 18:11:53.426304 31358 net.cpp:103] Top shape: 10 64 4 4 (10240)
I0222 18:11:53.426311 31358 net.cpp:67] Creating Layer ip1
I0222 18:11:53.426316 31358 net.cpp:394] ip1 <- conv3
I0222 18:11:53.426323 31358 net.cpp:356] ip1 -> ip1
I0222 18:11:53.426331 31358 net.cpp:96] Setting up ip1
I0222 18:11:53.429327 31358 net.cpp:103] Top shape: 10 256 1 1 (2560)
I0222 18:11:53.429344 31358 net.cpp:67] Creating Layer relu1
I0222 18:11:53.429350 31358 net.cpp:394] relu1 <- ip1
I0222 18:11:53.429358 31358 net.cpp:345] relu1 -> ip1 (in-place)
I0222 18:11:53.429363 31358 net.cpp:96] Setting up relu1
I0222 18:11:53.429368 31358 net.cpp:103] Top shape: 10 256 1 1 (2560)
I0222 18:11:53.429375 31358 net.cpp:67] Creating Layer ip2
I0222 18:11:53.429380 31358 net.cpp:394] ip2 <- ip1
I0222 18:11:53.429388 31358 net.cpp:356] ip2 -> ip2
I0222 18:11:53.429394 31358 net.cpp:96] Setting up ip2
I0222 18:11:53.430084 31358 net.cpp:103] Top shape: 10 256 1 1 (2560)
I0222 18:11:53.430101 31358 net.cpp:67] Creating Layer relu2
I0222 18:11:53.430106 31358 net.cpp:394] relu2 <- ip2
I0222 18:11:53.430114 31358 net.cpp:345] relu2 -> ip2 (in-place)
I0222 18:11:53.430120 31358 net.cpp:96] Setting up relu2
I0222 18:11:53.430124 31358 net.cpp:103] Top shape: 10 256 1 1 (2560)
I0222 18:11:53.430132 31358 net.cpp:67] Creating Layer ip3
I0222 18:11:53.430136 31358 net.cpp:394] ip3 <- ip2
I0222 18:11:53.430143 31358 net.cpp:356] ip3 -> ip3
I0222 18:11:53.430150 31358 net.cpp:96] Setting up ip3
I0222 18:11:53.430166 31358 net.cpp:103] Top shape: 10 2 1 1 (20)
I0222 18:11:53.430174 31358 net.cpp:67] Creating Layer ip3_ip3_0_split
I0222 18:11:53.430179 31358 net.cpp:394] ip3_ip3_0_split <- ip3
I0222 18:11:53.430186 31358 net.cpp:356] ip3_ip3_0_split -> ip3_ip3_0_split_0
I0222 18:11:53.430193 31358 net.cpp:356] ip3_ip3_0_split -> ip3_ip3_0_split_1
I0222 18:11:53.430201 31358 net.cpp:96] Setting up ip3_ip3_0_split
I0222 18:11:53.430207 31358 net.cpp:103] Top shape: 10 2 1 1 (20)
I0222 18:11:53.430212 31358 net.cpp:103] Top shape: 10 2 1 1 (20)
I0222 18:11:53.430219 31358 net.cpp:67] Creating Layer accuracy
I0222 18:11:53.430224 31358 net.cpp:394] accuracy <- ip3_ip3_0_split_0
I0222 18:11:53.430230 31358 net.cpp:394] accuracy <- label_data_1_split_0
I0222 18:11:53.430236 31358 net.cpp:356] accuracy -> accuracy
I0222 18:11:53.430244 31358 net.cpp:96] Setting up accuracy
I0222 18:11:53.430249 31358 net.cpp:103] Top shape: 1 1 1 1 (1)
I0222 18:11:53.430258 31358 net.cpp:67] Creating Layer loss
I0222 18:11:53.430263 31358 net.cpp:394] loss <- ip3_ip3_0_split_1
I0222 18:11:53.430268 31358 net.cpp:394] loss <- label_data_1_split_1
I0222 18:11:53.430274 31358 net.cpp:394] loss <- sample_weight
I0222 18:11:53.430279 31358 net.cpp:356] loss -> loss
I0222 18:11:53.430287 31358 net.cpp:96] Setting up loss
I0222 18:11:53.430296 31358 net.cpp:103] Top shape: 1 1 1 1 (1)
I0222 18:11:53.430301 31358 net.cpp:109]     with loss weight 1
I0222 18:11:53.430313 31358 net.cpp:170] loss needs backward computation.
I0222 18:11:53.430320 31358 net.cpp:172] accuracy does not need backward computation.
I0222 18:11:53.430327 31358 net.cpp:170] ip3_ip3_0_split needs backward computation.
I0222 18:11:53.430332 31358 net.cpp:170] ip3 needs backward computation.
I0222 18:11:53.430337 31358 net.cpp:170] relu2 needs backward computation.
…
