…
I0224 21:53:41.654789  8798 net.cpp:275] The NetState phase (0) differed from the phase (1) specified by a rule in layer data
I0224 21:53:41.654810  8798 net.cpp:275] The NetState phase (0) differed from the phase (1) specified by a rule in layer accuracy
I0224 21:53:41.654968  8798 net.cpp:39] Initializing net from parameters: 
name: "LogisticRegressionNet"
layers {
  top: "data"
  top: "label"
  top: "sample_weight"
  name: "data"
  type: HDF5_DATA
  hdf5_data_param {
    source: "/share/project/shapes/caffe-weighted-samples/examples/singleNet/trainFileList.txt"
    batch_size: 100
  }
  include {
    phase: TRAIN
  }
}
layers {
  bottom: "data"
  top: "conv1"
  name: "conv1"
  type: CONVOLUTION
  blobs_lr: 1
  blobs_lr: 2
  convolution_param {
    num_output: 96
    kernel_size: 4
    stride: 1
    weight_filler {
      type: "xavier"
    }
    bias_filler {
      type: "constant"
    }
  }
}
layers {
  bottom: "conv1"
  top: "conv1"
  name: "relu_conv1"
  type: RELU
}
layers {
  bottom: "conv1"
  top: "pool1"
  name: "pool1"
  type: POOLING
  pooling_param {
    pool: MAX
    kernel_size: 2
    stride: 2
  }
}
layers {
  bottom: "pool1"
  top: "conv2"
  name: "conv2"
  type: CONVOLUTION
  blobs_lr: 1
  blobs_lr: 2
  convolution_param {
    num_output: 256
    kernel_size: 3
    stride: 1
    weight_filler {
      type: "xavier"
    }
    bias_filler {
      type: "constant"
    }
  }
}
layers {
  bottom: "conv2"
  top: "conv2"
  name: "relu_conv2"
  type: RELU
}
layers {
  bottom: "conv2"
  top: "pool2"
  name: "pool2"
  type: POOLING
  pooling_param {
    pool: MAX
    kernel_size: 2
    stride: 2
  }
}
layers {
  bottom: "pool2"
  top: "conv3"
  name: "conv3"
  type: CONVOLUTION
  blobs_lr: 1
  blobs_lr: 2
  convolution_param {
    num_output: 64
    kernel_size: 4
    stride: 1
    weight_filler {
      type: "xavier"
    }
    bias_filler {
      type: "constant"
    }
  }
}
layers {
  bottom: "conv3"
  top: "conv3"
  name: "relu_conv3"
  type: RELU
}
layers {
  bottom: "conv3"
  top: "ip1"
  name: "ip1"
  type: INNER_PRODUCT
  blobs_lr: 1
  blobs_lr: 2
  inner_product_param {
    num_output: 256
    weight_filler {
      type: "xavier"
    }
    bias_filler {
      type: "constant"
    }
  }
}
layers {
  bottom: "ip1"
  top: "ip1"
  name: "relu1"
  type: RELU
}
layers {
  bottom: "ip1"
  top: "ip2"
  name: "ip2"
  type: INNER_PRODUCT
  blobs_lr: 1
  blobs_lr: 2
  inner_product_param {
    num_output: 256
    weight_filler {
      type: "xavier"
    }
    bias_filler {
      type: "constant"
    }
  }
}
layers {
  bottom: "ip2"
  top: "ip2"
  name: "relu2"
  type: RELU
}
layers {
  bottom: "ip2"
  top: "ip3"
  name: "ip3"
  type: INNER_PRODUCT
  blobs_lr: 1
  blobs_lr: 2
  inner_product_param {
    num_output: 2
    weight_filler {
      type: "xavier"
    }
    bias_filler {
      type: "constant"
    }
  }
}
layers {
  bottom: "ip3"
  bottom: "label"
  bottom: "sample_weight"
  top: "loss"
  name: "loss"
  type: SOFTMAX_LOSS
}
state {
  phase: TRAIN
}
I0224 21:53:41.655131  8798 net.cpp:67] Creating Layer data
I0224 21:53:41.655143  8798 net.cpp:356] data -> data
I0224 21:53:41.655169  8798 net.cpp:356] data -> label
I0224 21:53:41.655187  8798 net.cpp:356] data -> sample_weight
I0224 21:53:41.655196  8798 net.cpp:96] Setting up data
I0224 21:53:41.655205  8798 hdf5_data_layer.cpp:63] Loading filename from /share/project/shapes/caffe-weighted-samples/examples/singleNet/trainFileList.txt
I0224 21:53:41.672358  8798 hdf5_data_layer.cpp:75] Number of files: 3
I0224 21:53:41.672387  8798 hdf5_data_layer.cpp:29] Loading HDF5 file/scratch/stephenchen/shapes/singleNet/hdf5/train_batch_35x35/trainHDF_1_35x35.h5
I0224 21:54:19.866747  8798 hdf5_data_layer.cpp:55] Successully loaded 196600 rows
I0224 21:54:19.883054  8798 hdf5_data_layer.cpp:89] output data size: 100,4,35,35
I0224 21:54:19.951746  8798 net.cpp:103] Top shape: 100 4 35 35 (490000)
I0224 21:54:19.951774  8798 net.cpp:103] Top shape: 100 1 1 1 (100)
I0224 21:54:19.951781  8798 net.cpp:103] Top shape: 100 1 1 1 (100)
I0224 21:54:19.951828  8798 net.cpp:67] Creating Layer conv1
I0224 21:54:19.951839  8798 net.cpp:394] conv1 <- data
I0224 21:54:19.951872  8798 net.cpp:356] conv1 -> conv1
I0224 21:54:20.142115  8798 net.cpp:96] Setting up conv1
I0224 21:54:20.143002  8798 net.cpp:103] Top shape: 100 96 32 32 (9830400)
I0224 21:54:20.144178  8798 net.cpp:67] Creating Layer relu_conv1
I0224 21:54:20.144191  8798 net.cpp:394] relu_conv1 <- conv1
I0224 21:54:20.144201  8798 net.cpp:345] relu_conv1 -> conv1 (in-place)
I0224 21:54:20.144209  8798 net.cpp:96] Setting up relu_conv1
I0224 21:54:20.144215  8798 net.cpp:103] Top shape: 100 96 32 32 (9830400)
I0224 21:54:20.144223  8798 net.cpp:67] Creating Layer pool1
I0224 21:54:20.144228  8798 net.cpp:394] pool1 <- conv1
I0224 21:54:20.144235  8798 net.cpp:356] pool1 -> pool1
I0224 21:54:20.144244  8798 net.cpp:96] Setting up pool1
I0224 21:54:20.144268  8798 net.cpp:103] Top shape: 100 96 16 16 (2457600)
I0224 21:54:20.144279  8798 net.cpp:67] Creating Layer conv2
I0224 21:54:20.144284  8798 net.cpp:394] conv2 <- pool1
I0224 21:54:20.144290  8798 net.cpp:356] conv2 -> conv2
I0224 21:54:20.144299  8798 net.cpp:96] Setting up conv2
I0224 21:54:20.146890  8798 net.cpp:103] Top shape: 100 256 14 14 (5017600)
I0224 21:54:20.146908  8798 net.cpp:67] Creating Layer relu_conv2
I0224 21:54:20.146914  8798 net.cpp:394] relu_conv2 <- conv2
I0224 21:54:20.146921  8798 net.cpp:345] relu_conv2 -> conv2 (in-place)
I0224 21:54:20.146929  8798 net.cpp:96] Setting up relu_conv2
I0224 21:54:20.146934  8798 net.cpp:103] Top shape: 100 256 14 14 (5017600)
I0224 21:54:20.146940  8798 net.cpp:67] Creating Layer pool2
I0224 21:54:20.146945  8798 net.cpp:394] pool2 <- conv2
I0224 21:54:20.146951  8798 net.cpp:356] pool2 -> pool2
I0224 21:54:20.146960  8798 net.cpp:96] Setting up pool2
I0224 21:54:20.146965  8798 net.cpp:103] Top shape: 100 256 7 7 (1254400)
I0224 21:54:20.146973  8798 net.cpp:67] Creating Layer conv3
I0224 21:54:20.146978  8798 net.cpp:394] conv3 <- pool2
I0224 21:54:20.146986  8798 net.cpp:356] conv3 -> conv3
I0224 21:54:20.146992  8798 net.cpp:96] Setting up conv3
I0224 21:54:20.150815  8798 net.cpp:103] Top shape: 100 64 4 4 (102400)
I0224 21:54:20.150845  8798 net.cpp:67] Creating Layer relu_conv3
I0224 21:54:20.150851  8798 net.cpp:394] relu_conv3 <- conv3
I0224 21:54:20.150859  8798 net.cpp:345] relu_conv3 -> conv3 (in-place)
I0224 21:54:20.150867  8798 net.cpp:96] Setting up relu_conv3
I0224 21:54:20.150873  8798 net.cpp:103] Top shape: 100 64 4 4 (102400)
I0224 21:54:20.150882  8798 net.cpp:67] Creating Layer ip1
I0224 21:54:20.150887  8798 net.cpp:394] ip1 <- conv3
I0224 21:54:20.150893  8798 net.cpp:356] ip1 -> ip1
I0224 21:54:20.150902  8798 net.cpp:96] Setting up ip1
I0224 21:54:20.155625  8798 net.cpp:103] Top shape: 100 256 1 1 (25600)
I0224 21:54:20.155666  8798 net.cpp:67] Creating Layer relu1
I0224 21:54:20.155673  8798 net.cpp:394] relu1 <- ip1
I0224 21:54:20.155683  8798 net.cpp:345] relu1 -> ip1 (in-place)
I0224 21:54:20.155691  8798 net.cpp:96] Setting up relu1
I0224 21:54:20.155697  8798 net.cpp:103] Top shape: 100 256 1 1 (25600)
I0224 21:54:20.155705  8798 net.cpp:67] Creating Layer ip2
I0224 21:54:20.155710  8798 net.cpp:394] ip2 <- ip1
I0224 21:54:20.155717  8798 net.cpp:356] ip2 -> ip2
I0224 21:54:20.155726  8798 net.cpp:96] Setting up ip2
I0224 21:54:20.156443  8798 net.cpp:103] Top shape: 100 256 1 1 (25600)
I0224 21:54:20.156461  8798 net.cpp:67] Creating Layer relu2
I0224 21:54:20.156467  8798 net.cpp:394] relu2 <- ip2
I0224 21:54:20.156474  8798 net.cpp:345] relu2 -> ip2 (in-place)
I0224 21:54:20.156481  8798 net.cpp:96] Setting up relu2
I0224 21:54:20.156486  8798 net.cpp:103] Top shape: 100 256 1 1 (25600)
I0224 21:54:20.156494  8798 net.cpp:67] Creating Layer ip3
I0224 21:54:20.156499  8798 net.cpp:394] ip3 <- ip2
I0224 21:54:20.156505  8798 net.cpp:356] ip3 -> ip3
I0224 21:54:20.156513  8798 net.cpp:96] Setting up ip3
I0224 21:54:20.156528  8798 net.cpp:103] Top shape: 100 2 1 1 (200)
I0224 21:54:20.156545  8798 net.cpp:67] Creating Layer loss
I0224 21:54:20.156551  8798 net.cpp:394] loss <- ip3
I0224 21:54:20.156558  8798 net.cpp:394] loss <- label
I0224 21:54:20.156563  8798 net.cpp:394] loss <- sample_weight
I0224 21:54:20.156571  8798 net.cpp:356] loss -> loss
I0224 21:54:20.156579  8798 net.cpp:96] Setting up loss
I0224 21:54:20.156589  8798 net.cpp:103] Top shape: 1 1 1 1 (1)
I0224 21:54:20.156594  8798 net.cpp:109]     with loss weight 1
I0224 21:54:20.156676  8798 net.cpp:170] loss needs backward computation.
I0224 21:54:20.156682  8798 net.cpp:170] ip3 needs backward computation.
I0224 21:54:20.156688  8798 net.cpp:170] relu2 needs backward computation.
I0224 21:54:20.156693  8798 net.cpp:170] ip2 needs backward computation.
I0224 21:54:20.156698  8798 net.cpp:170] relu1 needs backward computation.
…
I0224 21:54:20.166332  8798 solver.cpp:151] Creating test net (#0) specified by net file: examples/singleNet/train_val_v0.3.prototxt
I0224 21:54:20.166386  8798 net.cpp:275] The NetState phase (1) differed from the phase (0) specified by a rule in layer data
I0224 21:54:20.166574  8798 net.cpp:39] Initializing net from parameters: 
name: "LogisticRegressionNet"
layers {
  top: "data"
  top: "label"
  top: "sample_weight"
  name: "data"
  type: HDF5_DATA
  hdf5_data_param {
    source: "/share/project/shapes/caffe-weighted-samples/examples/singleNet/testFileList.txt"
    batch_size: 60
  }
  include {
    phase: TEST
  }
}
layers {
  bottom: "data"
  top: "conv1"
  name: "conv1"
  type: CONVOLUTION
  blobs_lr: 1
  blobs_lr: 2
  convolution_param {
    num_output: 96
    kernel_size: 4
    stride: 1
    weight_filler {
      type: "xavier"
    }
    bias_filler {
      type: "constant"
    }
  }
}
layers {
  bottom: "conv1"
  top: "conv1"
  name: "relu_conv1"
  type: RELU
}
layers {
  bottom: "conv1"
  top: "pool1"
  name: "pool1"
  type: POOLING
  pooling_param {
    pool: MAX
    kernel_size: 2
    stride: 2
  }
}
layers {
  bottom: "pool1"
  top: "conv2"
  name: "conv2"
  type: CONVOLUTION
  blobs_lr: 1
  blobs_lr: 2
  convolution_param {
    num_output: 256
    kernel_size: 3
    stride: 1
    weight_filler {
      type: "xavier"
    }
    bias_filler {
      type: "constant"
    }
  }
}
layers {
  bottom: "conv2"
  top: "conv2"
  name: "relu_conv2"
  type: RELU
}
layers {
  bottom: "conv2"
  top: "pool2"
  name: "pool2"
  type: POOLING
  pooling_param {
    pool: MAX
    kernel_size: 2
    stride: 2
  }
}
layers {
  bottom: "pool2"
  top: "conv3"
  name: "conv3"
  type: CONVOLUTION
  blobs_lr: 1
  blobs_lr: 2
  convolution_param {
    num_output: 64
    kernel_size: 4
    stride: 1
    weight_filler {
      type: "xavier"
    }
    bias_filler {
      type: "constant"
    }
  }
}
layers {
  bottom: "conv3"
  top: "conv3"
  name: "relu_conv3"
  type: RELU
}
layers {
  bottom: "conv3"
  top: "ip1"
  name: "ip1"
  type: INNER_PRODUCT
  blobs_lr: 1
  blobs_lr: 2
  inner_product_param {
    num_output: 256
    weight_filler {
      type: "xavier"
    }
    bias_filler {
      type: "constant"
    }
  }
}
layers {
  bottom: "ip1"
  top: "ip1"
  name: "relu1"
  type: RELU
}
layers {
  bottom: "ip1"
  top: "ip2"
  name: "ip2"
  type: INNER_PRODUCT
  blobs_lr: 1
  blobs_lr: 2
  inner_product_param {
    num_output: 256
    weight_filler {
      type: "xavier"
    }
    bias_filler {
      type: "constant"
    }
  }
}
layers {
  bottom: "ip2"
  top: "ip2"
  name: "relu2"
  type: RELU
}
layers {
  bottom: "ip2"
  top: "ip3"
  name: "ip3"
  type: INNER_PRODUCT
  blobs_lr: 1
  blobs_lr: 2
  inner_product_param {
    num_output: 2
    weight_filler {
      type: "xavier"
    }
    bias_filler {
      type: "constant"
    }
  }
}
layers {
  bottom: "ip3"
  bottom: "label"
  top: "accuracy"
  name: "accuracy"
  type: ACCURACY
  include {
    phase: TEST
  }
}
layers {
  bottom: "ip3"
  bottom: "label"
  bottom: "sample_weight"
  top: "loss"
  name: "loss"
  type: SOFTMAX_LOSS
}
state {
  phase: TEST
}
I0224 21:54:20.166784  8798 net.cpp:67] Creating Layer data
I0224 21:54:20.166795  8798 net.cpp:356] data -> data
I0224 21:54:20.166807  8798 net.cpp:356] data -> label
I0224 21:54:20.166816  8798 net.cpp:356] data -> sample_weight
I0224 21:54:20.166824  8798 net.cpp:96] Setting up data
I0224 21:54:20.166831  8798 hdf5_data_layer.cpp:63] Loading filename from /share/project/shapes/caffe-weighted-samples/examples/singleNet/testFileList.txt
I0224 21:54:20.189714  8798 hdf5_data_layer.cpp:75] Number of files: 1
I0224 21:54:20.189738  8798 hdf5_data_layer.cpp:29] Loading HDF5 file/scratch/stephenchen/shapes/singleNet/hdf5/test_batch_35x35/testHDF_1_35x35.h5
I0224 21:54:32.224079  8798 hdf5_data_layer.cpp:55] Successully loaded 59000 rows
I0224 21:54:32.224112  8798 hdf5_data_layer.cpp:89] output data size: 60,4,35,35
I0224 21:54:32.498904  8798 net.cpp:103] Top shape: 60 4 35 35 (294000)
I0224 21:54:32.498947  8798 net.cpp:103] Top shape: 60 1 1 1 (60)
I0224 21:54:32.498960  8798 net.cpp:103] Top shape: 60 1 1 1 (60)
I0224 21:54:32.502167  8798 net.cpp:67] Creating Layer label_data_1_split
I0224 21:54:32.502189  8798 net.cpp:394] label_data_1_split <- label
I0224 21:54:32.502203  8798 net.cpp:356] label_data_1_split -> label_data_1_split_0
I0224 21:54:32.502224  8798 net.cpp:356] label_data_1_split -> label_data_1_split_1
I0224 21:54:32.502236  8798 net.cpp:96] Setting up label_data_1_split
I0224 21:54:32.502248  8798 net.cpp:103] Top shape: 60 1 1 1 (60)
I0224 21:54:32.502255  8798 net.cpp:103] Top shape: 60 1 1 1 (60)
I0224 21:54:32.502269  8798 net.cpp:67] Creating Layer conv1
I0224 21:54:32.502275  8798 net.cpp:394] conv1 <- data
I0224 21:54:32.502286  8798 net.cpp:356] conv1 -> conv1
I0224 21:54:32.502297  8798 net.cpp:96] Setting up conv1
I0224 21:54:32.502418  8798 net.cpp:103] Top shape: 60 96 32 32 (5898240)
I0224 21:54:32.519951  8798 net.cpp:67] Creating Layer relu_conv1
I0224 21:54:32.519979  8798 net.cpp:394] relu_conv1 <- conv1
I0224 21:54:32.519989  8798 net.cpp:345] relu_conv1 -> conv1 (in-place)
I0224 21:54:32.520001  8798 net.cpp:96] Setting up relu_conv1
I0224 21:54:32.520007  8798 net.cpp:103] Top shape: 60 96 32 32 (5898240)
I0224 21:54:32.520016  8798 net.cpp:67] Creating Layer pool1
I0224 21:54:32.520022  8798 net.cpp:394] pool1 <- conv1
I0224 21:54:32.520028  8798 net.cpp:356] pool1 -> pool1
I0224 21:54:32.520036  8798 net.cpp:96] Setting up pool1
I0224 21:54:32.520047  8798 net.cpp:103] Top shape: 60 96 16 16 (1474560)
I0224 21:54:32.520057  8798 net.cpp:67] Creating Layer conv2
I0224 21:54:32.520062  8798 net.cpp:394] conv2 <- pool1
I0224 21:54:32.520069  8798 net.cpp:356] conv2 -> conv2
I0224 21:54:32.520077  8798 net.cpp:96] Setting up conv2
I0224 21:54:32.522588  8798 net.cpp:103] Top shape: 60 256 14 14 (3010560)
I0224 21:54:32.522604  8798 net.cpp:67] Creating Layer relu_conv2
I0224 21:54:32.522610  8798 net.cpp:394] relu_conv2 <- conv2
I0224 21:54:32.522617  8798 net.cpp:345] relu_conv2 -> conv2 (in-place)
I0224 21:54:32.522629  8798 net.cpp:96] Setting up relu_conv2
I0224 21:54:32.522634  8798 net.cpp:103] Top shape: 60 256 14 14 (3010560)
I0224 21:54:32.522641  8798 net.cpp:67] Creating Layer pool2
I0224 21:54:32.522646  8798 net.cpp:394] pool2 <- conv2
I0224 21:54:32.522653  8798 net.cpp:356] pool2 -> pool2
I0224 21:54:32.522661  8798 net.cpp:96] Setting up pool2
I0224 21:54:32.522668  8798 net.cpp:103] Top shape: 60 256 7 7 (752640)
I0224 21:54:32.522677  8798 net.cpp:67] Creating Layer conv3
I0224 21:54:32.522682  8798 net.cpp:394] conv3 <- pool2
I0224 21:54:32.522689  8798 net.cpp:356] conv3 -> conv3
I0224 21:54:32.522697  8798 net.cpp:96] Setting up conv3
I0224 21:54:32.525663  8798 net.cpp:103] Top shape: 60 64 4 4 (61440)
I0224 21:54:32.525681  8798 net.cpp:67] Creating Layer relu_conv3
I0224 21:54:32.525687  8798 net.cpp:394] relu_conv3 <- conv3
I0224 21:54:32.525694  8798 net.cpp:345] relu_conv3 -> conv3 (in-place)
I0224 21:54:32.525701  8798 net.cpp:96] Setting up relu_conv3
I0224 21:54:32.525707  8798 net.cpp:103] Top shape: 60 64 4 4 (61440)
I0224 21:54:32.525714  8798 net.cpp:67] Creating Layer ip1
I0224 21:54:32.525719  8798 net.cpp:394] ip1 <- conv3
I0224 21:54:32.525727  8798 net.cpp:356] ip1 -> ip1
I0224 21:54:32.525734  8798 net.cpp:96] Setting up ip1
I0224 21:54:32.528689  8798 net.cpp:103] Top shape: 60 256 1 1 (15360)
I0224 21:54:32.528709  8798 net.cpp:67] Creating Layer relu1
I0224 21:54:32.528715  8798 net.cpp:394] relu1 <- ip1
I0224 21:54:32.528723  8798 net.cpp:345] relu1 -> ip1 (in-place)
I0224 21:54:32.528730  8798 net.cpp:96] Setting up relu1
I0224 21:54:32.528735  8798 net.cpp:103] Top shape: 60 256 1 1 (15360)
I0224 21:54:32.528743  8798 net.cpp:67] Creating Layer ip2
I0224 21:54:32.528748  8798 net.cpp:394] ip2 <- ip1
I0224 21:54:32.528755  8798 net.cpp:356] ip2 -> ip2
I0224 21:54:32.528762  8798 net.cpp:96] Setting up ip2
I0224 21:54:32.529453  8798 net.cpp:103] Top shape: 60 256 1 1 (15360)
I0224 21:54:32.529469  8798 net.cpp:67] Creating Layer relu2
I0224 21:54:32.529475  8798 net.cpp:394] relu2 <- ip2
I0224 21:54:32.529482  8798 net.cpp:345] relu2 -> ip2 (in-place)
I0224 21:54:32.529489  8798 net.cpp:96] Setting up relu2
I0224 21:54:32.529495  8798 net.cpp:103] Top shape: 60 256 1 1 (15360)
I0224 21:54:32.529501  8798 net.cpp:67] Creating Layer ip3
I0224 21:54:32.529506  8798 net.cpp:394] ip3 <- ip2
I0224 21:54:32.529513  8798 net.cpp:356] ip3 -> ip3
I0224 21:54:32.529521  8798 net.cpp:96] Setting up ip3
I0224 21:54:32.529536  8798 net.cpp:103] Top shape: 60 2 1 1 (120)
I0224 21:54:32.529546  8798 net.cpp:67] Creating Layer ip3_ip3_0_split
I0224 21:54:32.529551  8798 net.cpp:394] ip3_ip3_0_split <- ip3
I0224 21:54:32.529557  8798 net.cpp:356] ip3_ip3_0_split -> ip3_ip3_0_split_0
I0224 21:54:32.529566  8798 net.cpp:356] ip3_ip3_0_split -> ip3_ip3_0_split_1
I0224 21:54:32.529572  8798 net.cpp:96] Setting up ip3_ip3_0_split
I0224 21:54:32.529578  8798 net.cpp:103] Top shape: 60 2 1 1 (120)
I0224 21:54:32.529583  8798 net.cpp:103] Top shape: 60 2 1 1 (120)
I0224 21:54:32.529592  8798 net.cpp:67] Creating Layer accuracy
I0224 21:54:32.529598  8798 net.cpp:394] accuracy <- ip3_ip3_0_split_0
I0224 21:54:32.529604  8798 net.cpp:394] accuracy <- label_data_1_split_0
I0224 21:54:32.529611  8798 net.cpp:356] accuracy -> accuracy
I0224 21:54:32.529618  8798 net.cpp:96] Setting up accuracy
I0224 21:54:32.529624  8798 net.cpp:103] Top shape: 1 1 1 1 (1)
I0224 21:54:32.529636  8798 net.cpp:67] Creating Layer loss
I0224 21:54:32.529641  8798 net.cpp:394] loss <- ip3_ip3_0_split_1
I0224 21:54:32.529647  8798 net.cpp:394] loss <- label_data_1_split_1
I0224 21:54:32.529654  8798 net.cpp:394] loss <- sample_weight
I0224 21:54:32.529660  8798 net.cpp:356] loss -> loss
I0224 21:54:32.529669  8798 net.cpp:96] Setting up loss
I0224 21:54:32.529677  8798 net.cpp:103] Top shape: 1 1 1 1 (1)
I0224 21:54:32.529682  8798 net.cpp:109]     with loss weight 1
I0224 21:54:32.529700  8798 net.cpp:170] loss needs backward computation.
I0224 21:54:32.529706  8798 net.cpp:172] accuracy does not need backward computation.
I0224 21:54:32.529714  8798 net.cpp:170] ip3_ip3_0_split needs backward computation.
I0224 21:54:32.529719  8798 net.cpp:170] ip3 needs backward computation.
I0224 21:54:32.529724  8798 net.cpp:170] relu2 needs backward computation.
…
