…
I0204 16:16:17.003938 30762 net.cpp:275] The NetState phase (0) differed from the phase (1) specified by a rule in layer data
I0204 16:16:17.003959 30762 net.cpp:275] The NetState phase (0) differed from the phase (1) specified by a rule in layer accuracy
I0204 16:16:17.004112 30762 net.cpp:39] Initializing net from parameters: 
name: "LogisticRegressionNet"
layers {
  top: "data"
  top: "label"
  top: "sample_weight"
  name: "data"
  type: HDF5_DATA
  hdf5_data_param {
    source: "/share/project/shapes/caffe-weighted-samples/examples/singleNet/trainFileList.txt"
    batch_size: 100
  }
  include {
    phase: TRAIN
  }
}
layers {
  bottom: "data"
  top: "conv1"
  name: "conv1"
  type: CONVOLUTION
  blobs_lr: 1
  blobs_lr: 2
  convolution_param {
    num_output: 96
    kernel_size: 5
    stride: 1
    weight_filler {
      type: "xavier"
    }
    bias_filler {
      type: "constant"
    }
  }
}
layers {
  bottom: "conv1"
  top: "conv1"
  name: "relu_conv1"
  type: RELU
}
layers {
  bottom: "conv1"
  top: "pool1"
  name: "pool1"
  type: POOLING
  pooling_param {
    pool: MAX
    kernel_size: 2
    stride: 2
  }
}
layers {
  bottom: "pool1"
  top: "conv2"
  name: "conv2"
  type: CONVOLUTION
  blobs_lr: 1
  blobs_lr: 2
  convolution_param {
    num_output: 256
    kernel_size: 3
    stride: 1
    weight_filler {
      type: "xavier"
    }
    bias_filler {
      type: "constant"
    }
  }
}
layers {
  bottom: "conv2"
  top: "conv2"
  name: "relu_conv2"
  type: RELU
}
layers {
  bottom: "conv2"
  top: "pool2"
  name: "pool2"
  type: POOLING
  pooling_param {
    pool: MAX
    kernel_size: 2
    stride: 2
  }
}
layers {
  bottom: "pool2"
  top: "conv3"
  name: "conv3"
  type: CONVOLUTION
  blobs_lr: 1
  blobs_lr: 2
  convolution_param {
    num_output: 64
    kernel_size: 3
    stride: 1
    weight_filler {
      type: "xavier"
    }
    bias_filler {
      type: "constant"
    }
  }
}
layers {
  bottom: "conv3"
  top: "conv3"
  name: "relu_conv3"
  type: RELU
}
layers {
  bottom: "conv3"
  top: "ip1"
  name: "ip1"
  type: INNER_PRODUCT
  blobs_lr: 1
  blobs_lr: 2
  inner_product_param {
    num_output: 1024
    weight_filler {
      type: "xavier"
    }
    bias_filler {
      type: "constant"
    }
  }
}
layers {
  bottom: "ip1"
  top: "ip1"
  name: "relu1"
  type: RELU
}
layers {
  bottom: "ip1"
  top: "ip2"
  name: "ip2"
  type: INNER_PRODUCT
  blobs_lr: 1
  blobs_lr: 2
  inner_product_param {
    num_output: 1024
    weight_filler {
      type: "xavier"
    }
    bias_filler {
      type: "constant"
    }
  }
}
layers {
  bottom: "ip2"
  top: "ip2"
  name: "relu2"
  type: RELU
}
layers {
  bottom: "ip2"
  top: "ip3"
  name: "ip3"
  type: INNER_PRODUCT
  blobs_lr: 1
  blobs_lr: 2
  inner_product_param {
    num_output: 2
    weight_filler {
      type: "xavier"
    }
    bias_filler {
      type: "constant"
    }
  }
}
layers {
  bottom: "ip3"
  bottom: "label"
  bottom: "sample_weight"
  top: "loss"
  name: "loss"
  type: SOFTMAX_LOSS
}
state {
  phase: TRAIN
}
I0204 16:16:17.004266 30762 net.cpp:67] Creating Layer data
I0204 16:16:17.004276 30762 net.cpp:356] data -> data
I0204 16:16:17.004302 30762 net.cpp:356] data -> label
I0204 16:16:17.004318 30762 net.cpp:356] data -> sample_weight
I0204 16:16:17.004328 30762 net.cpp:96] Setting up data
I0204 16:16:17.004334 30762 hdf5_data_layer.cpp:63] Loading filename from /share/project/shapes/caffe-weighted-samples/examples/singleNet/trainFileList.txt
I0204 16:16:17.021124 30762 hdf5_data_layer.cpp:75] Number of files: 15
I0204 16:16:17.021155 30762 hdf5_data_layer.cpp:29] Loading HDF5 file/scratch/stephenchen/shapes/singleNet/hdf5/train_batch_35x35/trainHDF_1_35x35.h5
I0204 16:18:24.902789 30762 hdf5_data_layer.cpp:55] Successully loaded 220600 rows
I0204 16:18:24.903257 30762 hdf5_data_layer.cpp:89] output data size: 100,4,35,35
I0204 16:18:24.917227 30762 net.cpp:103] Top shape: 100 4 35 35 (490000)
I0204 16:18:24.917253 30762 net.cpp:103] Top shape: 100 1 1 1 (100)
I0204 16:18:24.917259 30762 net.cpp:103] Top shape: 100 1 1 1 (100)
I0204 16:18:24.917275 30762 net.cpp:67] Creating Layer conv1
I0204 16:18:24.917282 30762 net.cpp:394] conv1 <- data
I0204 16:18:24.917304 30762 net.cpp:356] conv1 -> conv1
I0204 16:18:24.917315 30762 net.cpp:96] Setting up conv1
I0204 16:18:24.940104 30762 net.cpp:103] Top shape: 100 96 31 31 (9225600)
I0204 16:18:24.940217 30762 net.cpp:67] Creating Layer relu_conv1
I0204 16:18:24.940225 30762 net.cpp:394] relu_conv1 <- conv1
I0204 16:18:24.940260 30762 net.cpp:345] relu_conv1 -> conv1 (in-place)
I0204 16:18:24.940273 30762 net.cpp:96] Setting up relu_conv1
I0204 16:18:24.940279 30762 net.cpp:103] Top shape: 100 96 31 31 (9225600)
I0204 16:18:24.940285 30762 net.cpp:67] Creating Layer pool1
I0204 16:18:24.940290 30762 net.cpp:394] pool1 <- conv1
I0204 16:18:24.940297 30762 net.cpp:356] pool1 -> pool1
I0204 16:18:24.940306 30762 net.cpp:96] Setting up pool1
I0204 16:18:24.940330 30762 net.cpp:103] Top shape: 100 96 16 16 (2457600)
I0204 16:18:24.940341 30762 net.cpp:67] Creating Layer conv2
I0204 16:18:24.940347 30762 net.cpp:394] conv2 <- pool1
I0204 16:18:24.940373 30762 net.cpp:356] conv2 -> conv2
I0204 16:18:24.940384 30762 net.cpp:96] Setting up conv2
I0204 16:18:24.943316 30762 net.cpp:103] Top shape: 100 256 14 14 (5017600)
I0204 16:18:24.943361 30762 net.cpp:67] Creating Layer relu_conv2
I0204 16:18:24.943367 30762 net.cpp:394] relu_conv2 <- conv2
I0204 16:18:24.943377 30762 net.cpp:345] relu_conv2 -> conv2 (in-place)
I0204 16:18:24.943384 30762 net.cpp:96] Setting up relu_conv2
I0204 16:18:24.943389 30762 net.cpp:103] Top shape: 100 256 14 14 (5017600)
I0204 16:18:24.943397 30762 net.cpp:67] Creating Layer pool2
I0204 16:18:24.943402 30762 net.cpp:394] pool2 <- conv2
I0204 16:18:24.943408 30762 net.cpp:356] pool2 -> pool2
I0204 16:18:24.943416 30762 net.cpp:96] Setting up pool2
I0204 16:18:24.943423 30762 net.cpp:103] Top shape: 100 256 7 7 (1254400)
I0204 16:18:24.943431 30762 net.cpp:67] Creating Layer conv3
I0204 16:18:24.943436 30762 net.cpp:394] conv3 <- pool2
I0204 16:18:24.943442 30762 net.cpp:356] conv3 -> conv3
I0204 16:18:24.943482 30762 net.cpp:96] Setting up conv3
I0204 16:18:24.945396 30762 net.cpp:103] Top shape: 100 64 5 5 (160000)
I0204 16:18:24.945435 30762 net.cpp:67] Creating Layer relu_conv3
I0204 16:18:24.945442 30762 net.cpp:394] relu_conv3 <- conv3
I0204 16:18:24.945449 30762 net.cpp:345] relu_conv3 -> conv3 (in-place)
I0204 16:18:24.945456 30762 net.cpp:96] Setting up relu_conv3
I0204 16:18:24.945461 30762 net.cpp:103] Top shape: 100 64 5 5 (160000)
I0204 16:18:24.945469 30762 net.cpp:67] Creating Layer ip1
I0204 16:18:24.945474 30762 net.cpp:394] ip1 <- conv3
I0204 16:18:24.945482 30762 net.cpp:356] ip1 -> ip1
I0204 16:18:24.945490 30762 net.cpp:96] Setting up ip1
I0204 16:18:24.966971 30762 net.cpp:103] Top shape: 100 1024 1 1 (102400)
I0204 16:18:24.967013 30762 net.cpp:67] Creating Layer relu1
I0204 16:18:24.967020 30762 net.cpp:394] relu1 <- ip1
I0204 16:18:24.967028 30762 net.cpp:345] relu1 -> ip1 (in-place)
I0204 16:18:24.967053 30762 net.cpp:96] Setting up relu1
I0204 16:18:24.967059 30762 net.cpp:103] Top shape: 100 1024 1 1 (102400)
I0204 16:18:24.967067 30762 net.cpp:67] Creating Layer ip2
I0204 16:18:24.967072 30762 net.cpp:394] ip2 <- ip1
I0204 16:18:24.967078 30762 net.cpp:356] ip2 -> ip2
I0204 16:18:24.967087 30762 net.cpp:96] Setting up ip2
I0204 16:18:24.980375 30762 net.cpp:103] Top shape: 100 1024 1 1 (102400)
I0204 16:18:24.980417 30762 net.cpp:67] Creating Layer relu2
I0204 16:18:24.980424 30762 net.cpp:394] relu2 <- ip2
I0204 16:18:24.980433 30762 net.cpp:345] relu2 -> ip2 (in-place)
I0204 16:18:24.980443 30762 net.cpp:96] Setting up relu2
I0204 16:18:24.980448 30762 net.cpp:103] Top shape: 100 1024 1 1 (102400)
I0204 16:18:24.980455 30762 net.cpp:67] Creating Layer ip3
I0204 16:18:24.980460 30762 net.cpp:394] ip3 <- ip2
I0204 16:18:24.980468 30762 net.cpp:356] ip3 -> ip3
I0204 16:18:24.980475 30762 net.cpp:96] Setting up ip3
I0204 16:18:24.980542 30762 net.cpp:103] Top shape: 100 2 1 1 (200)
I0204 16:18:24.980561 30762 net.cpp:67] Creating Layer loss
I0204 16:18:24.980567 30762 net.cpp:394] loss <- ip3
I0204 16:18:24.980573 30762 net.cpp:394] loss <- label
I0204 16:18:24.980579 30762 net.cpp:394] loss <- sample_weight
I0204 16:18:24.980587 30762 net.cpp:356] loss -> loss
I0204 16:18:24.980594 30762 net.cpp:96] Setting up loss
I0204 16:18:24.980619 30762 net.cpp:103] Top shape: 1 1 1 1 (1)
I0204 16:18:24.980626 30762 net.cpp:109]     with loss weight 1
I0204 16:18:24.980700 30762 net.cpp:170] loss needs backward computation.
I0204 16:18:24.980706 30762 net.cpp:170] ip3 needs backward computation.
I0204 16:18:24.980711 30762 net.cpp:170] relu2 needs backward computation.
I0204 16:18:24.980716 30762 net.cpp:170] ip2 needs backward computation.
I0204 16:18:24.980721 30762 net.cpp:170] relu1 needs backward computation.
…
I0204 16:18:25.237474 30762 solver.cpp:151] Creating test net (#0) specified by net file: examples/singleNet/train_val.prototxt
I0204 16:18:25.237524 30762 net.cpp:275] The NetState phase (1) differed from the phase (0) specified by a rule in layer data
I0204 16:18:25.238209 30762 net.cpp:39] Initializing net from parameters: 
name: "LogisticRegressionNet"
layers {
  top: "data"
  top: "label"
  top: "sample_weight"
  name: "data"
  type: HDF5_DATA
  hdf5_data_param {
    source: "/share/project/shapes/caffe-weighted-samples/examples/singleNet/testFileList.txt"
    batch_size: 10
  }
  include {
    phase: TEST
  }
}
layers {
  bottom: "data"
  top: "conv1"
  name: "conv1"
  type: CONVOLUTION
  blobs_lr: 1
  blobs_lr: 2
  convolution_param {
    num_output: 96
    kernel_size: 5
    stride: 1
    weight_filler {
      type: "xavier"
    }
    bias_filler {
      type: "constant"
    }
  }
}
layers {
  bottom: "conv1"
  top: "conv1"
  name: "relu_conv1"
  type: RELU
}
layers {
  bottom: "conv1"
  top: "pool1"
  name: "pool1"
  type: POOLING
  pooling_param {
    pool: MAX
    kernel_size: 2
    stride: 2
  }
}
layers {
  bottom: "pool1"
  top: "conv2"
  name: "conv2"
  type: CONVOLUTION
  blobs_lr: 1
  blobs_lr: 2
  convolution_param {
    num_output: 256
    kernel_size: 3
    stride: 1
    weight_filler {
      type: "xavier"
    }
    bias_filler {
      type: "constant"
    }
  }
}
layers {
  bottom: "conv2"
  top: "conv2"
  name: "relu_conv2"
  type: RELU
}
layers {
  bottom: "conv2"
  top: "pool2"
  name: "pool2"
  type: POOLING
  pooling_param {
    pool: MAX
    kernel_size: 2
    stride: 2
  }
}
layers {
  bottom: "pool2"
  top: "conv3"
  name: "conv3"
  type: CONVOLUTION
  blobs_lr: 1
  blobs_lr: 2
  convolution_param {
    num_output: 64
    kernel_size: 3
    stride: 1
    weight_filler {
      type: "xavier"
    }
    bias_filler {
      type: "constant"
    }
  }
}
layers {
  bottom: "conv3"
  top: "conv3"
  name: "relu_conv3"
  type: RELU
}
layers {
  bottom: "conv3"
  top: "ip1"
  name: "ip1"
  type: INNER_PRODUCT
  blobs_lr: 1
  blobs_lr: 2
  inner_product_param {
    num_output: 1024
    weight_filler {
      type: "xavier"
    }
    bias_filler {
      type: "constant"
    }
  }
}
layers {
  bottom: "ip1"
  top: "ip1"
  name: "relu1"
  type: RELU
}
layers {
  bottom: "ip1"
  top: "ip2"
  name: "ip2"
  type: INNER_PRODUCT
  blobs_lr: 1
  blobs_lr: 2
  inner_product_param {
    num_output: 1024
    weight_filler {
      type: "xavier"
    }
    bias_filler {
      type: "constant"
    }
  }
}
layers {
  bottom: "ip2"
  top: "ip2"
  name: "relu2"
  type: RELU
}
layers {
  bottom: "ip2"
  top: "ip3"
  name: "ip3"
  type: INNER_PRODUCT
  blobs_lr: 1
  blobs_lr: 2
  inner_product_param {
    num_output: 2
    weight_filler {
      type: "xavier"
    }
    bias_filler {
      type: "constant"
    }
  }
}
layers {
  bottom: "ip3"
  bottom: "label"
  top: "accuracy"
  name: "accuracy"
  type: ACCURACY
  include {
    phase: TEST
  }
}
layers {
  bottom: "ip3"
  bottom: "label"
  bottom: "sample_weight"
  top: "loss"
  name: "loss"
  type: SOFTMAX_LOSS
}
state {
  phase: TEST
}
I0204 16:18:25.238410 30762 net.cpp:67] Creating Layer data
I0204 16:18:25.238421 30762 net.cpp:356] data -> data
I0204 16:18:25.238433 30762 net.cpp:356] data -> label
I0204 16:18:25.238442 30762 net.cpp:356] data -> sample_weight
I0204 16:18:25.238451 30762 net.cpp:96] Setting up data
I0204 16:18:25.238456 30762 hdf5_data_layer.cpp:63] Loading filename from /share/project/shapes/caffe-weighted-samples/examples/singleNet/testFileList.txt
I0204 16:18:25.247417 30762 hdf5_data_layer.cpp:75] Number of files: 4
I0204 16:18:25.247441 30762 hdf5_data_layer.cpp:29] Loading HDF5 file/scratch/stephenchen/shapes/singleNet/hdf5/test_batch_35x35/testHDF_1_35x35.h5
I0204 16:19:51.872632 30762 hdf5_data_layer.cpp:55] Successully loaded 112600 rows
I0204 16:19:51.876866 30762 hdf5_data_layer.cpp:89] output data size: 10,4,35,35
I0204 16:19:51.876884 30762 net.cpp:103] Top shape: 10 4 35 35 (49000)
I0204 16:19:51.876894 30762 net.cpp:103] Top shape: 10 1 1 1 (10)
I0204 16:19:51.876901 30762 net.cpp:103] Top shape: 10 1 1 1 (10)
I0204 16:19:51.876914 30762 net.cpp:67] Creating Layer label_data_1_split
I0204 16:19:51.876921 30762 net.cpp:394] label_data_1_split <- label
I0204 16:19:51.876930 30762 net.cpp:356] label_data_1_split -> label_data_1_split_0
I0204 16:19:51.876942 30762 net.cpp:356] label_data_1_split -> label_data_1_split_1
I0204 16:19:51.876950 30762 net.cpp:96] Setting up label_data_1_split
I0204 16:19:51.876957 30762 net.cpp:103] Top shape: 10 1 1 1 (10)
I0204 16:19:51.876962 30762 net.cpp:103] Top shape: 10 1 1 1 (10)
I0204 16:19:51.876972 30762 net.cpp:67] Creating Layer conv1
I0204 16:19:51.876977 30762 net.cpp:394] conv1 <- data
I0204 16:19:51.876984 30762 net.cpp:356] conv1 -> conv1
I0204 16:19:51.876992 30762 net.cpp:96] Setting up conv1
I0204 16:19:51.877109 30762 net.cpp:103] Top shape: 10 96 31 31 (922560)
I0204 16:19:51.877123 30762 net.cpp:67] Creating Layer relu_conv1
I0204 16:19:51.877130 30762 net.cpp:394] relu_conv1 <- conv1
I0204 16:19:51.877136 30762 net.cpp:345] relu_conv1 -> conv1 (in-place)
I0204 16:19:51.877142 30762 net.cpp:96] Setting up relu_conv1
I0204 16:19:51.877147 30762 net.cpp:103] Top shape: 10 96 31 31 (922560)
I0204 16:19:51.877156 30762 net.cpp:67] Creating Layer pool1
I0204 16:19:51.877161 30762 net.cpp:394] pool1 <- conv1
I0204 16:19:51.877167 30762 net.cpp:356] pool1 -> pool1
I0204 16:19:51.877174 30762 net.cpp:96] Setting up pool1
I0204 16:19:51.877182 30762 net.cpp:103] Top shape: 10 96 16 16 (245760)
I0204 16:19:51.877189 30762 net.cpp:67] Creating Layer conv2
I0204 16:19:51.877194 30762 net.cpp:394] conv2 <- pool1
I0204 16:19:51.877200 30762 net.cpp:356] conv2 -> conv2
I0204 16:19:51.877207 30762 net.cpp:96] Setting up conv2
I0204 16:19:51.879797 30762 net.cpp:103] Top shape: 10 256 14 14 (501760)
I0204 16:19:51.879815 30762 net.cpp:67] Creating Layer relu_conv2
I0204 16:19:51.879820 30762 net.cpp:394] relu_conv2 <- conv2
I0204 16:19:51.879827 30762 net.cpp:345] relu_conv2 -> conv2 (in-place)
I0204 16:19:51.879833 30762 net.cpp:96] Setting up relu_conv2
I0204 16:19:51.879838 30762 net.cpp:103] Top shape: 10 256 14 14 (501760)
I0204 16:19:51.879844 30762 net.cpp:67] Creating Layer pool2
I0204 16:19:51.879848 30762 net.cpp:394] pool2 <- conv2
I0204 16:19:51.879854 30762 net.cpp:356] pool2 -> pool2
I0204 16:19:51.879863 30762 net.cpp:96] Setting up pool2
I0204 16:19:51.879868 30762 net.cpp:103] Top shape: 10 256 7 7 (125440)
I0204 16:19:51.879878 30762 net.cpp:67] Creating Layer conv3
I0204 16:19:51.879881 30762 net.cpp:394] conv3 <- pool2
I0204 16:19:51.879889 30762 net.cpp:356] conv3 -> conv3
I0204 16:19:51.879895 30762 net.cpp:96] Setting up conv3
I0204 16:19:51.881566 30762 net.cpp:103] Top shape: 10 64 5 5 (16000)
I0204 16:19:51.881583 30762 net.cpp:67] Creating Layer relu_conv3
I0204 16:19:51.881593 30762 net.cpp:394] relu_conv3 <- conv3
I0204 16:19:51.881600 30762 net.cpp:345] relu_conv3 -> conv3 (in-place)
I0204 16:19:51.881608 30762 net.cpp:96] Setting up relu_conv3
I0204 16:19:51.881613 30762 net.cpp:103] Top shape: 10 64 5 5 (16000)
I0204 16:19:51.881620 30762 net.cpp:67] Creating Layer ip1
I0204 16:19:51.881624 30762 net.cpp:394] ip1 <- conv3
I0204 16:19:51.881631 30762 net.cpp:356] ip1 -> ip1
I0204 16:19:51.881639 30762 net.cpp:96] Setting up ip1
I0204 16:19:51.900652 30762 net.cpp:103] Top shape: 10 1024 1 1 (10240)
I0204 16:19:51.900691 30762 net.cpp:67] Creating Layer relu1
I0204 16:19:51.900697 30762 net.cpp:394] relu1 <- ip1
I0204 16:19:51.900706 30762 net.cpp:345] relu1 -> ip1 (in-place)
I0204 16:19:51.900714 30762 net.cpp:96] Setting up relu1
I0204 16:19:51.900719 30762 net.cpp:103] Top shape: 10 1024 1 1 (10240)
I0204 16:19:51.900727 30762 net.cpp:67] Creating Layer ip2
I0204 16:19:51.900732 30762 net.cpp:394] ip2 <- ip1
I0204 16:19:51.900738 30762 net.cpp:356] ip2 -> ip2
I0204 16:19:51.900749 30762 net.cpp:96] Setting up ip2
I0204 16:19:51.936329 30762 net.cpp:103] Top shape: 10 1024 1 1 (10240)
I0204 16:19:51.936372 30762 net.cpp:67] Creating Layer relu2
I0204 16:19:51.936380 30762 net.cpp:394] relu2 <- ip2
I0204 16:19:51.936388 30762 net.cpp:345] relu2 -> ip2 (in-place)
I0204 16:19:51.936396 30762 net.cpp:96] Setting up relu2
I0204 16:19:51.936401 30762 net.cpp:103] Top shape: 10 1024 1 1 (10240)
I0204 16:19:51.936409 30762 net.cpp:67] Creating Layer ip3
I0204 16:19:51.936414 30762 net.cpp:394] ip3 <- ip2
I0204 16:19:51.936421 30762 net.cpp:356] ip3 -> ip3
I0204 16:19:51.936429 30762 net.cpp:96] Setting up ip3
I0204 16:19:51.936460 30762 net.cpp:103] Top shape: 10 2 1 1 (20)
I0204 16:19:51.936472 30762 net.cpp:67] Creating Layer ip3_ip3_0_split
I0204 16:19:51.936478 30762 net.cpp:394] ip3_ip3_0_split <- ip3
I0204 16:19:51.936486 30762 net.cpp:356] ip3_ip3_0_split -> ip3_ip3_0_split_0
I0204 16:19:51.936493 30762 net.cpp:356] ip3_ip3_0_split -> ip3_ip3_0_split_1
I0204 16:19:51.936499 30762 net.cpp:96] Setting up ip3_ip3_0_split
I0204 16:19:51.936506 30762 net.cpp:103] Top shape: 10 2 1 1 (20)
I0204 16:19:51.936511 30762 net.cpp:103] Top shape: 10 2 1 1 (20)
I0204 16:19:51.936521 30762 net.cpp:67] Creating Layer accuracy
I0204 16:19:51.936525 30762 net.cpp:394] accuracy <- ip3_ip3_0_split_0
I0204 16:19:51.936532 30762 net.cpp:394] accuracy <- label_data_1_split_0
I0204 16:19:51.936537 30762 net.cpp:356] accuracy -> accuracy
I0204 16:19:51.936545 30762 net.cpp:96] Setting up accuracy
I0204 16:19:51.936552 30762 net.cpp:103] Top shape: 1 1 1 1 (1)
I0204 16:19:51.936558 30762 net.cpp:67] Creating Layer loss
I0204 16:19:51.936563 30762 net.cpp:394] loss <- ip3_ip3_0_split_1
I0204 16:19:51.936569 30762 net.cpp:394] loss <- label_data_1_split_1
I0204 16:19:51.936574 30762 net.cpp:394] loss <- sample_weight
I0204 16:19:51.936581 30762 net.cpp:356] loss -> loss
I0204 16:19:51.936604 30762 net.cpp:96] Setting up loss
I0204 16:19:51.936614 30762 net.cpp:103] Top shape: 1 1 1 1 (1)
I0204 16:19:51.936619 30762 net.cpp:109]     with loss weight 1
I0204 16:19:51.936635 30762 net.cpp:170] loss needs backward computation.
I0204 16:19:51.936640 30762 net.cpp:172] accuracy does not need backward computation.
I0204 16:19:51.936645 30762 net.cpp:170] ip3_ip3_0_split needs backward computation.
I0204 16:19:51.936650 30762 net.cpp:170] ip3 needs backward computation.
I0204 16:19:51.936655 30762 net.cpp:170] relu2 needs backward computation.
…
