…
I0222 20:08:56.264498  9352 net.cpp:275] The NetState phase (0) differed from the phase (1) specified by a rule in layer data
I0222 20:08:56.264534  9352 net.cpp:275] The NetState phase (0) differed from the phase (1) specified by a rule in layer accuracy
I0222 20:08:56.264894  9352 net.cpp:39] Initializing net from parameters: 
name: "LogisticRegressionNet"
layers {
  top: "data"
  top: "label"
  top: "sample_weight"
  name: "data"
  type: HDF5_DATA
  hdf5_data_param {
    source: "/share/project/shapes/caffe-weighted-samples/examples/singleNet/trainFileList.txt"
    batch_size: 100
  }
  include {
    phase: TRAIN
  }
}
layers {
  bottom: "data"
  top: "conv1"
  name: "conv1"
  type: CONVOLUTION
  blobs_lr: 1
  blobs_lr: 2
  convolution_param {
    num_output: 96
    kernel_size: 4
    stride: 1
    weight_filler {
      type: "xavier"
    }
    bias_filler {
      type: "constant"
    }
  }
}
layers {
  bottom: "conv1"
  top: "conv1"
  name: "relu_conv1"
  type: RELU
}
layers {
  bottom: "conv1"
  top: "pool1"
  name: "pool1"
  type: POOLING
  pooling_param {
    pool: MAX
    kernel_size: 2
    stride: 2
  }
}
layers {
  bottom: "pool1"
  top: "conv2"
  name: "conv2"
  type: CONVOLUTION
  blobs_lr: 1
  blobs_lr: 2
  convolution_param {
    num_output: 256
    kernel_size: 3
    stride: 1
    weight_filler {
      type: "xavier"
    }
    bias_filler {
      type: "constant"
    }
  }
}
layers {
  bottom: "conv2"
  top: "conv2"
  name: "relu_conv2"
  type: RELU
}
layers {
  bottom: "conv2"
  top: "pool2"
  name: "pool2"
  type: POOLING
  pooling_param {
    pool: MAX
    kernel_size: 2
    stride: 2
  }
}
layers {
  bottom: "pool2"
  top: "conv3"
  name: "conv3"
  type: CONVOLUTION
  blobs_lr: 1
  blobs_lr: 2
  convolution_param {
    num_output: 64
    kernel_size: 4
    stride: 1
    weight_filler {
      type: "xavier"
    }
    bias_filler {
      type: "constant"
    }
  }
}
layers {
  bottom: "conv3"
  top: "conv3"
  name: "relu_conv3"
  type: RELU
}
layers {
  bottom: "conv3"
  top: "ip1"
  name: "ip1"
  type: INNER_PRODUCT
  blobs_lr: 1
  blobs_lr: 2
  inner_product_param {
    num_output: 1024
    weight_filler {
      type: "xavier"
    }
    bias_filler {
      type: "constant"
    }
  }
}
layers {
  bottom: "ip1"
  top: "ip1"
  name: "relu1"
  type: RELU
}
layers {
  bottom: "ip1"
  top: "ip2"
  name: "ip2"
  type: INNER_PRODUCT
  blobs_lr: 1
  blobs_lr: 2
  inner_product_param {
    num_output: 1024
    weight_filler {
      type: "xavier"
    }
    bias_filler {
      type: "constant"
    }
  }
}
layers {
  bottom: "ip2"
  top: "ip2"
  name: "relu2"
  type: RELU
}
layers {
  bottom: "ip2"
  top: "ip3"
  name: "ip3"
  type: INNER_PRODUCT
  blobs_lr: 1
  blobs_lr: 2
  inner_product_param {
    num_output: 2
    weight_filler {
      type: "xavier"
    }
    bias_filler {
      type: "constant"
    }
  }
}
layers {
  bottom: "ip3"
  bottom: "label"
  bottom: "sample_weight"
  top: "loss"
  name: "loss"
  type: SOFTMAX_LOSS
}
state {
  phase: TRAIN
}
I0222 20:08:56.265235  9352 net.cpp:67] Creating Layer data
I0222 20:08:56.265255  9352 net.cpp:356] data -> data
I0222 20:08:56.265295  9352 net.cpp:356] data -> label
I0222 20:08:56.265353  9352 net.cpp:356] data -> sample_weight
I0222 20:08:56.265372  9352 net.cpp:96] Setting up data
I0222 20:08:56.265385  9352 hdf5_data_layer.cpp:63] Loading filename from /share/project/shapes/caffe-weighted-samples/examples/singleNet/trainFileList.txt
I0222 20:08:56.282645  9352 hdf5_data_layer.cpp:75] Number of files: 15
I0222 20:08:56.282675  9352 hdf5_data_layer.cpp:29] Loading HDF5 file/scratch/stephenchen/shapes/singleNet/hdf5/train_batch_realTrans9_35x35/trainHDF_1_35x35.h5
I0222 20:09:39.160248  9352 hdf5_data_layer.cpp:55] Successully loaded 220600 rows
I0222 20:09:39.164185  9352 hdf5_data_layer.cpp:89] output data size: 100,4,35,35
I0222 20:09:39.254058  9352 net.cpp:103] Top shape: 100 4 35 35 (490000)
I0222 20:09:39.254079  9352 net.cpp:103] Top shape: 100 1 1 1 (100)
I0222 20:09:39.254089  9352 net.cpp:103] Top shape: 100 1 1 1 (100)
I0222 20:09:39.254114  9352 net.cpp:67] Creating Layer conv1
I0222 20:09:39.254122  9352 net.cpp:394] conv1 <- data
I0222 20:09:39.275738  9352 net.cpp:356] conv1 -> conv1
I0222 20:09:39.275779  9352 net.cpp:96] Setting up conv1
I0222 20:09:39.309512  9352 net.cpp:103] Top shape: 100 96 32 32 (9830400)
I0222 20:09:39.310814  9352 net.cpp:67] Creating Layer relu_conv1
I0222 20:09:39.310828  9352 net.cpp:394] relu_conv1 <- conv1
I0222 20:09:39.310838  9352 net.cpp:345] relu_conv1 -> conv1 (in-place)
I0222 20:09:39.310847  9352 net.cpp:96] Setting up relu_conv1
I0222 20:09:39.310853  9352 net.cpp:103] Top shape: 100 96 32 32 (9830400)
I0222 20:09:39.310860  9352 net.cpp:67] Creating Layer pool1
I0222 20:09:39.310866  9352 net.cpp:394] pool1 <- conv1
I0222 20:09:39.310873  9352 net.cpp:356] pool1 -> pool1
I0222 20:09:39.310881  9352 net.cpp:96] Setting up pool1
I0222 20:09:39.310910  9352 net.cpp:103] Top shape: 100 96 16 16 (2457600)
I0222 20:09:39.311015  9352 net.cpp:67] Creating Layer conv2
I0222 20:09:39.311022  9352 net.cpp:394] conv2 <- pool1
I0222 20:09:39.311029  9352 net.cpp:356] conv2 -> conv2
I0222 20:09:39.311038  9352 net.cpp:96] Setting up conv2
I0222 20:09:39.313572  9352 net.cpp:103] Top shape: 100 256 14 14 (5017600)
I0222 20:09:39.313591  9352 net.cpp:67] Creating Layer relu_conv2
I0222 20:09:39.313597  9352 net.cpp:394] relu_conv2 <- conv2
I0222 20:09:39.313606  9352 net.cpp:345] relu_conv2 -> conv2 (in-place)
I0222 20:09:39.313612  9352 net.cpp:96] Setting up relu_conv2
I0222 20:09:39.313617  9352 net.cpp:103] Top shape: 100 256 14 14 (5017600)
I0222 20:09:39.313624  9352 net.cpp:67] Creating Layer pool2
I0222 20:09:39.313629  9352 net.cpp:394] pool2 <- conv2
I0222 20:09:39.313635  9352 net.cpp:356] pool2 -> pool2
I0222 20:09:39.313643  9352 net.cpp:96] Setting up pool2
I0222 20:09:39.313649  9352 net.cpp:103] Top shape: 100 256 7 7 (1254400)
I0222 20:09:39.313657  9352 net.cpp:67] Creating Layer conv3
I0222 20:09:39.313663  9352 net.cpp:394] conv3 <- pool2
I0222 20:09:39.313669  9352 net.cpp:356] conv3 -> conv3
I0222 20:09:39.313676  9352 net.cpp:96] Setting up conv3
I0222 20:09:39.316740  9352 net.cpp:103] Top shape: 100 64 4 4 (102400)
I0222 20:09:39.316762  9352 net.cpp:67] Creating Layer relu_conv3
I0222 20:09:39.316769  9352 net.cpp:394] relu_conv3 <- conv3
I0222 20:09:39.316776  9352 net.cpp:345] relu_conv3 -> conv3 (in-place)
I0222 20:09:39.316784  9352 net.cpp:96] Setting up relu_conv3
I0222 20:09:39.316789  9352 net.cpp:103] Top shape: 100 64 4 4 (102400)
I0222 20:09:39.316797  9352 net.cpp:67] Creating Layer ip1
I0222 20:09:39.316802  9352 net.cpp:394] ip1 <- conv3
I0222 20:09:39.316809  9352 net.cpp:356] ip1 -> ip1
I0222 20:09:39.316818  9352 net.cpp:96] Setting up ip1
I0222 20:09:39.329462  9352 net.cpp:103] Top shape: 100 1024 1 1 (102400)
I0222 20:09:39.329490  9352 net.cpp:67] Creating Layer relu1
I0222 20:09:39.329498  9352 net.cpp:394] relu1 <- ip1
I0222 20:09:39.329505  9352 net.cpp:345] relu1 -> ip1 (in-place)
I0222 20:09:39.329514  9352 net.cpp:96] Setting up relu1
I0222 20:09:39.329519  9352 net.cpp:103] Top shape: 100 1024 1 1 (102400)
I0222 20:09:39.329527  9352 net.cpp:67] Creating Layer ip2
I0222 20:09:39.329532  9352 net.cpp:394] ip2 <- ip1
I0222 20:09:39.329538  9352 net.cpp:356] ip2 -> ip2
I0222 20:09:39.329547  9352 net.cpp:96] Setting up ip2
I0222 20:09:39.341811  9352 net.cpp:103] Top shape: 100 1024 1 1 (102400)
I0222 20:09:39.341850  9352 net.cpp:67] Creating Layer relu2
I0222 20:09:39.341857  9352 net.cpp:394] relu2 <- ip2
I0222 20:09:39.341866  9352 net.cpp:345] relu2 -> ip2 (in-place)
I0222 20:09:39.341876  9352 net.cpp:96] Setting up relu2
I0222 20:09:39.341881  9352 net.cpp:103] Top shape: 100 1024 1 1 (102400)
I0222 20:09:39.341888  9352 net.cpp:67] Creating Layer ip3
I0222 20:09:39.341907  9352 net.cpp:394] ip3 <- ip2
I0222 20:09:39.341914  9352 net.cpp:356] ip3 -> ip3
I0222 20:09:39.341923  9352 net.cpp:96] Setting up ip3
I0222 20:09:39.341955  9352 net.cpp:103] Top shape: 100 2 1 1 (200)
I0222 20:09:39.341971  9352 net.cpp:67] Creating Layer loss
I0222 20:09:39.341977  9352 net.cpp:394] loss <- ip3
I0222 20:09:39.341984  9352 net.cpp:394] loss <- label
I0222 20:09:39.341990  9352 net.cpp:394] loss <- sample_weight
I0222 20:09:39.341997  9352 net.cpp:356] loss -> loss
I0222 20:09:39.342005  9352 net.cpp:96] Setting up loss
I0222 20:09:39.342015  9352 net.cpp:103] Top shape: 1 1 1 1 (1)
I0222 20:09:39.342021  9352 net.cpp:109]     with loss weight 1
I0222 20:09:39.348489  9352 net.cpp:170] loss needs backward computation.
I0222 20:09:39.348496  9352 net.cpp:170] ip3 needs backward computation.
I0222 20:09:39.348501  9352 net.cpp:170] relu2 needs backward computation.
I0222 20:09:39.348506  9352 net.cpp:170] ip2 needs backward computation.
I0222 20:09:39.348511  9352 net.cpp:170] relu1 needs backward computation.
…
I0222 20:09:39.946049  9352 solver.cpp:151] Creating test net (#0) specified by net file: examples/singleNet/train_val_v0.2.prototxt
I0222 20:09:39.946100  9352 net.cpp:275] The NetState phase (1) differed from the phase (0) specified by a rule in layer data
I0222 20:09:39.947345  9352 net.cpp:39] Initializing net from parameters: 
name: "LogisticRegressionNet"
layers {
  top: "data"
  top: "label"
  top: "sample_weight"
  name: "data"
  type: HDF5_DATA
  hdf5_data_param {
    source: "/share/project/shapes/caffe-weighted-samples/examples/singleNet/testFileList.txt"
    batch_size: 10
  }
  include {
    phase: TEST
  }
}
layers {
  bottom: "data"
  top: "conv1"
  name: "conv1"
  type: CONVOLUTION
  blobs_lr: 1
  blobs_lr: 2
  convolution_param {
    num_output: 96
    kernel_size: 4
    stride: 1
    weight_filler {
      type: "xavier"
    }
    bias_filler {
      type: "constant"
    }
  }
}
layers {
  bottom: "conv1"
  top: "conv1"
  name: "relu_conv1"
  type: RELU
}
layers {
  bottom: "conv1"
  top: "pool1"
  name: "pool1"
  type: POOLING
  pooling_param {
    pool: MAX
    kernel_size: 2
    stride: 2
  }
}
layers {
  bottom: "pool1"
  top: "conv2"
  name: "conv2"
  type: CONVOLUTION
  blobs_lr: 1
  blobs_lr: 2
  convolution_param {
    num_output: 256
    kernel_size: 3
    stride: 1
    weight_filler {
      type: "xavier"
    }
    bias_filler {
      type: "constant"
    }
  }
}
layers {
  bottom: "conv2"
  top: "conv2"
  name: "relu_conv2"
  type: RELU
}
layers {
  bottom: "conv2"
  top: "pool2"
  name: "pool2"
  type: POOLING
  pooling_param {
    pool: MAX
    kernel_size: 2
    stride: 2
  }
}
layers {
  bottom: "pool2"
  top: "conv3"
  name: "conv3"
  type: CONVOLUTION
  blobs_lr: 1
  blobs_lr: 2
  convolution_param {
    num_output: 64
    kernel_size: 4
    stride: 1
    weight_filler {
      type: "xavier"
    }
    bias_filler {
      type: "constant"
    }
  }
}
layers {
  bottom: "conv3"
  top: "conv3"
  name: "relu_conv3"
  type: RELU
}
layers {
  bottom: "conv3"
  top: "ip1"
  name: "ip1"
  type: INNER_PRODUCT
  blobs_lr: 1
  blobs_lr: 2
  inner_product_param {
    num_output: 1024
    weight_filler {
      type: "xavier"
    }
    bias_filler {
      type: "constant"
    }
  }
}
layers {
  bottom: "ip1"
  top: "ip1"
  name: "relu1"
  type: RELU
}
layers {
  bottom: "ip1"
  top: "ip2"
  name: "ip2"
  type: INNER_PRODUCT
  blobs_lr: 1
  blobs_lr: 2
  inner_product_param {
    num_output: 1024
    weight_filler {
      type: "xavier"
    }
    bias_filler {
      type: "constant"
    }
  }
}
layers {
  bottom: "ip2"
  top: "ip2"
  name: "relu2"
  type: RELU
}
layers {
  bottom: "ip2"
  top: "ip3"
  name: "ip3"
  type: INNER_PRODUCT
  blobs_lr: 1
  blobs_lr: 2
  inner_product_param {
    num_output: 2
    weight_filler {
      type: "xavier"
    }
    bias_filler {
      type: "constant"
    }
  }
}
layers {
  bottom: "ip3"
  bottom: "label"
  top: "accuracy"
  name: "accuracy"
  type: ACCURACY
  include {
    phase: TEST
  }
}
layers {
  bottom: "ip3"
  bottom: "label"
  bottom: "sample_weight"
  top: "loss"
  name: "loss"
  type: SOFTMAX_LOSS
}
state {
  phase: TEST
}
I0222 20:09:39.947680  9352 net.cpp:67] Creating Layer data
I0222 20:09:39.947692  9352 net.cpp:356] data -> data
I0222 20:09:39.947705  9352 net.cpp:356] data -> label
I0222 20:09:39.947715  9352 net.cpp:356] data -> sample_weight
I0222 20:09:39.947722  9352 net.cpp:96] Setting up data
I0222 20:09:39.947727  9352 hdf5_data_layer.cpp:63] Loading filename from /share/project/shapes/caffe-weighted-samples/examples/singleNet/testFileList.txt
I0222 20:09:39.966999  9352 hdf5_data_layer.cpp:75] Number of files: 1
I0222 20:09:39.967010  9352 hdf5_data_layer.cpp:29] Loading HDF5 file/scratch/stephenchen/shapes/singleNet/hdf5/test_batch_35x35/testHDF_1_35x35.h5
I0222 20:09:52.061609  9352 hdf5_data_layer.cpp:55] Successully loaded 59000 rows
I0222 20:09:52.061637  9352 hdf5_data_layer.cpp:89] output data size: 10,4,35,35
I0222 20:09:52.061645  9352 net.cpp:103] Top shape: 10 4 35 35 (49000)
I0222 20:09:52.061651  9352 net.cpp:103] Top shape: 10 1 1 1 (10)
I0222 20:09:52.061656  9352 net.cpp:103] Top shape: 10 1 1 1 (10)
I0222 20:09:52.061671  9352 net.cpp:67] Creating Layer label_data_1_split
I0222 20:09:52.061677  9352 net.cpp:394] label_data_1_split <- label
I0222 20:09:52.061686  9352 net.cpp:356] label_data_1_split -> label_data_1_split_0
I0222 20:09:52.061698  9352 net.cpp:356] label_data_1_split -> label_data_1_split_1
I0222 20:09:52.061707  9352 net.cpp:96] Setting up label_data_1_split
I0222 20:09:52.061712  9352 net.cpp:103] Top shape: 10 1 1 1 (10)
I0222 20:09:52.061718  9352 net.cpp:103] Top shape: 10 1 1 1 (10)
I0222 20:09:52.061728  9352 net.cpp:67] Creating Layer conv1
I0222 20:09:52.061733  9352 net.cpp:394] conv1 <- data
I0222 20:09:52.061740  9352 net.cpp:356] conv1 -> conv1
I0222 20:09:52.061748  9352 net.cpp:96] Setting up conv1
I0222 20:09:52.061830  9352 net.cpp:103] Top shape: 10 96 32 32 (983040)
I0222 20:09:52.061846  9352 net.cpp:67] Creating Layer relu_conv1
I0222 20:09:52.061852  9352 net.cpp:394] relu_conv1 <- conv1
I0222 20:09:52.061859  9352 net.cpp:345] relu_conv1 -> conv1 (in-place)
I0222 20:09:52.061866  9352 net.cpp:96] Setting up relu_conv1
I0222 20:09:52.061872  9352 net.cpp:103] Top shape: 10 96 32 32 (983040)
I0222 20:09:52.061879  9352 net.cpp:67] Creating Layer pool1
I0222 20:09:52.061885  9352 net.cpp:394] pool1 <- conv1
I0222 20:09:52.061915  9352 net.cpp:356] pool1 -> pool1
I0222 20:09:52.061923  9352 net.cpp:96] Setting up pool1
I0222 20:09:52.061930  9352 net.cpp:103] Top shape: 10 96 16 16 (245760)
I0222 20:09:52.061939  9352 net.cpp:67] Creating Layer conv2
I0222 20:09:52.061944  9352 net.cpp:394] conv2 <- pool1
I0222 20:09:52.061950  9352 net.cpp:356] conv2 -> conv2
I0222 20:09:52.061959  9352 net.cpp:96] Setting up conv2
I0222 20:09:52.064488  9352 net.cpp:103] Top shape: 10 256 14 14 (501760)
I0222 20:09:52.064507  9352 net.cpp:67] Creating Layer relu_conv2
I0222 20:09:52.064512  9352 net.cpp:394] relu_conv2 <- conv2
I0222 20:09:52.064518  9352 net.cpp:345] relu_conv2 -> conv2 (in-place)
I0222 20:09:52.064529  9352 net.cpp:96] Setting up relu_conv2
I0222 20:09:52.064534  9352 net.cpp:103] Top shape: 10 256 14 14 (501760)
I0222 20:09:52.064541  9352 net.cpp:67] Creating Layer pool2
I0222 20:09:52.064546  9352 net.cpp:394] pool2 <- conv2
I0222 20:09:52.064553  9352 net.cpp:356] pool2 -> pool2
I0222 20:09:52.064560  9352 net.cpp:96] Setting up pool2
I0222 20:09:52.064568  9352 net.cpp:103] Top shape: 10 256 7 7 (125440)
I0222 20:09:52.064576  9352 net.cpp:67] Creating Layer conv3
I0222 20:09:52.064581  9352 net.cpp:394] conv3 <- pool2
I0222 20:09:52.064589  9352 net.cpp:356] conv3 -> conv3
I0222 20:09:52.064596  9352 net.cpp:96] Setting up conv3
I0222 20:09:52.067600  9352 net.cpp:103] Top shape: 10 64 4 4 (10240)
I0222 20:09:52.067618  9352 net.cpp:67] Creating Layer relu_conv3
I0222 20:09:52.067625  9352 net.cpp:394] relu_conv3 <- conv3
I0222 20:09:52.067631  9352 net.cpp:345] relu_conv3 -> conv3 (in-place)
I0222 20:09:52.067639  9352 net.cpp:96] Setting up relu_conv3
I0222 20:09:52.067644  9352 net.cpp:103] Top shape: 10 64 4 4 (10240)
I0222 20:09:52.067651  9352 net.cpp:67] Creating Layer ip1
I0222 20:09:52.067656  9352 net.cpp:394] ip1 <- conv3
I0222 20:09:52.067664  9352 net.cpp:356] ip1 -> ip1
I0222 20:09:52.067672  9352 net.cpp:96] Setting up ip1
I0222 20:09:52.079844  9352 net.cpp:103] Top shape: 10 1024 1 1 (10240)
I0222 20:09:52.079874  9352 net.cpp:67] Creating Layer relu1
I0222 20:09:52.079880  9352 net.cpp:394] relu1 <- ip1
I0222 20:09:52.079900  9352 net.cpp:345] relu1 -> ip1 (in-place)
I0222 20:09:52.079910  9352 net.cpp:96] Setting up relu1
I0222 20:09:52.079916  9352 net.cpp:103] Top shape: 10 1024 1 1 (10240)
I0222 20:09:52.079923  9352 net.cpp:67] Creating Layer ip2
I0222 20:09:52.079929  9352 net.cpp:394] ip2 <- ip1
I0222 20:09:52.079936  9352 net.cpp:356] ip2 -> ip2
I0222 20:09:52.079944  9352 net.cpp:96] Setting up ip2
I0222 20:09:52.092181  9352 net.cpp:103] Top shape: 10 1024 1 1 (10240)
I0222 20:09:52.092213  9352 net.cpp:67] Creating Layer relu2
I0222 20:09:52.092221  9352 net.cpp:394] relu2 <- ip2
I0222 20:09:52.092228  9352 net.cpp:345] relu2 -> ip2 (in-place)
I0222 20:09:52.092237  9352 net.cpp:96] Setting up relu2
I0222 20:09:52.092242  9352 net.cpp:103] Top shape: 10 1024 1 1 (10240)
I0222 20:09:52.092250  9352 net.cpp:67] Creating Layer ip3
I0222 20:09:52.092255  9352 net.cpp:394] ip3 <- ip2
I0222 20:09:52.092262  9352 net.cpp:356] ip3 -> ip3
I0222 20:09:52.092270  9352 net.cpp:96] Setting up ip3
I0222 20:09:52.092303  9352 net.cpp:103] Top shape: 10 2 1 1 (20)
I0222 20:09:52.092313  9352 net.cpp:67] Creating Layer ip3_ip3_0_split
I0222 20:09:52.092317  9352 net.cpp:394] ip3_ip3_0_split <- ip3
I0222 20:09:52.092324  9352 net.cpp:356] ip3_ip3_0_split -> ip3_ip3_0_split_0
I0222 20:09:52.092332  9352 net.cpp:356] ip3_ip3_0_split -> ip3_ip3_0_split_1
I0222 20:09:52.092339  9352 net.cpp:96] Setting up ip3_ip3_0_split
I0222 20:09:52.092345  9352 net.cpp:103] Top shape: 10 2 1 1 (20)
I0222 20:09:52.092350  9352 net.cpp:103] Top shape: 10 2 1 1 (20)
I0222 20:09:52.092360  9352 net.cpp:67] Creating Layer accuracy
I0222 20:09:52.092365  9352 net.cpp:394] accuracy <- ip3_ip3_0_split_0
I0222 20:09:52.092371  9352 net.cpp:394] accuracy <- label_data_1_split_0
I0222 20:09:52.092378  9352 net.cpp:356] accuracy -> accuracy
I0222 20:09:52.092386  9352 net.cpp:96] Setting up accuracy
I0222 20:09:52.092391  9352 net.cpp:103] Top shape: 1 1 1 1 (1)
I0222 20:09:52.092399  9352 net.cpp:67] Creating Layer loss
I0222 20:09:52.092404  9352 net.cpp:394] loss <- ip3_ip3_0_split_1
I0222 20:09:52.092411  9352 net.cpp:394] loss <- label_data_1_split_1
I0222 20:09:52.092416  9352 net.cpp:394] loss <- sample_weight
I0222 20:09:52.092422  9352 net.cpp:356] loss -> loss
I0222 20:09:52.092430  9352 net.cpp:96] Setting up loss
I0222 20:09:52.092439  9352 net.cpp:103] Top shape: 1 1 1 1 (1)
I0222 20:09:52.092445  9352 net.cpp:109]     with loss weight 1
I0222 20:09:52.092458  9352 net.cpp:170] loss needs backward computation.
I0222 20:09:52.092464  9352 net.cpp:172] accuracy does not need backward computation.
I0222 20:09:52.092474  9352 net.cpp:170] ip3_ip3_0_split needs backward computation.
I0222 20:09:52.092479  9352 net.cpp:170] ip3 needs backward computation.
I0222 20:09:52.092484  9352 net.cpp:170] relu2 needs backward computation.
…
