…
I0204 23:16:23.670279 16438 net.cpp:275] The NetState phase (0) differed from the phase (1) specified by a rule in layer data
I0204 23:16:23.670300 16438 net.cpp:275] The NetState phase (0) differed from the phase (1) specified by a rule in layer accuracy
I0204 23:16:23.670449 16438 net.cpp:39] Initializing net from parameters: 
name: "LogisticRegressionNet"
layers {
  top: "data"
  top: "label"
  top: "sample_weight"
  name: "data"
  type: HDF5_DATA
  hdf5_data_param {
    source: "/share/project/shapes/caffe-weighted-samples/examples/singleNet/trainFileList.txt"
    batch_size: 100
  }
  include {
    phase: TRAIN
  }
}
layers {
  bottom: "data"
  top: "conv1"
  name: "conv1"
  type: CONVOLUTION
  blobs_lr: 1
  blobs_lr: 2
  convolution_param {
    num_output: 96
    kernel_size: 4
    stride: 1
    weight_filler {
      type: "xavier"
    }
    bias_filler {
      type: "constant"
    }
  }
}
layers {
  bottom: "conv1"
  top: "conv1"
  name: "relu_conv1"
  type: RELU
}
layers {
  bottom: "conv1"
  top: "pool1"
  name: "pool1"
  type: POOLING
  pooling_param {
    pool: MAX
    kernel_size: 2
    stride: 2
  }
}
layers {
  bottom: "pool1"
  top: "conv2"
  name: "conv2"
  type: CONVOLUTION
  blobs_lr: 1
  blobs_lr: 2
  convolution_param {
    num_output: 256
    kernel_size: 3
    stride: 1
    weight_filler {
      type: "xavier"
    }
    bias_filler {
      type: "constant"
    }
  }
}
layers {
  bottom: "conv2"
  top: "conv2"
  name: "relu_conv2"
  type: RELU
}
layers {
  bottom: "conv2"
  top: "pool2"
  name: "pool2"
  type: POOLING
  pooling_param {
    pool: MAX
    kernel_size: 2
    stride: 2
  }
}
layers {
  bottom: "pool2"
  top: "conv3"
  name: "conv3"
  type: CONVOLUTION
  blobs_lr: 1
  blobs_lr: 2
  convolution_param {
    num_output: 64
    kernel_size: 4
    stride: 1
    weight_filler {
      type: "xavier"
    }
    bias_filler {
      type: "constant"
    }
  }
}
layers {
  bottom: "conv3"
  top: "conv3"
  name: "relu_conv3"
  type: RELU
}
layers {
  bottom: "conv3"
  top: "ip1"
  name: "ip1"
  type: INNER_PRODUCT
  blobs_lr: 1
  blobs_lr: 2
  inner_product_param {
    num_output: 256
    weight_filler {
      type: "xavier"
    }
    bias_filler {
      type: "constant"
    }
  }
}
layers {
  bottom: "ip1"
  top: "ip1"
  name: "relu1"
  type: RELU
}
layers {
  bottom: "ip1"
  top: "ip2"
  name: "ip2"
  type: INNER_PRODUCT
  blobs_lr: 1
  blobs_lr: 2
  inner_product_param {
    num_output: 256
    weight_filler {
      type: "xavier"
    }
    bias_filler {
      type: "constant"
    }
  }
}
layers {
  bottom: "ip2"
  top: "ip2"
  name: "relu2"
  type: RELU
}
layers {
  bottom: "ip2"
  top: "ip3"
  name: "ip3"
  type: INNER_PRODUCT
  blobs_lr: 1
  blobs_lr: 2
  inner_product_param {
    num_output: 2
    weight_filler {
      type: "xavier"
    }
    bias_filler {
      type: "constant"
    }
  }
}
layers {
  bottom: "ip3"
  bottom: "label"
  bottom: "sample_weight"
  top: "loss"
  name: "loss"
  type: SOFTMAX_LOSS
}
state {
  phase: TRAIN
}
I0204 23:16:23.670640 16438 net.cpp:67] Creating Layer data
I0204 23:16:23.670655 16438 net.cpp:356] data -> data
I0204 23:16:23.670681 16438 net.cpp:356] data -> label
I0204 23:16:23.670699 16438 net.cpp:356] data -> sample_weight
I0204 23:16:23.670708 16438 net.cpp:96] Setting up data
I0204 23:16:23.670717 16438 hdf5_data_layer.cpp:63] Loading filename from /share/project/shapes/caffe-weighted-samples/examples/singleNet/trainFileList.txt
I0204 23:16:23.679378 16438 hdf5_data_layer.cpp:75] Number of files: 15
I0204 23:16:23.679399 16438 hdf5_data_layer.cpp:29] Loading HDF5 file/scratch/stephenchen/shapes/singleNet/hdf5/train_batch_35x35/trainHDF_1_35x35.h5
I0204 23:17:04.773839 16438 hdf5_data_layer.cpp:55] Successully loaded 220600 rows
I0204 23:17:04.774447 16438 hdf5_data_layer.cpp:89] output data size: 100,4,35,35
I0204 23:17:04.774546 16438 net.cpp:103] Top shape: 100 4 35 35 (490000)
I0204 23:17:04.774561 16438 net.cpp:103] Top shape: 100 1 1 1 (100)
I0204 23:17:04.774569 16438 net.cpp:103] Top shape: 100 1 1 1 (100)
I0204 23:17:04.774588 16438 net.cpp:67] Creating Layer conv1
I0204 23:17:04.774597 16438 net.cpp:394] conv1 <- data
I0204 23:17:04.774626 16438 net.cpp:356] conv1 -> conv1
I0204 23:17:04.774657 16438 net.cpp:96] Setting up conv1
I0204 23:17:04.775928 16438 net.cpp:103] Top shape: 100 96 32 32 (9830400)
I0204 23:17:04.776015 16438 net.cpp:67] Creating Layer relu_conv1
I0204 23:17:04.776026 16438 net.cpp:394] relu_conv1 <- conv1
I0204 23:17:04.776039 16438 net.cpp:345] relu_conv1 -> conv1 (in-place)
I0204 23:17:04.776051 16438 net.cpp:96] Setting up relu_conv1
I0204 23:17:04.776060 16438 net.cpp:103] Top shape: 100 96 32 32 (9830400)
I0204 23:17:04.776072 16438 net.cpp:67] Creating Layer pool1
I0204 23:17:04.776082 16438 net.cpp:394] pool1 <- conv1
I0204 23:17:04.776093 16438 net.cpp:356] pool1 -> pool1
I0204 23:17:04.776105 16438 net.cpp:96] Setting up pool1
I0204 23:17:04.776136 16438 net.cpp:103] Top shape: 100 96 16 16 (2457600)
I0204 23:17:04.776151 16438 net.cpp:67] Creating Layer conv2
I0204 23:17:04.776160 16438 net.cpp:394] conv2 <- pool1
I0204 23:17:04.776172 16438 net.cpp:356] conv2 -> conv2
I0204 23:17:04.776186 16438 net.cpp:96] Setting up conv2
I0204 23:17:04.779430 16438 net.cpp:103] Top shape: 100 256 14 14 (5017600)
I0204 23:17:04.779449 16438 net.cpp:67] Creating Layer relu_conv2
I0204 23:17:04.779454 16438 net.cpp:394] relu_conv2 <- conv2
I0204 23:17:04.779461 16438 net.cpp:345] relu_conv2 -> conv2 (in-place)
I0204 23:17:04.779469 16438 net.cpp:96] Setting up relu_conv2
I0204 23:17:04.779474 16438 net.cpp:103] Top shape: 100 256 14 14 (5017600)
I0204 23:17:04.779484 16438 net.cpp:67] Creating Layer pool2
I0204 23:17:04.779489 16438 net.cpp:394] pool2 <- conv2
I0204 23:17:04.779495 16438 net.cpp:356] pool2 -> pool2
I0204 23:17:04.779501 16438 net.cpp:96] Setting up pool2
I0204 23:17:04.779520 16438 net.cpp:103] Top shape: 100 256 7 7 (1254400)
I0204 23:17:04.779528 16438 net.cpp:67] Creating Layer conv3
I0204 23:17:04.779533 16438 net.cpp:394] conv3 <- pool2
I0204 23:17:04.779541 16438 net.cpp:356] conv3 -> conv3
I0204 23:17:04.779548 16438 net.cpp:96] Setting up conv3
I0204 23:17:04.782439 16438 net.cpp:103] Top shape: 100 64 4 4 (102400)
I0204 23:17:04.782459 16438 net.cpp:67] Creating Layer relu_conv3
I0204 23:17:04.782464 16438 net.cpp:394] relu_conv3 <- conv3
I0204 23:17:04.782470 16438 net.cpp:345] relu_conv3 -> conv3 (in-place)
I0204 23:17:04.782480 16438 net.cpp:96] Setting up relu_conv3
I0204 23:17:04.782485 16438 net.cpp:103] Top shape: 100 64 4 4 (102400)
I0204 23:17:04.782493 16438 net.cpp:67] Creating Layer ip1
I0204 23:17:04.782498 16438 net.cpp:394] ip1 <- conv3
I0204 23:17:04.782505 16438 net.cpp:356] ip1 -> ip1
I0204 23:17:04.782531 16438 net.cpp:96] Setting up ip1
I0204 23:17:04.785403 16438 net.cpp:103] Top shape: 100 256 1 1 (25600)
I0204 23:17:04.785419 16438 net.cpp:67] Creating Layer relu1
I0204 23:17:04.785425 16438 net.cpp:394] relu1 <- ip1
I0204 23:17:04.785433 16438 net.cpp:345] relu1 -> ip1 (in-place)
I0204 23:17:04.785439 16438 net.cpp:96] Setting up relu1
I0204 23:17:04.785444 16438 net.cpp:103] Top shape: 100 256 1 1 (25600)
I0204 23:17:04.785450 16438 net.cpp:67] Creating Layer ip2
I0204 23:17:04.785455 16438 net.cpp:394] ip2 <- ip1
I0204 23:17:04.785462 16438 net.cpp:356] ip2 -> ip2
I0204 23:17:04.785470 16438 net.cpp:96] Setting up ip2
I0204 23:17:04.786169 16438 net.cpp:103] Top shape: 100 256 1 1 (25600)
I0204 23:17:04.786185 16438 net.cpp:67] Creating Layer relu2
I0204 23:17:04.786191 16438 net.cpp:394] relu2 <- ip2
I0204 23:17:04.786198 16438 net.cpp:345] relu2 -> ip2 (in-place)
I0204 23:17:04.786206 16438 net.cpp:96] Setting up relu2
I0204 23:17:04.786211 16438 net.cpp:103] Top shape: 100 256 1 1 (25600)
I0204 23:17:04.786217 16438 net.cpp:67] Creating Layer ip3
I0204 23:17:04.786222 16438 net.cpp:394] ip3 <- ip2
I0204 23:17:04.786228 16438 net.cpp:356] ip3 -> ip3
I0204 23:17:04.786237 16438 net.cpp:96] Setting up ip3
I0204 23:17:04.786250 16438 net.cpp:103] Top shape: 100 2 1 1 (200)
I0204 23:17:04.786264 16438 net.cpp:67] Creating Layer loss
I0204 23:17:04.786270 16438 net.cpp:394] loss <- ip3
I0204 23:17:04.786275 16438 net.cpp:394] loss <- label
I0204 23:17:04.786281 16438 net.cpp:394] loss <- sample_weight
I0204 23:17:04.786288 16438 net.cpp:356] loss -> loss
I0204 23:17:04.786295 16438 net.cpp:96] Setting up loss
I0204 23:17:04.786305 16438 net.cpp:103] Top shape: 1 1 1 1 (1)
I0204 23:17:04.786310 16438 net.cpp:109]     with loss weight 1
I0204 23:17:04.786367 16438 net.cpp:170] loss needs backward computation.
I0204 23:17:04.786375 16438 net.cpp:170] ip3 needs backward computation.
I0204 23:17:04.786380 16438 net.cpp:170] relu2 needs backward computation.
I0204 23:17:04.786383 16438 net.cpp:170] ip2 needs backward computation.
I0204 23:17:04.786388 16438 net.cpp:170] relu1 needs backward computation.
…
I0204 23:17:04.788389 16438 solver.cpp:151] Creating test net (#0) specified by net file: examples/singleNet/train_val_v0.3.prototxt
I0204 23:17:04.788441 16438 net.cpp:275] The NetState phase (1) differed from the phase (0) specified by a rule in layer data
I0204 23:17:04.788734 16438 net.cpp:39] Initializing net from parameters: 
name: "LogisticRegressionNet"
layers {
  top: "data"
  top: "label"
  top: "sample_weight"
  name: "data"
  type: HDF5_DATA
  hdf5_data_param {
    source: "/share/project/shapes/caffe-weighted-samples/examples/singleNet/testFileList.txt"
    batch_size: 10
  }
  include {
    phase: TEST
  }
}
layers {
  bottom: "data"
  top: "conv1"
  name: "conv1"
  type: CONVOLUTION
  blobs_lr: 1
  blobs_lr: 2
  convolution_param {
    num_output: 96
    kernel_size: 4
    stride: 1
    weight_filler {
      type: "xavier"
    }
    bias_filler {
      type: "constant"
    }
  }
}
layers {
  bottom: "conv1"
  top: "conv1"
  name: "relu_conv1"
  type: RELU
}
layers {
  bottom: "conv1"
  top: "pool1"
  name: "pool1"
  type: POOLING
  pooling_param {
    pool: MAX
    kernel_size: 2
    stride: 2
  }
}
layers {
  bottom: "pool1"
  top: "conv2"
  name: "conv2"
  type: CONVOLUTION
  blobs_lr: 1
  blobs_lr: 2
  convolution_param {
    num_output: 256
    kernel_size: 3
    stride: 1
    weight_filler {
      type: "xavier"
    }
    bias_filler {
      type: "constant"
    }
  }
}
layers {
  bottom: "conv2"
  top: "conv2"
  name: "relu_conv2"
  type: RELU
}
layers {
  bottom: "conv2"
  top: "pool2"
  name: "pool2"
  type: POOLING
  pooling_param {
    pool: MAX
    kernel_size: 2
    stride: 2
  }
}
layers {
  bottom: "pool2"
  top: "conv3"
  name: "conv3"
  type: CONVOLUTION
  blobs_lr: 1
  blobs_lr: 2
  convolution_param {
    num_output: 64
    kernel_size: 4
    stride: 1
    weight_filler {
      type: "xavier"
    }
    bias_filler {
      type: "constant"
    }
  }
}
layers {
  bottom: "conv3"
  top: "conv3"
  name: "relu_conv3"
  type: RELU
}
layers {
  bottom: "conv3"
  top: "ip1"
  name: "ip1"
  type: INNER_PRODUCT
  blobs_lr: 1
  blobs_lr: 2
  inner_product_param {
    num_output: 256
    weight_filler {
      type: "xavier"
    }
    bias_filler {
      type: "constant"
    }
  }
}
layers {
  bottom: "ip1"
  top: "ip1"
  name: "relu1"
  type: RELU
}
layers {
  bottom: "ip1"
  top: "ip2"
  name: "ip2"
  type: INNER_PRODUCT
  blobs_lr: 1
  blobs_lr: 2
  inner_product_param {
    num_output: 256
    weight_filler {
      type: "xavier"
    }
    bias_filler {
      type: "constant"
    }
  }
}
layers {
  bottom: "ip2"
  top: "ip2"
  name: "relu2"
  type: RELU
}
layers {
  bottom: "ip2"
  top: "ip3"
  name: "ip3"
  type: INNER_PRODUCT
  blobs_lr: 1
  blobs_lr: 2
  inner_product_param {
    num_output: 2
    weight_filler {
      type: "xavier"
    }
    bias_filler {
      type: "constant"
    }
  }
}
layers {
  bottom: "ip3"
  bottom: "label"
  top: "accuracy"
  name: "accuracy"
  type: ACCURACY
  include {
    phase: TEST
  }
}
layers {
  bottom: "ip3"
  bottom: "label"
  bottom: "sample_weight"
  top: "loss"
  name: "loss"
  type: SOFTMAX_LOSS
}
state {
  phase: TEST
}
I0204 23:17:04.789050 16438 net.cpp:67] Creating Layer data
I0204 23:17:04.789067 16438 net.cpp:356] data -> data
I0204 23:17:04.789083 16438 net.cpp:356] data -> label
I0204 23:17:04.789098 16438 net.cpp:356] data -> sample_weight
I0204 23:17:04.789113 16438 net.cpp:96] Setting up data
I0204 23:17:04.789121 16438 hdf5_data_layer.cpp:63] Loading filename from /share/project/shapes/caffe-weighted-samples/examples/singleNet/testFileList.txt
I0204 23:17:04.812177 16438 hdf5_data_layer.cpp:75] Number of files: 4
I0204 23:17:04.812198 16438 hdf5_data_layer.cpp:29] Loading HDF5 file/scratch/stephenchen/shapes/singleNet/hdf5/test_batch_35x35/testHDF_1_35x35.h5
I0204 23:17:30.561458 16438 hdf5_data_layer.cpp:55] Successully loaded 112600 rows
I0204 23:17:30.561491 16438 hdf5_data_layer.cpp:89] output data size: 10,4,35,35
I0204 23:17:30.561501 16438 net.cpp:103] Top shape: 10 4 35 35 (49000)
I0204 23:17:30.561509 16438 net.cpp:103] Top shape: 10 1 1 1 (10)
I0204 23:17:30.561517 16438 net.cpp:103] Top shape: 10 1 1 1 (10)
I0204 23:17:30.561533 16438 net.cpp:67] Creating Layer label_data_1_split
I0204 23:17:30.561561 16438 net.cpp:394] label_data_1_split <- label
I0204 23:17:30.561578 16438 net.cpp:356] label_data_1_split -> label_data_1_split_0
I0204 23:17:30.561594 16438 net.cpp:356] label_data_1_split -> label_data_1_split_1
I0204 23:17:30.561605 16438 net.cpp:96] Setting up label_data_1_split
I0204 23:17:30.561614 16438 net.cpp:103] Top shape: 10 1 1 1 (10)
I0204 23:17:30.561621 16438 net.cpp:103] Top shape: 10 1 1 1 (10)
I0204 23:17:30.561635 16438 net.cpp:67] Creating Layer conv1
I0204 23:17:30.561642 16438 net.cpp:394] conv1 <- data
I0204 23:17:30.561652 16438 net.cpp:356] conv1 -> conv1
I0204 23:17:30.561663 16438 net.cpp:96] Setting up conv1
I0204 23:17:30.561774 16438 net.cpp:103] Top shape: 10 96 32 32 (983040)
I0204 23:17:30.561795 16438 net.cpp:67] Creating Layer relu_conv1
I0204 23:17:30.561803 16438 net.cpp:394] relu_conv1 <- conv1
I0204 23:17:30.561812 16438 net.cpp:345] relu_conv1 -> conv1 (in-place)
I0204 23:17:30.561822 16438 net.cpp:96] Setting up relu_conv1
I0204 23:17:30.561830 16438 net.cpp:103] Top shape: 10 96 32 32 (983040)
I0204 23:17:30.561841 16438 net.cpp:67] Creating Layer pool1
I0204 23:17:30.561847 16438 net.cpp:394] pool1 <- conv1
I0204 23:17:30.561856 16438 net.cpp:356] pool1 -> pool1
I0204 23:17:30.561866 16438 net.cpp:96] Setting up pool1
I0204 23:17:30.561877 16438 net.cpp:103] Top shape: 10 96 16 16 (245760)
I0204 23:17:30.561887 16438 net.cpp:67] Creating Layer conv2
I0204 23:17:30.561893 16438 net.cpp:394] conv2 <- pool1
I0204 23:17:30.561903 16438 net.cpp:356] conv2 -> conv2
I0204 23:17:30.561913 16438 net.cpp:96] Setting up conv2
I0204 23:17:30.565409 16438 net.cpp:103] Top shape: 10 256 14 14 (501760)
I0204 23:17:30.565431 16438 net.cpp:67] Creating Layer relu_conv2
I0204 23:17:30.565439 16438 net.cpp:394] relu_conv2 <- conv2
I0204 23:17:30.565449 16438 net.cpp:345] relu_conv2 -> conv2 (in-place)
I0204 23:17:30.565464 16438 net.cpp:96] Setting up relu_conv2
I0204 23:17:30.565470 16438 net.cpp:103] Top shape: 10 256 14 14 (501760)
I0204 23:17:30.565480 16438 net.cpp:67] Creating Layer pool2
I0204 23:17:30.565486 16438 net.cpp:394] pool2 <- conv2
I0204 23:17:30.565495 16438 net.cpp:356] pool2 -> pool2
I0204 23:17:30.565506 16438 net.cpp:96] Setting up pool2
I0204 23:17:30.565515 16438 net.cpp:103] Top shape: 10 256 7 7 (125440)
I0204 23:17:30.565527 16438 net.cpp:67] Creating Layer conv3
I0204 23:17:30.565536 16438 net.cpp:394] conv3 <- pool2
I0204 23:17:30.565560 16438 net.cpp:356] conv3 -> conv3
I0204 23:17:30.565572 16438 net.cpp:96] Setting up conv3
I0204 23:17:30.569059 16438 net.cpp:103] Top shape: 10 64 4 4 (10240)
I0204 23:17:30.569077 16438 net.cpp:67] Creating Layer relu_conv3
I0204 23:17:30.569082 16438 net.cpp:394] relu_conv3 <- conv3
I0204 23:17:30.569089 16438 net.cpp:345] relu_conv3 -> conv3 (in-place)
I0204 23:17:30.569097 16438 net.cpp:96] Setting up relu_conv3
I0204 23:17:30.569100 16438 net.cpp:103] Top shape: 10 64 4 4 (10240)
I0204 23:17:30.569108 16438 net.cpp:67] Creating Layer ip1
I0204 23:17:30.569113 16438 net.cpp:394] ip1 <- conv3
I0204 23:17:30.569119 16438 net.cpp:356] ip1 -> ip1
I0204 23:17:30.569126 16438 net.cpp:96] Setting up ip1
I0204 23:17:30.572017 16438 net.cpp:103] Top shape: 10 256 1 1 (2560)
I0204 23:17:30.572032 16438 net.cpp:67] Creating Layer relu1
I0204 23:17:30.572038 16438 net.cpp:394] relu1 <- ip1
I0204 23:17:30.572046 16438 net.cpp:345] relu1 -> ip1 (in-place)
I0204 23:17:30.572052 16438 net.cpp:96] Setting up relu1
I0204 23:17:30.572057 16438 net.cpp:103] Top shape: 10 256 1 1 (2560)
I0204 23:17:30.572063 16438 net.cpp:67] Creating Layer ip2
I0204 23:17:30.572068 16438 net.cpp:394] ip2 <- ip1
I0204 23:17:30.572075 16438 net.cpp:356] ip2 -> ip2
I0204 23:17:30.572082 16438 net.cpp:96] Setting up ip2
I0204 23:17:30.572747 16438 net.cpp:103] Top shape: 10 256 1 1 (2560)
I0204 23:17:30.572764 16438 net.cpp:67] Creating Layer relu2
I0204 23:17:30.572770 16438 net.cpp:394] relu2 <- ip2
I0204 23:17:30.572777 16438 net.cpp:345] relu2 -> ip2 (in-place)
I0204 23:17:30.572783 16438 net.cpp:96] Setting up relu2
I0204 23:17:30.572788 16438 net.cpp:103] Top shape: 10 256 1 1 (2560)
I0204 23:17:30.572796 16438 net.cpp:67] Creating Layer ip3
I0204 23:17:30.572801 16438 net.cpp:394] ip3 <- ip2
I0204 23:17:30.572808 16438 net.cpp:356] ip3 -> ip3
I0204 23:17:30.572815 16438 net.cpp:96] Setting up ip3
I0204 23:17:30.572829 16438 net.cpp:103] Top shape: 10 2 1 1 (20)
I0204 23:17:30.572839 16438 net.cpp:67] Creating Layer ip3_ip3_0_split
I0204 23:17:30.572844 16438 net.cpp:394] ip3_ip3_0_split <- ip3
I0204 23:17:30.572850 16438 net.cpp:356] ip3_ip3_0_split -> ip3_ip3_0_split_0
I0204 23:17:30.572859 16438 net.cpp:356] ip3_ip3_0_split -> ip3_ip3_0_split_1
I0204 23:17:30.572865 16438 net.cpp:96] Setting up ip3_ip3_0_split
I0204 23:17:30.572871 16438 net.cpp:103] Top shape: 10 2 1 1 (20)
I0204 23:17:30.572876 16438 net.cpp:103] Top shape: 10 2 1 1 (20)
I0204 23:17:30.572885 16438 net.cpp:67] Creating Layer accuracy
I0204 23:17:30.572890 16438 net.cpp:394] accuracy <- ip3_ip3_0_split_0
I0204 23:17:30.572896 16438 net.cpp:394] accuracy <- label_data_1_split_0
I0204 23:17:30.572901 16438 net.cpp:356] accuracy -> accuracy
I0204 23:17:30.572909 16438 net.cpp:96] Setting up accuracy
I0204 23:17:30.572914 16438 net.cpp:103] Top shape: 1 1 1 1 (1)
I0204 23:17:30.572922 16438 net.cpp:67] Creating Layer loss
I0204 23:17:30.572927 16438 net.cpp:394] loss <- ip3_ip3_0_split_1
I0204 23:17:30.572932 16438 net.cpp:394] loss <- label_data_1_split_1
I0204 23:17:30.572938 16438 net.cpp:394] loss <- sample_weight
I0204 23:17:30.572944 16438 net.cpp:356] loss -> loss
I0204 23:17:30.572952 16438 net.cpp:96] Setting up loss
I0204 23:17:30.572962 16438 net.cpp:103] Top shape: 1 1 1 1 (1)
I0204 23:17:30.572967 16438 net.cpp:109]     with loss weight 1
I0204 23:17:30.572980 16438 net.cpp:170] loss needs backward computation.
I0204 23:17:30.572985 16438 net.cpp:172] accuracy does not need backward computation.
I0204 23:17:30.572994 16438 net.cpp:170] ip3_ip3_0_split needs backward computation.
I0204 23:17:30.572999 16438 net.cpp:170] ip3 needs backward computation.
I0204 23:17:30.573004 16438 net.cpp:170] relu2 needs backward computation.
…
