…
I0222 20:45:31.142156 12673 net.cpp:275] The NetState phase (0) differed from the phase (1) specified by a rule in layer data
I0222 20:45:31.142204 12673 net.cpp:275] The NetState phase (0) differed from the phase (1) specified by a rule in layer accuracy
I0222 20:45:31.142431 12673 net.cpp:39] Initializing net from parameters: 
name: "LogisticRegressionNet"
layers {
  top: "data"
  top: "label"
  top: "sample_weight"
  name: "data"
  type: HDF5_DATA
  hdf5_data_param {
    source: "/share/project/shapes/caffe-weighted-samples/examples/singleNet/trainFileList.txt"
    batch_size: 100
  }
  include {
    phase: TRAIN
  }
}
layers {
  bottom: "data"
  top: "conv1"
  name: "conv1"
  type: CONVOLUTION
  blobs_lr: 1
  blobs_lr: 2
  convolution_param {
    num_output: 96
    kernel_size: 4
    stride: 1
    weight_filler {
      type: "xavier"
    }
    bias_filler {
      type: "constant"
    }
  }
}
layers {
  bottom: "conv1"
  top: "conv1"
  name: "relu_conv1"
  type: RELU
}
layers {
  bottom: "conv1"
  top: "pool1"
  name: "pool1"
  type: POOLING
  pooling_param {
    pool: MAX
    kernel_size: 2
    stride: 2
  }
}
layers {
  bottom: "pool1"
  top: "conv2"
  name: "conv2"
  type: CONVOLUTION
  blobs_lr: 1
  blobs_lr: 2
  convolution_param {
    num_output: 256
    kernel_size: 3
    stride: 1
    weight_filler {
      type: "xavier"
    }
    bias_filler {
      type: "constant"
    }
  }
}
layers {
  bottom: "conv2"
  top: "conv2"
  name: "relu_conv2"
  type: RELU
}
layers {
  bottom: "conv2"
  top: "pool2"
  name: "pool2"
  type: POOLING
  pooling_param {
    pool: MAX
    kernel_size: 2
    stride: 2
  }
}
layers {
  bottom: "pool2"
  top: "conv3"
  name: "conv3"
  type: CONVOLUTION
  blobs_lr: 1
  blobs_lr: 2
  convolution_param {
    num_output: 64
    kernel_size: 4
    stride: 1
    weight_filler {
      type: "xavier"
    }
    bias_filler {
      type: "constant"
    }
  }
}
layers {
  bottom: "conv3"
  top: "conv3"
  name: "relu_conv3"
  type: RELU
}
layers {
  bottom: "conv3"
  top: "ip1"
  name: "ip1"
  type: INNER_PRODUCT
  blobs_lr: 1
  blobs_lr: 2
  inner_product_param {
    num_output: 1024
    weight_filler {
      type: "xavier"
    }
    bias_filler {
      type: "constant"
    }
  }
}
layers {
  bottom: "ip1"
  top: "ip1"
  name: "relu1"
  type: RELU
}
layers {
  bottom: "ip1"
  top: "ip2"
  name: "ip2"
  type: INNER_PRODUCT
  blobs_lr: 1
  blobs_lr: 2
  inner_product_param {
    num_output: 1024
    weight_filler {
      type: "xavier"
    }
    bias_filler {
      type: "constant"
    }
  }
}
layers {
  bottom: "ip2"
  top: "ip2"
  name: "relu2"
  type: RELU
}
layers {
  bottom: "ip2"
  top: "ip3"
  name: "ip3"
  type: INNER_PRODUCT
  blobs_lr: 1
  blobs_lr: 2
  inner_product_param {
    num_output: 2
    weight_filler {
      type: "xavier"
    }
    bias_filler {
      type: "constant"
    }
  }
}
layers {
  bottom: "ip3"
  bottom: "label"
  bottom: "sample_weight"
  top: "loss"
  name: "loss"
  type: SOFTMAX_LOSS
}
state {
  phase: TRAIN
}
I0222 20:45:31.142601 12673 net.cpp:67] Creating Layer data
I0222 20:45:31.142613 12673 net.cpp:356] data -> data
I0222 20:45:31.142645 12673 net.cpp:356] data -> label
I0222 20:45:31.142689 12673 net.cpp:356] data -> sample_weight
I0222 20:45:31.142700 12673 net.cpp:96] Setting up data
I0222 20:45:31.142709 12673 hdf5_data_layer.cpp:63] Loading filename from /share/project/shapes/caffe-weighted-samples/examples/singleNet/trainFileList.txt
I0222 20:45:31.158665 12673 hdf5_data_layer.cpp:75] Number of files: 15
I0222 20:45:31.158740 12673 hdf5_data_layer.cpp:29] Loading HDF5 file/scratch/stephenchen/shapes/singleNet/hdf5/train_batch_realTrans9_35x35/trainHDF_1_35x35.h5
I0222 20:46:20.271478 12673 hdf5_data_layer.cpp:55] Successully loaded 220600 rows
I0222 20:46:20.272269 12673 hdf5_data_layer.cpp:89] output data size: 100,4,35,35
I0222 20:46:20.711098 12673 net.cpp:103] Top shape: 100 4 35 35 (490000)
I0222 20:46:20.711113 12673 net.cpp:103] Top shape: 100 1 1 1 (100)
I0222 20:46:20.711119 12673 net.cpp:103] Top shape: 100 1 1 1 (100)
I0222 20:46:20.711138 12673 net.cpp:67] Creating Layer conv1
I0222 20:46:20.711144 12673 net.cpp:394] conv1 <- data
I0222 20:46:20.737285 12673 net.cpp:356] conv1 -> conv1
I0222 20:46:20.994444 12673 net.cpp:96] Setting up conv1
I0222 20:46:21.010555 12673 net.cpp:103] Top shape: 100 96 32 32 (9830400)
I0222 20:46:21.018785 12673 net.cpp:67] Creating Layer relu_conv1
I0222 20:46:21.018800 12673 net.cpp:394] relu_conv1 <- conv1
I0222 20:46:21.018818 12673 net.cpp:345] relu_conv1 -> conv1 (in-place)
I0222 20:46:21.018828 12673 net.cpp:96] Setting up relu_conv1
I0222 20:46:21.018833 12673 net.cpp:103] Top shape: 100 96 32 32 (9830400)
I0222 20:46:21.018841 12673 net.cpp:67] Creating Layer pool1
I0222 20:46:21.018846 12673 net.cpp:394] pool1 <- conv1
I0222 20:46:21.018852 12673 net.cpp:356] pool1 -> pool1
I0222 20:46:21.018862 12673 net.cpp:96] Setting up pool1
I0222 20:46:21.018884 12673 net.cpp:103] Top shape: 100 96 16 16 (2457600)
I0222 20:46:21.018895 12673 net.cpp:67] Creating Layer conv2
I0222 20:46:21.018900 12673 net.cpp:394] conv2 <- pool1
I0222 20:46:21.018908 12673 net.cpp:356] conv2 -> conv2
I0222 20:46:21.018915 12673 net.cpp:96] Setting up conv2
I0222 20:46:21.021442 12673 net.cpp:103] Top shape: 100 256 14 14 (5017600)
I0222 20:46:21.021461 12673 net.cpp:67] Creating Layer relu_conv2
I0222 20:46:21.021466 12673 net.cpp:394] relu_conv2 <- conv2
I0222 20:46:21.021472 12673 net.cpp:345] relu_conv2 -> conv2 (in-place)
I0222 20:46:21.021479 12673 net.cpp:96] Setting up relu_conv2
I0222 20:46:21.021484 12673 net.cpp:103] Top shape: 100 256 14 14 (5017600)
I0222 20:46:21.021492 12673 net.cpp:67] Creating Layer pool2
I0222 20:46:21.021497 12673 net.cpp:394] pool2 <- conv2
I0222 20:46:21.021502 12673 net.cpp:356] pool2 -> pool2
I0222 20:46:21.021509 12673 net.cpp:96] Setting up pool2
I0222 20:46:21.021515 12673 net.cpp:103] Top shape: 100 256 7 7 (1254400)
I0222 20:46:21.021523 12673 net.cpp:67] Creating Layer conv3
I0222 20:46:21.021528 12673 net.cpp:394] conv3 <- pool2
I0222 20:46:21.021534 12673 net.cpp:356] conv3 -> conv3
I0222 20:46:21.021543 12673 net.cpp:96] Setting up conv3
I0222 20:46:21.024700 12673 net.cpp:103] Top shape: 100 64 4 4 (102400)
I0222 20:46:21.024730 12673 net.cpp:67] Creating Layer relu_conv3
I0222 20:46:21.024737 12673 net.cpp:394] relu_conv3 <- conv3
I0222 20:46:21.024745 12673 net.cpp:345] relu_conv3 -> conv3 (in-place)
I0222 20:46:21.024754 12673 net.cpp:96] Setting up relu_conv3
I0222 20:46:21.024759 12673 net.cpp:103] Top shape: 100 64 4 4 (102400)
I0222 20:46:21.024766 12673 net.cpp:67] Creating Layer ip1
I0222 20:46:21.024770 12673 net.cpp:394] ip1 <- conv3
I0222 20:46:21.024778 12673 net.cpp:356] ip1 -> ip1
I0222 20:46:21.024787 12673 net.cpp:96] Setting up ip1
I0222 20:46:21.037034 12673 net.cpp:103] Top shape: 100 1024 1 1 (102400)
I0222 20:46:21.037065 12673 net.cpp:67] Creating Layer relu1
I0222 20:46:21.037072 12673 net.cpp:394] relu1 <- ip1
I0222 20:46:21.037081 12673 net.cpp:345] relu1 -> ip1 (in-place)
I0222 20:46:21.037091 12673 net.cpp:96] Setting up relu1
I0222 20:46:21.037096 12673 net.cpp:103] Top shape: 100 1024 1 1 (102400)
I0222 20:46:21.037102 12673 net.cpp:67] Creating Layer ip2
I0222 20:46:21.037107 12673 net.cpp:394] ip2 <- ip1
I0222 20:46:21.037114 12673 net.cpp:356] ip2 -> ip2
I0222 20:46:21.037122 12673 net.cpp:96] Setting up ip2
I0222 20:46:21.050142 12673 net.cpp:103] Top shape: 100 1024 1 1 (102400)
I0222 20:46:21.050185 12673 net.cpp:67] Creating Layer relu2
I0222 20:46:21.050192 12673 net.cpp:394] relu2 <- ip2
I0222 20:46:21.050201 12673 net.cpp:345] relu2 -> ip2 (in-place)
I0222 20:46:21.050210 12673 net.cpp:96] Setting up relu2
I0222 20:46:21.050215 12673 net.cpp:103] Top shape: 100 1024 1 1 (102400)
I0222 20:46:21.050223 12673 net.cpp:67] Creating Layer ip3
I0222 20:46:21.050228 12673 net.cpp:394] ip3 <- ip2
I0222 20:46:21.050235 12673 net.cpp:356] ip3 -> ip3
I0222 20:46:21.050243 12673 net.cpp:96] Setting up ip3
I0222 20:46:21.050276 12673 net.cpp:103] Top shape: 100 2 1 1 (200)
I0222 20:46:21.050293 12673 net.cpp:67] Creating Layer loss
I0222 20:46:21.050298 12673 net.cpp:394] loss <- ip3
I0222 20:46:21.050304 12673 net.cpp:394] loss <- label
I0222 20:46:21.050310 12673 net.cpp:394] loss <- sample_weight
I0222 20:46:21.050318 12673 net.cpp:356] loss -> loss
I0222 20:46:21.050324 12673 net.cpp:96] Setting up loss
I0222 20:46:21.050334 12673 net.cpp:103] Top shape: 1 1 1 1 (1)
I0222 20:46:21.050340 12673 net.cpp:109]     with loss weight 1
I0222 20:46:21.059800 12673 net.cpp:170] loss needs backward computation.
I0222 20:46:21.059825 12673 net.cpp:170] ip3 needs backward computation.
I0222 20:46:21.059830 12673 net.cpp:170] relu2 needs backward computation.
I0222 20:46:21.059835 12673 net.cpp:170] ip2 needs backward computation.
I0222 20:46:21.059840 12673 net.cpp:170] relu1 needs backward computation.
…
I0222 20:46:21.089560 12673 solver.cpp:151] Creating test net (#0) specified by net file: examples/singleNet/train_val_v0.2.prototxt
I0222 20:46:21.089611 12673 net.cpp:275] The NetState phase (1) differed from the phase (0) specified by a rule in layer data
I0222 20:46:21.090664 12673 net.cpp:39] Initializing net from parameters: 
name: "LogisticRegressionNet"
layers {
  top: "data"
  top: "label"
  top: "sample_weight"
  name: "data"
  type: HDF5_DATA
  hdf5_data_param {
    source: "/share/project/shapes/caffe-weighted-samples/examples/singleNet/testFileList.txt"
    batch_size: 60
  }
  include {
    phase: TEST
  }
}
layers {
  bottom: "data"
  top: "conv1"
  name: "conv1"
  type: CONVOLUTION
  blobs_lr: 1
  blobs_lr: 2
  convolution_param {
    num_output: 96
    kernel_size: 4
    stride: 1
    weight_filler {
      type: "xavier"
    }
    bias_filler {
      type: "constant"
    }
  }
}
layers {
  bottom: "conv1"
  top: "conv1"
  name: "relu_conv1"
  type: RELU
}
layers {
  bottom: "conv1"
  top: "pool1"
  name: "pool1"
  type: POOLING
  pooling_param {
    pool: MAX
    kernel_size: 2
    stride: 2
  }
}
layers {
  bottom: "pool1"
  top: "conv2"
  name: "conv2"
  type: CONVOLUTION
  blobs_lr: 1
  blobs_lr: 2
  convolution_param {
    num_output: 256
    kernel_size: 3
    stride: 1
    weight_filler {
      type: "xavier"
    }
    bias_filler {
      type: "constant"
    }
  }
}
layers {
  bottom: "conv2"
  top: "conv2"
  name: "relu_conv2"
  type: RELU
}
layers {
  bottom: "conv2"
  top: "pool2"
  name: "pool2"
  type: POOLING
  pooling_param {
    pool: MAX
    kernel_size: 2
    stride: 2
  }
}
layers {
  bottom: "pool2"
  top: "conv3"
  name: "conv3"
  type: CONVOLUTION
  blobs_lr: 1
  blobs_lr: 2
  convolution_param {
    num_output: 64
    kernel_size: 4
    stride: 1
    weight_filler {
      type: "xavier"
    }
    bias_filler {
      type: "constant"
    }
  }
}
layers {
  bottom: "conv3"
  top: "conv3"
  name: "relu_conv3"
  type: RELU
}
layers {
  bottom: "conv3"
  top: "ip1"
  name: "ip1"
  type: INNER_PRODUCT
  blobs_lr: 1
  blobs_lr: 2
  inner_product_param {
    num_output: 1024
    weight_filler {
      type: "xavier"
    }
    bias_filler {
      type: "constant"
    }
  }
}
layers {
  bottom: "ip1"
  top: "ip1"
  name: "relu1"
  type: RELU
}
layers {
  bottom: "ip1"
  top: "ip2"
  name: "ip2"
  type: INNER_PRODUCT
  blobs_lr: 1
  blobs_lr: 2
  inner_product_param {
    num_output: 1024
    weight_filler {
      type: "xavier"
    }
    bias_filler {
      type: "constant"
    }
  }
}
layers {
  bottom: "ip2"
  top: "ip2"
  name: "relu2"
  type: RELU
}
layers {
  bottom: "ip2"
  top: "ip3"
  name: "ip3"
  type: INNER_PRODUCT
  blobs_lr: 1
  blobs_lr: 2
  inner_product_param {
    num_output: 2
    weight_filler {
      type: "xavier"
    }
    bias_filler {
      type: "constant"
    }
  }
}
layers {
  bottom: "ip3"
  bottom: "label"
  top: "accuracy"
  name: "accuracy"
  type: ACCURACY
  include {
    phase: TEST
  }
}
layers {
  bottom: "ip3"
  bottom: "label"
  bottom: "sample_weight"
  top: "loss"
  name: "loss"
  type: SOFTMAX_LOSS
}
state {
  phase: TEST
}
I0222 20:46:21.090886 12673 net.cpp:67] Creating Layer data
I0222 20:46:21.090898 12673 net.cpp:356] data -> data
I0222 20:46:21.090911 12673 net.cpp:356] data -> label
I0222 20:46:21.090920 12673 net.cpp:356] data -> sample_weight
I0222 20:46:21.090929 12673 net.cpp:96] Setting up data
I0222 20:46:21.090934 12673 hdf5_data_layer.cpp:63] Loading filename from /share/project/shapes/caffe-weighted-samples/examples/singleNet/testFileList.txt
I0222 20:46:21.094374 12673 hdf5_data_layer.cpp:75] Number of files: 1
I0222 20:46:21.094400 12673 hdf5_data_layer.cpp:29] Loading HDF5 file/scratch/stephenchen/shapes/singleNet/hdf5/test_batch_35x35/testHDF_1_35x35.h5
I0222 20:46:34.072641 12673 hdf5_data_layer.cpp:55] Successully loaded 59000 rows
I0222 20:46:34.072671 12673 hdf5_data_layer.cpp:89] output data size: 60,4,35,35
I0222 20:46:34.072680 12673 net.cpp:103] Top shape: 60 4 35 35 (294000)
I0222 20:46:34.072686 12673 net.cpp:103] Top shape: 60 1 1 1 (60)
I0222 20:46:34.072691 12673 net.cpp:103] Top shape: 60 1 1 1 (60)
I0222 20:46:34.072705 12673 net.cpp:67] Creating Layer label_data_1_split
I0222 20:46:34.072711 12673 net.cpp:394] label_data_1_split <- label
I0222 20:46:34.072721 12673 net.cpp:356] label_data_1_split -> label_data_1_split_0
I0222 20:46:34.072732 12673 net.cpp:356] label_data_1_split -> label_data_1_split_1
I0222 20:46:34.072741 12673 net.cpp:96] Setting up label_data_1_split
I0222 20:46:34.072746 12673 net.cpp:103] Top shape: 60 1 1 1 (60)
I0222 20:46:34.072752 12673 net.cpp:103] Top shape: 60 1 1 1 (60)
I0222 20:46:34.072762 12673 net.cpp:67] Creating Layer conv1
I0222 20:46:34.072767 12673 net.cpp:394] conv1 <- data
I0222 20:46:34.072774 12673 net.cpp:356] conv1 -> conv1
I0222 20:46:34.072782 12673 net.cpp:96] Setting up conv1
I0222 20:46:34.072866 12673 net.cpp:103] Top shape: 60 96 32 32 (5898240)
I0222 20:46:34.072882 12673 net.cpp:67] Creating Layer relu_conv1
I0222 20:46:34.072896 12673 net.cpp:394] relu_conv1 <- conv1
I0222 20:46:34.072903 12673 net.cpp:345] relu_conv1 -> conv1 (in-place)
I0222 20:46:34.072911 12673 net.cpp:96] Setting up relu_conv1
I0222 20:46:34.072916 12673 net.cpp:103] Top shape: 60 96 32 32 (5898240)
I0222 20:46:34.072924 12673 net.cpp:67] Creating Layer pool1
I0222 20:46:34.072929 12673 net.cpp:394] pool1 <- conv1
I0222 20:46:34.072937 12673 net.cpp:356] pool1 -> pool1
I0222 20:46:34.072943 12673 net.cpp:96] Setting up pool1
I0222 20:46:34.072950 12673 net.cpp:103] Top shape: 60 96 16 16 (1474560)
I0222 20:46:34.072958 12673 net.cpp:67] Creating Layer conv2
I0222 20:46:34.072963 12673 net.cpp:394] conv2 <- pool1
I0222 20:46:34.072970 12673 net.cpp:356] conv2 -> conv2
I0222 20:46:34.072978 12673 net.cpp:96] Setting up conv2
I0222 20:46:34.075547 12673 net.cpp:103] Top shape: 60 256 14 14 (3010560)
I0222 20:46:34.075582 12673 net.cpp:67] Creating Layer relu_conv2
I0222 20:46:34.075587 12673 net.cpp:394] relu_conv2 <- conv2
I0222 20:46:34.075600 12673 net.cpp:345] relu_conv2 -> conv2 (in-place)
I0222 20:46:34.075609 12673 net.cpp:96] Setting up relu_conv2
I0222 20:46:34.075614 12673 net.cpp:103] Top shape: 60 256 14 14 (3010560)
I0222 20:46:34.075621 12673 net.cpp:67] Creating Layer pool2
I0222 20:46:34.075626 12673 net.cpp:394] pool2 <- conv2
I0222 20:46:34.075634 12673 net.cpp:356] pool2 -> pool2
I0222 20:46:34.075642 12673 net.cpp:96] Setting up pool2
I0222 20:46:34.075650 12673 net.cpp:103] Top shape: 60 256 7 7 (752640)
I0222 20:46:34.075660 12673 net.cpp:67] Creating Layer conv3
I0222 20:46:34.075665 12673 net.cpp:394] conv3 <- pool2
I0222 20:46:34.075672 12673 net.cpp:356] conv3 -> conv3
I0222 20:46:34.075680 12673 net.cpp:96] Setting up conv3
I0222 20:46:34.078757 12673 net.cpp:103] Top shape: 60 64 4 4 (61440)
I0222 20:46:34.078794 12673 net.cpp:67] Creating Layer relu_conv3
I0222 20:46:34.078800 12673 net.cpp:394] relu_conv3 <- conv3
I0222 20:46:34.078809 12673 net.cpp:345] relu_conv3 -> conv3 (in-place)
I0222 20:46:34.078817 12673 net.cpp:96] Setting up relu_conv3
I0222 20:46:34.078824 12673 net.cpp:103] Top shape: 60 64 4 4 (61440)
I0222 20:46:34.078831 12673 net.cpp:67] Creating Layer ip1
I0222 20:46:34.078835 12673 net.cpp:394] ip1 <- conv3
I0222 20:46:34.078842 12673 net.cpp:356] ip1 -> ip1
I0222 20:46:34.078851 12673 net.cpp:96] Setting up ip1
I0222 20:46:34.091953 12673 net.cpp:103] Top shape: 60 1024 1 1 (61440)
I0222 20:46:34.091995 12673 net.cpp:67] Creating Layer relu1
I0222 20:46:34.092003 12673 net.cpp:394] relu1 <- ip1
I0222 20:46:34.092013 12673 net.cpp:345] relu1 -> ip1 (in-place)
I0222 20:46:34.092023 12673 net.cpp:96] Setting up relu1
I0222 20:46:34.092028 12673 net.cpp:103] Top shape: 60 1024 1 1 (61440)
I0222 20:46:34.092036 12673 net.cpp:67] Creating Layer ip2
I0222 20:46:34.092041 12673 net.cpp:394] ip2 <- ip1
I0222 20:46:34.092049 12673 net.cpp:356] ip2 -> ip2
I0222 20:46:34.092057 12673 net.cpp:96] Setting up ip2
I0222 20:46:34.104683 12673 net.cpp:103] Top shape: 60 1024 1 1 (61440)
I0222 20:46:34.104729 12673 net.cpp:67] Creating Layer relu2
I0222 20:46:34.104737 12673 net.cpp:394] relu2 <- ip2
I0222 20:46:34.104746 12673 net.cpp:345] relu2 -> ip2 (in-place)
I0222 20:46:34.104755 12673 net.cpp:96] Setting up relu2
I0222 20:46:34.104761 12673 net.cpp:103] Top shape: 60 1024 1 1 (61440)
I0222 20:46:34.104769 12673 net.cpp:67] Creating Layer ip3
I0222 20:46:34.104774 12673 net.cpp:394] ip3 <- ip2
I0222 20:46:34.104781 12673 net.cpp:356] ip3 -> ip3
I0222 20:46:34.104789 12673 net.cpp:96] Setting up ip3
I0222 20:46:34.104825 12673 net.cpp:103] Top shape: 60 2 1 1 (120)
I0222 20:46:34.104835 12673 net.cpp:67] Creating Layer ip3_ip3_0_split
I0222 20:46:34.104840 12673 net.cpp:394] ip3_ip3_0_split <- ip3
I0222 20:46:34.104846 12673 net.cpp:356] ip3_ip3_0_split -> ip3_ip3_0_split_0
I0222 20:46:34.104854 12673 net.cpp:356] ip3_ip3_0_split -> ip3_ip3_0_split_1
I0222 20:46:34.104861 12673 net.cpp:96] Setting up ip3_ip3_0_split
I0222 20:46:34.104866 12673 net.cpp:103] Top shape: 60 2 1 1 (120)
I0222 20:46:34.104871 12673 net.cpp:103] Top shape: 60 2 1 1 (120)
I0222 20:46:34.104882 12673 net.cpp:67] Creating Layer accuracy
I0222 20:46:34.104903 12673 net.cpp:394] accuracy <- ip3_ip3_0_split_0
I0222 20:46:34.104910 12673 net.cpp:394] accuracy <- label_data_1_split_0
I0222 20:46:34.104918 12673 net.cpp:356] accuracy -> accuracy
I0222 20:46:34.104925 12673 net.cpp:96] Setting up accuracy
I0222 20:46:34.104931 12673 net.cpp:103] Top shape: 1 1 1 1 (1)
I0222 20:46:34.104939 12673 net.cpp:67] Creating Layer loss
I0222 20:46:34.104944 12673 net.cpp:394] loss <- ip3_ip3_0_split_1
I0222 20:46:34.104949 12673 net.cpp:394] loss <- label_data_1_split_1
I0222 20:46:34.104955 12673 net.cpp:394] loss <- sample_weight
I0222 20:46:34.104961 12673 net.cpp:356] loss -> loss
I0222 20:46:34.104970 12673 net.cpp:96] Setting up loss
I0222 20:46:34.104980 12673 net.cpp:103] Top shape: 1 1 1 1 (1)
I0222 20:46:34.104985 12673 net.cpp:109]     with loss weight 1
I0222 20:46:34.105000 12673 net.cpp:170] loss needs backward computation.
I0222 20:46:34.105005 12673 net.cpp:172] accuracy does not need backward computation.
I0222 20:46:34.105016 12673 net.cpp:170] ip3_ip3_0_split needs backward computation.
I0222 20:46:34.105021 12673 net.cpp:170] ip3 needs backward computation.
I0222 20:46:34.105026 12673 net.cpp:170] relu2 needs backward computation.
…
