…
I0225 13:22:57.497707 25062 net.cpp:275] The NetState phase (0) differed from the phase (1) specified by a rule in layer data
I0225 13:22:57.497740 25062 net.cpp:275] The NetState phase (0) differed from the phase (1) specified by a rule in layer accuracy
I0225 13:22:57.497968 25062 net.cpp:39] Initializing net from parameters: 
name: "LogisticRegressionNet"
layers {
  top: "data"
  top: "label"
  top: "sample_weight"
  name: "data"
  type: HDF5_DATA
  hdf5_data_param {
    source: "/share/project/shapes/caffe-weighted-samples/examples/singleNet/trainFileList.txt"
    batch_size: 100
  }
  include {
    phase: TRAIN
  }
}
layers {
  bottom: "data"
  top: "conv1"
  name: "conv1"
  type: CONVOLUTION
  blobs_lr: 1
  blobs_lr: 2
  convolution_param {
    num_output: 96
    kernel_size: 4
    stride: 1
    weight_filler {
      type: "xavier"
    }
    bias_filler {
      type: "constant"
    }
  }
}
layers {
  bottom: "conv1"
  top: "conv1"
  name: "relu_conv1"
  type: RELU
}
layers {
  bottom: "conv1"
  top: "pool1"
  name: "pool1"
  type: POOLING
  pooling_param {
    pool: MAX
    kernel_size: 2
    stride: 2
  }
}
layers {
  bottom: "pool1"
  top: "conv2"
  name: "conv2"
  type: CONVOLUTION
  blobs_lr: 1
  blobs_lr: 2
  convolution_param {
    num_output: 256
    kernel_size: 3
    stride: 1
    weight_filler {
      type: "xavier"
    }
    bias_filler {
      type: "constant"
    }
  }
}
layers {
  bottom: "conv2"
  top: "conv2"
  name: "relu_conv2"
  type: RELU
}
layers {
  bottom: "conv2"
  top: "pool2"
  name: "pool2"
  type: POOLING
  pooling_param {
    pool: MAX
    kernel_size: 2
    stride: 2
  }
}
layers {
  bottom: "pool2"
  top: "conv3"
  name: "conv3"
  type: CONVOLUTION
  blobs_lr: 1
  blobs_lr: 2
  convolution_param {
    num_output: 64
    kernel_size: 4
    stride: 1
    weight_filler {
      type: "xavier"
    }
    bias_filler {
      type: "constant"
    }
  }
}
layers {
  bottom: "conv3"
  top: "conv3"
  name: "relu_conv3"
  type: RELU
}
layers {
  bottom: "conv3"
  top: "ip1"
  name: "ip1"
  type: INNER_PRODUCT
  blobs_lr: 1
  blobs_lr: 2
  inner_product_param {
    num_output: 256
    weight_filler {
      type: "xavier"
    }
    bias_filler {
      type: "constant"
    }
  }
}
layers {
  bottom: "ip1"
  top: "ip1"
  name: "relu1"
  type: RELU
}
layers {
  bottom: "ip1"
  top: "ip2"
  name: "ip2"
  type: INNER_PRODUCT
  blobs_lr: 1
  blobs_lr: 2
  inner_product_param {
    num_output: 256
    weight_filler {
      type: "xavier"
    }
    bias_filler {
      type: "constant"
    }
  }
}
layers {
  bottom: "ip2"
  top: "ip2"
  name: "relu2"
  type: RELU
}
layers {
  bottom: "ip2"
  top: "ip3"
  name: "ip3"
  type: INNER_PRODUCT
  blobs_lr: 1
  blobs_lr: 2
  inner_product_param {
    num_output: 2
    weight_filler {
      type: "xavier"
    }
    bias_filler {
      type: "constant"
    }
  }
}
layers {
  bottom: "ip3"
  bottom: "label"
  bottom: "sample_weight"
  top: "loss"
  name: "loss"
  type: SOFTMAX_LOSS
}
state {
  phase: TRAIN
}
I0225 13:22:57.498208 25062 net.cpp:67] Creating Layer data
I0225 13:22:57.498224 25062 net.cpp:356] data -> data
I0225 13:22:57.498257 25062 net.cpp:356] data -> label
I0225 13:22:57.498282 25062 net.cpp:356] data -> sample_weight
I0225 13:22:57.498296 25062 net.cpp:96] Setting up data
I0225 13:22:57.498306 25062 hdf5_data_layer.cpp:63] Loading filename from /share/project/shapes/caffe-weighted-samples/examples/singleNet/trainFileList.txt
I0225 13:22:57.559396 25062 hdf5_data_layer.cpp:75] Number of files: 3
I0225 13:22:57.559428 25062 hdf5_data_layer.cpp:29] Loading HDF5 file/scratch/stephenchen/shapes/singleNet/hdf5/train_batch_35x35/trainHDF_1_35x35.h5
I0225 13:23:41.826933 25062 hdf5_data_layer.cpp:55] Successully loaded 196600 rows
I0225 13:23:41.866031 25062 hdf5_data_layer.cpp:89] output data size: 100,4,35,35
I0225 13:23:41.884292 25062 net.cpp:103] Top shape: 100 4 35 35 (490000)
I0225 13:23:41.884315 25062 net.cpp:103] Top shape: 100 1 1 1 (100)
I0225 13:23:41.884325 25062 net.cpp:103] Top shape: 100 1 1 1 (100)
I0225 13:23:41.884352 25062 net.cpp:67] Creating Layer conv1
I0225 13:23:41.884363 25062 net.cpp:394] conv1 <- data
I0225 13:23:41.884481 25062 net.cpp:356] conv1 -> conv1
I0225 13:23:41.884518 25062 net.cpp:96] Setting up conv1
I0225 13:23:42.041996 25062 net.cpp:103] Top shape: 100 96 32 32 (9830400)
I0225 13:23:42.042094 25062 net.cpp:67] Creating Layer relu_conv1
I0225 13:23:42.042105 25062 net.cpp:394] relu_conv1 <- conv1
I0225 13:23:42.042115 25062 net.cpp:345] relu_conv1 -> conv1 (in-place)
I0225 13:23:42.042126 25062 net.cpp:96] Setting up relu_conv1
I0225 13:23:42.042135 25062 net.cpp:103] Top shape: 100 96 32 32 (9830400)
I0225 13:23:42.042145 25062 net.cpp:67] Creating Layer pool1
I0225 13:23:42.042150 25062 net.cpp:394] pool1 <- conv1
I0225 13:23:42.042160 25062 net.cpp:356] pool1 -> pool1
I0225 13:23:42.042171 25062 net.cpp:96] Setting up pool1
I0225 13:23:42.042199 25062 net.cpp:103] Top shape: 100 96 16 16 (2457600)
I0225 13:23:42.042212 25062 net.cpp:67] Creating Layer conv2
I0225 13:23:42.042219 25062 net.cpp:394] conv2 <- pool1
I0225 13:23:42.042229 25062 net.cpp:356] conv2 -> conv2
I0225 13:23:42.042240 25062 net.cpp:96] Setting up conv2
I0225 13:23:42.045749 25062 net.cpp:103] Top shape: 100 256 14 14 (5017600)
I0225 13:23:42.045773 25062 net.cpp:67] Creating Layer relu_conv2
I0225 13:23:42.045780 25062 net.cpp:394] relu_conv2 <- conv2
I0225 13:23:42.045790 25062 net.cpp:345] relu_conv2 -> conv2 (in-place)
I0225 13:23:42.045800 25062 net.cpp:96] Setting up relu_conv2
I0225 13:23:42.045807 25062 net.cpp:103] Top shape: 100 256 14 14 (5017600)
I0225 13:23:42.045816 25062 net.cpp:67] Creating Layer pool2
I0225 13:23:42.045824 25062 net.cpp:394] pool2 <- conv2
I0225 13:23:42.045832 25062 net.cpp:356] pool2 -> pool2
I0225 13:23:42.045842 25062 net.cpp:96] Setting up pool2
I0225 13:23:42.045850 25062 net.cpp:103] Top shape: 100 256 7 7 (1254400)
I0225 13:23:42.045861 25062 net.cpp:67] Creating Layer conv3
I0225 13:23:42.045867 25062 net.cpp:394] conv3 <- pool2
I0225 13:23:42.045876 25062 net.cpp:356] conv3 -> conv3
I0225 13:23:42.045886 25062 net.cpp:96] Setting up conv3
I0225 13:23:42.049314 25062 net.cpp:103] Top shape: 100 64 4 4 (102400)
I0225 13:23:42.049332 25062 net.cpp:67] Creating Layer relu_conv3
I0225 13:23:42.049338 25062 net.cpp:394] relu_conv3 <- conv3
I0225 13:23:42.049345 25062 net.cpp:345] relu_conv3 -> conv3 (in-place)
I0225 13:23:42.049351 25062 net.cpp:96] Setting up relu_conv3
I0225 13:23:42.049356 25062 net.cpp:103] Top shape: 100 64 4 4 (102400)
I0225 13:23:42.049363 25062 net.cpp:67] Creating Layer ip1
I0225 13:23:42.049368 25062 net.cpp:394] ip1 <- conv3
I0225 13:23:42.049374 25062 net.cpp:356] ip1 -> ip1
I0225 13:23:42.049383 25062 net.cpp:96] Setting up ip1
I0225 13:23:42.052292 25062 net.cpp:103] Top shape: 100 256 1 1 (25600)
I0225 13:23:42.052309 25062 net.cpp:67] Creating Layer relu1
I0225 13:23:42.052315 25062 net.cpp:394] relu1 <- ip1
I0225 13:23:42.052322 25062 net.cpp:345] relu1 -> ip1 (in-place)
I0225 13:23:42.052330 25062 net.cpp:96] Setting up relu1
I0225 13:23:42.052335 25062 net.cpp:103] Top shape: 100 256 1 1 (25600)
I0225 13:23:42.052342 25062 net.cpp:67] Creating Layer ip2
I0225 13:23:42.052347 25062 net.cpp:394] ip2 <- ip1
I0225 13:23:42.052355 25062 net.cpp:356] ip2 -> ip2
I0225 13:23:42.052364 25062 net.cpp:96] Setting up ip2
I0225 13:23:42.053068 25062 net.cpp:103] Top shape: 100 256 1 1 (25600)
I0225 13:23:42.053086 25062 net.cpp:67] Creating Layer relu2
I0225 13:23:42.053092 25062 net.cpp:394] relu2 <- ip2
I0225 13:23:42.053099 25062 net.cpp:345] relu2 -> ip2 (in-place)
I0225 13:23:42.053107 25062 net.cpp:96] Setting up relu2
I0225 13:23:42.053110 25062 net.cpp:103] Top shape: 100 256 1 1 (25600)
I0225 13:23:42.053117 25062 net.cpp:67] Creating Layer ip3
I0225 13:23:42.053122 25062 net.cpp:394] ip3 <- ip2
I0225 13:23:42.053129 25062 net.cpp:356] ip3 -> ip3
I0225 13:23:42.053136 25062 net.cpp:96] Setting up ip3
I0225 13:23:42.053151 25062 net.cpp:103] Top shape: 100 2 1 1 (200)
I0225 13:23:42.053165 25062 net.cpp:67] Creating Layer loss
I0225 13:23:42.053170 25062 net.cpp:394] loss <- ip3
I0225 13:23:42.053176 25062 net.cpp:394] loss <- label
I0225 13:23:42.053182 25062 net.cpp:394] loss <- sample_weight
I0225 13:23:42.053189 25062 net.cpp:356] loss -> loss
I0225 13:23:42.053196 25062 net.cpp:96] Setting up loss
I0225 13:23:42.053206 25062 net.cpp:103] Top shape: 1 1 1 1 (1)
I0225 13:23:42.053211 25062 net.cpp:109]     with loss weight 1
I0225 13:23:42.053284 25062 net.cpp:170] loss needs backward computation.
I0225 13:23:42.053290 25062 net.cpp:170] ip3 needs backward computation.
I0225 13:23:42.053295 25062 net.cpp:170] relu2 needs backward computation.
I0225 13:23:42.053300 25062 net.cpp:170] ip2 needs backward computation.
I0225 13:23:42.053305 25062 net.cpp:170] relu1 needs backward computation.
…
I0225 13:23:42.182945 25062 solver.cpp:151] Creating test net (#0) specified by net file: examples/singleNet/train_val_v0.3.prototxt
I0225 13:23:42.182986 25062 net.cpp:275] The NetState phase (1) differed from the phase (0) specified by a rule in layer data
I0225 13:23:42.183940 25062 net.cpp:39] Initializing net from parameters: 
name: "LogisticRegressionNet"
layers {
  top: "data"
  top: "label"
  top: "sample_weight"
  name: "data"
  type: HDF5_DATA
  hdf5_data_param {
    source: "/share/project/shapes/caffe-weighted-samples/examples/singleNet/testFileList.txt"
    batch_size: 60
  }
  include {
    phase: TEST
  }
}
layers {
  bottom: "data"
  top: "conv1"
  name: "conv1"
  type: CONVOLUTION
  blobs_lr: 1
  blobs_lr: 2
  convolution_param {
    num_output: 96
    kernel_size: 4
    stride: 1
    weight_filler {
      type: "xavier"
    }
    bias_filler {
      type: "constant"
    }
  }
}
layers {
  bottom: "conv1"
  top: "conv1"
  name: "relu_conv1"
  type: RELU
}
layers {
  bottom: "conv1"
  top: "pool1"
  name: "pool1"
  type: POOLING
  pooling_param {
    pool: MAX
    kernel_size: 2
    stride: 2
  }
}
layers {
  bottom: "pool1"
  top: "conv2"
  name: "conv2"
  type: CONVOLUTION
  blobs_lr: 1
  blobs_lr: 2
  convolution_param {
    num_output: 256
    kernel_size: 3
    stride: 1
    weight_filler {
      type: "xavier"
    }
    bias_filler {
      type: "constant"
    }
  }
}
layers {
  bottom: "conv2"
  top: "conv2"
  name: "relu_conv2"
  type: RELU
}
layers {
  bottom: "conv2"
  top: "pool2"
  name: "pool2"
  type: POOLING
  pooling_param {
    pool: MAX
    kernel_size: 2
    stride: 2
  }
}
layers {
  bottom: "pool2"
  top: "conv3"
  name: "conv3"
  type: CONVOLUTION
  blobs_lr: 1
  blobs_lr: 2
  convolution_param {
    num_output: 64
    kernel_size: 4
    stride: 1
    weight_filler {
      type: "xavier"
    }
    bias_filler {
      type: "constant"
    }
  }
}
layers {
  bottom: "conv3"
  top: "conv3"
  name: "relu_conv3"
  type: RELU
}
layers {
  bottom: "conv3"
  top: "ip1"
  name: "ip1"
  type: INNER_PRODUCT
  blobs_lr: 1
  blobs_lr: 2
  inner_product_param {
    num_output: 256
    weight_filler {
      type: "xavier"
    }
    bias_filler {
      type: "constant"
    }
  }
}
layers {
  bottom: "ip1"
  top: "ip1"
  name: "relu1"
  type: RELU
}
layers {
  bottom: "ip1"
  top: "ip2"
  name: "ip2"
  type: INNER_PRODUCT
  blobs_lr: 1
  blobs_lr: 2
  inner_product_param {
    num_output: 256
    weight_filler {
      type: "xavier"
    }
    bias_filler {
      type: "constant"
    }
  }
}
layers {
  bottom: "ip2"
  top: "ip2"
  name: "relu2"
  type: RELU
}
layers {
  bottom: "ip2"
  top: "ip3"
  name: "ip3"
  type: INNER_PRODUCT
  blobs_lr: 1
  blobs_lr: 2
  inner_product_param {
    num_output: 2
    weight_filler {
      type: "xavier"
    }
    bias_filler {
      type: "constant"
    }
  }
}
layers {
  bottom: "ip3"
  bottom: "label"
  top: "accuracy"
  name: "accuracy"
  type: ACCURACY
  include {
    phase: TEST
  }
}
layers {
  bottom: "ip3"
  bottom: "label"
  bottom: "sample_weight"
  top: "loss"
  name: "loss"
  type: SOFTMAX_LOSS
}
state {
  phase: TEST
}
I0225 13:23:42.184208 25062 net.cpp:67] Creating Layer data
I0225 13:23:42.184222 25062 net.cpp:356] data -> data
I0225 13:23:42.184237 25062 net.cpp:356] data -> label
I0225 13:23:42.184248 25062 net.cpp:356] data -> sample_weight
I0225 13:23:42.184259 25062 net.cpp:96] Setting up data
I0225 13:23:42.184267 25062 hdf5_data_layer.cpp:63] Loading filename from /share/project/shapes/caffe-weighted-samples/examples/singleNet/testFileList.txt
I0225 13:23:42.322916 25062 hdf5_data_layer.cpp:75] Number of files: 1
I0225 13:23:42.322937 25062 hdf5_data_layer.cpp:29] Loading HDF5 file/scratch/stephenchen/shapes/singleNet/hdf5/test_batch_35x35/testHDF_1_35x35.h5
I0225 13:23:53.930910 25062 hdf5_data_layer.cpp:55] Successully loaded 59000 rows
I0225 13:23:53.930943 25062 hdf5_data_layer.cpp:89] output data size: 60,4,35,35
I0225 13:23:53.930953 25062 net.cpp:103] Top shape: 60 4 35 35 (294000)
I0225 13:23:53.930961 25062 net.cpp:103] Top shape: 60 1 1 1 (60)
I0225 13:23:53.930968 25062 net.cpp:103] Top shape: 60 1 1 1 (60)
I0225 13:23:53.930986 25062 net.cpp:67] Creating Layer label_data_1_split
I0225 13:23:53.930994 25062 net.cpp:394] label_data_1_split <- label
I0225 13:23:53.931005 25062 net.cpp:356] label_data_1_split -> label_data_1_split_0
I0225 13:23:53.931020 25062 net.cpp:356] label_data_1_split -> label_data_1_split_1
I0225 13:23:53.931032 25062 net.cpp:96] Setting up label_data_1_split
I0225 13:23:53.931041 25062 net.cpp:103] Top shape: 60 1 1 1 (60)
I0225 13:23:53.931047 25062 net.cpp:103] Top shape: 60 1 1 1 (60)
I0225 13:23:53.931061 25062 net.cpp:67] Creating Layer conv1
I0225 13:23:53.931067 25062 net.cpp:394] conv1 <- data
I0225 13:23:53.931077 25062 net.cpp:356] conv1 -> conv1
I0225 13:23:53.931088 25062 net.cpp:96] Setting up conv1
I0225 13:23:53.931200 25062 net.cpp:103] Top shape: 60 96 32 32 (5898240)
I0225 13:23:53.931221 25062 net.cpp:67] Creating Layer relu_conv1
I0225 13:23:53.931228 25062 net.cpp:394] relu_conv1 <- conv1
I0225 13:23:53.931237 25062 net.cpp:345] relu_conv1 -> conv1 (in-place)
I0225 13:23:53.931247 25062 net.cpp:96] Setting up relu_conv1
I0225 13:23:53.931254 25062 net.cpp:103] Top shape: 60 96 32 32 (5898240)
I0225 13:23:53.931265 25062 net.cpp:67] Creating Layer pool1
I0225 13:23:53.931272 25062 net.cpp:394] pool1 <- conv1
I0225 13:23:53.931282 25062 net.cpp:356] pool1 -> pool1
I0225 13:23:53.931291 25062 net.cpp:96] Setting up pool1
I0225 13:23:53.931300 25062 net.cpp:103] Top shape: 60 96 16 16 (1474560)
I0225 13:23:53.931311 25062 net.cpp:67] Creating Layer conv2
I0225 13:23:53.931318 25062 net.cpp:394] conv2 <- pool1
I0225 13:23:53.931327 25062 net.cpp:356] conv2 -> conv2
I0225 13:23:53.931337 25062 net.cpp:96] Setting up conv2
I0225 13:23:53.934007 25062 net.cpp:103] Top shape: 60 256 14 14 (3010560)
I0225 13:23:53.934025 25062 net.cpp:67] Creating Layer relu_conv2
I0225 13:23:53.934031 25062 net.cpp:394] relu_conv2 <- conv2
I0225 13:23:53.934037 25062 net.cpp:345] relu_conv2 -> conv2 (in-place)
I0225 13:23:53.934048 25062 net.cpp:96] Setting up relu_conv2
I0225 13:23:53.934053 25062 net.cpp:103] Top shape: 60 256 14 14 (3010560)
I0225 13:23:53.934059 25062 net.cpp:67] Creating Layer pool2
I0225 13:23:53.934064 25062 net.cpp:394] pool2 <- conv2
I0225 13:23:53.934070 25062 net.cpp:356] pool2 -> pool2
I0225 13:23:53.934077 25062 net.cpp:96] Setting up pool2
I0225 13:23:53.934084 25062 net.cpp:103] Top shape: 60 256 7 7 (752640)
I0225 13:23:53.934092 25062 net.cpp:67] Creating Layer conv3
I0225 13:23:53.934098 25062 net.cpp:394] conv3 <- pool2
I0225 13:23:53.934104 25062 net.cpp:356] conv3 -> conv3
I0225 13:23:53.934111 25062 net.cpp:96] Setting up conv3
I0225 13:23:53.937057 25062 net.cpp:103] Top shape: 60 64 4 4 (61440)
I0225 13:23:53.937077 25062 net.cpp:67] Creating Layer relu_conv3
I0225 13:23:53.937083 25062 net.cpp:394] relu_conv3 <- conv3
I0225 13:23:53.937089 25062 net.cpp:345] relu_conv3 -> conv3 (in-place)
I0225 13:23:53.937099 25062 net.cpp:96] Setting up relu_conv3
I0225 13:23:53.937104 25062 net.cpp:103] Top shape: 60 64 4 4 (61440)
I0225 13:23:53.937113 25062 net.cpp:67] Creating Layer ip1
I0225 13:23:53.937116 25062 net.cpp:394] ip1 <- conv3
I0225 13:23:53.937124 25062 net.cpp:356] ip1 -> ip1
I0225 13:23:53.937130 25062 net.cpp:96] Setting up ip1
I0225 13:23:53.940024 25062 net.cpp:103] Top shape: 60 256 1 1 (15360)
I0225 13:23:53.940042 25062 net.cpp:67] Creating Layer relu1
I0225 13:23:53.940047 25062 net.cpp:394] relu1 <- ip1
I0225 13:23:53.940053 25062 net.cpp:345] relu1 -> ip1 (in-place)
I0225 13:23:53.940060 25062 net.cpp:96] Setting up relu1
I0225 13:23:53.940064 25062 net.cpp:103] Top shape: 60 256 1 1 (15360)
I0225 13:23:53.940071 25062 net.cpp:67] Creating Layer ip2
I0225 13:23:53.940076 25062 net.cpp:394] ip2 <- ip1
I0225 13:23:53.940083 25062 net.cpp:356] ip2 -> ip2
I0225 13:23:53.940089 25062 net.cpp:96] Setting up ip2
I0225 13:23:53.940757 25062 net.cpp:103] Top shape: 60 256 1 1 (15360)
I0225 13:23:53.940773 25062 net.cpp:67] Creating Layer relu2
I0225 13:23:53.940778 25062 net.cpp:394] relu2 <- ip2
I0225 13:23:53.940784 25062 net.cpp:345] relu2 -> ip2 (in-place)
I0225 13:23:53.940790 25062 net.cpp:96] Setting up relu2
I0225 13:23:53.940795 25062 net.cpp:103] Top shape: 60 256 1 1 (15360)
I0225 13:23:53.940803 25062 net.cpp:67] Creating Layer ip3
I0225 13:23:53.940806 25062 net.cpp:394] ip3 <- ip2
I0225 13:23:53.940814 25062 net.cpp:356] ip3 -> ip3
I0225 13:23:53.940820 25062 net.cpp:96] Setting up ip3
I0225 13:23:53.940834 25062 net.cpp:103] Top shape: 60 2 1 1 (120)
I0225 13:23:53.940843 25062 net.cpp:67] Creating Layer ip3_ip3_0_split
I0225 13:23:53.940848 25062 net.cpp:394] ip3_ip3_0_split <- ip3
I0225 13:23:53.940855 25062 net.cpp:356] ip3_ip3_0_split -> ip3_ip3_0_split_0
I0225 13:23:53.940862 25062 net.cpp:356] ip3_ip3_0_split -> ip3_ip3_0_split_1
I0225 13:23:53.940868 25062 net.cpp:96] Setting up ip3_ip3_0_split
I0225 13:23:53.940875 25062 net.cpp:103] Top shape: 60 2 1 1 (120)
I0225 13:23:53.940878 25062 net.cpp:103] Top shape: 60 2 1 1 (120)
I0225 13:23:53.940887 25062 net.cpp:67] Creating Layer accuracy
I0225 13:23:53.940891 25062 net.cpp:394] accuracy <- ip3_ip3_0_split_0
I0225 13:23:53.940897 25062 net.cpp:394] accuracy <- label_data_1_split_0
I0225 13:23:53.940903 25062 net.cpp:356] accuracy -> accuracy
I0225 13:23:53.940911 25062 net.cpp:96] Setting up accuracy
I0225 13:23:53.940917 25062 net.cpp:103] Top shape: 1 1 1 1 (1)
I0225 13:23:53.940923 25062 net.cpp:67] Creating Layer loss
I0225 13:23:53.940928 25062 net.cpp:394] loss <- ip3_ip3_0_split_1
I0225 13:23:53.940933 25062 net.cpp:394] loss <- label_data_1_split_1
I0225 13:23:53.940938 25062 net.cpp:394] loss <- sample_weight
I0225 13:23:53.940944 25062 net.cpp:356] loss -> loss
I0225 13:23:53.940953 25062 net.cpp:96] Setting up loss
I0225 13:23:53.940960 25062 net.cpp:103] Top shape: 1 1 1 1 (1)
I0225 13:23:53.940965 25062 net.cpp:109]     with loss weight 1
I0225 13:23:53.940979 25062 net.cpp:170] loss needs backward computation.
I0225 13:23:53.940984 25062 net.cpp:172] accuracy does not need backward computation.
I0225 13:23:53.940992 25062 net.cpp:170] ip3_ip3_0_split needs backward computation.
I0225 13:23:53.940997 25062 net.cpp:170] ip3 needs backward computation.
I0225 13:23:53.941001 25062 net.cpp:170] relu2 needs backward computation.
…
