…
I0224 20:58:09.719650  6134 net.cpp:275] The NetState phase (0) differed from the phase (1) specified by a rule in layer data
I0224 20:58:09.719671  6134 net.cpp:275] The NetState phase (0) differed from the phase (1) specified by a rule in layer accuracy
I0224 20:58:09.719825  6134 net.cpp:39] Initializing net from parameters: 
name: "LogisticRegressionNet"
layers {
  top: "data"
  top: "label"
  top: "sample_weight"
  name: "data"
  type: HDF5_DATA
  hdf5_data_param {
    source: "/share/project/shapes/caffe-weighted-samples/examples/singleNet/trainFileList.txt"
    batch_size: 100
  }
  include {
    phase: TRAIN
  }
}
layers {
  bottom: "data"
  top: "conv1"
  name: "conv1"
  type: CONVOLUTION
  blobs_lr: 1
  blobs_lr: 2
  convolution_param {
    num_output: 96
    kernel_size: 4
    stride: 1
    weight_filler {
      type: "xavier"
    }
    bias_filler {
      type: "constant"
    }
  }
}
layers {
  bottom: "conv1"
  top: "conv1"
  name: "relu_conv1"
  type: RELU
}
layers {
  bottom: "conv1"
  top: "pool1"
  name: "pool1"
  type: POOLING
  pooling_param {
    pool: MAX
    kernel_size: 2
    stride: 2
  }
}
layers {
  bottom: "pool1"
  top: "conv2"
  name: "conv2"
  type: CONVOLUTION
  blobs_lr: 1
  blobs_lr: 2
  convolution_param {
    num_output: 256
    kernel_size: 3
    stride: 1
    weight_filler {
      type: "xavier"
    }
    bias_filler {
      type: "constant"
    }
  }
}
layers {
  bottom: "conv2"
  top: "conv2"
  name: "relu_conv2"
  type: RELU
}
layers {
  bottom: "conv2"
  top: "pool2"
  name: "pool2"
  type: POOLING
  pooling_param {
    pool: MAX
    kernel_size: 2
    stride: 2
  }
}
layers {
  bottom: "pool2"
  top: "conv3"
  name: "conv3"
  type: CONVOLUTION
  blobs_lr: 1
  blobs_lr: 2
  convolution_param {
    num_output: 64
    kernel_size: 4
    stride: 1
    weight_filler {
      type: "xavier"
    }
    bias_filler {
      type: "constant"
    }
  }
}
layers {
  bottom: "conv3"
  top: "conv3"
  name: "relu_conv3"
  type: RELU
}
layers {
  bottom: "conv3"
  top: "ip1"
  name: "ip1"
  type: INNER_PRODUCT
  blobs_lr: 1
  blobs_lr: 2
  inner_product_param {
    num_output: 256
    weight_filler {
      type: "xavier"
    }
    bias_filler {
      type: "constant"
    }
  }
}
layers {
  bottom: "ip1"
  top: "ip1"
  name: "relu1"
  type: RELU
}
layers {
  bottom: "ip1"
  top: "ip2"
  name: "ip2"
  type: INNER_PRODUCT
  blobs_lr: 1
  blobs_lr: 2
  inner_product_param {
    num_output: 256
    weight_filler {
      type: "xavier"
    }
    bias_filler {
      type: "constant"
    }
  }
}
layers {
  bottom: "ip2"
  top: "ip2"
  name: "relu2"
  type: RELU
}
layers {
  bottom: "ip2"
  top: "ip3"
  name: "ip3"
  type: INNER_PRODUCT
  blobs_lr: 1
  blobs_lr: 2
  inner_product_param {
    num_output: 2
    weight_filler {
      type: "xavier"
    }
    bias_filler {
      type: "constant"
    }
  }
}
layers {
  bottom: "ip3"
  bottom: "label"
  bottom: "sample_weight"
  top: "loss"
  name: "loss"
  type: SOFTMAX_LOSS
}
state {
  phase: TRAIN
}
I0224 20:58:09.719986  6134 net.cpp:67] Creating Layer data
I0224 20:58:09.719997  6134 net.cpp:356] data -> data
I0224 20:58:09.720023  6134 net.cpp:356] data -> label
I0224 20:58:09.720042  6134 net.cpp:356] data -> sample_weight
I0224 20:58:09.720052  6134 net.cpp:96] Setting up data
I0224 20:58:09.720059  6134 hdf5_data_layer.cpp:63] Loading filename from /share/project/shapes/caffe-weighted-samples/examples/singleNet/trainFileList.txt
I0224 20:58:09.758051  6134 hdf5_data_layer.cpp:75] Number of files: 3
I0224 20:58:09.758097  6134 hdf5_data_layer.cpp:29] Loading HDF5 file/scratch/stephenchen/shapes/singleNet/hdf5/train_batch_35x35/trainHDF_1_35x35.h5
I0224 20:58:50.505511  6134 hdf5_data_layer.cpp:55] Successully loaded 196600 rows
I0224 20:58:50.527204  6134 hdf5_data_layer.cpp:89] output data size: 100,4,35,35
I0224 20:58:50.527261  6134 net.cpp:103] Top shape: 100 4 35 35 (490000)
I0224 20:58:50.527269  6134 net.cpp:103] Top shape: 100 1 1 1 (100)
I0224 20:58:50.527274  6134 net.cpp:103] Top shape: 100 1 1 1 (100)
I0224 20:58:50.527292  6134 net.cpp:67] Creating Layer conv1
I0224 20:58:50.527297  6134 net.cpp:394] conv1 <- data
I0224 20:58:50.527318  6134 net.cpp:356] conv1 -> conv1
I0224 20:58:50.527331  6134 net.cpp:96] Setting up conv1
I0224 20:58:50.528116  6134 net.cpp:103] Top shape: 100 96 32 32 (9830400)
I0224 20:58:50.528177  6134 net.cpp:67] Creating Layer relu_conv1
I0224 20:58:50.528184  6134 net.cpp:394] relu_conv1 <- conv1
I0224 20:58:50.528192  6134 net.cpp:345] relu_conv1 -> conv1 (in-place)
I0224 20:58:50.528199  6134 net.cpp:96] Setting up relu_conv1
I0224 20:58:50.528204  6134 net.cpp:103] Top shape: 100 96 32 32 (9830400)
I0224 20:58:50.528213  6134 net.cpp:67] Creating Layer pool1
I0224 20:58:50.528218  6134 net.cpp:394] pool1 <- conv1
I0224 20:58:50.528223  6134 net.cpp:356] pool1 -> pool1
I0224 20:58:50.528233  6134 net.cpp:96] Setting up pool1
I0224 20:58:50.528252  6134 net.cpp:103] Top shape: 100 96 16 16 (2457600)
I0224 20:58:50.528262  6134 net.cpp:67] Creating Layer conv2
I0224 20:58:50.528267  6134 net.cpp:394] conv2 <- pool1
I0224 20:58:50.528275  6134 net.cpp:356] conv2 -> conv2
I0224 20:58:50.528283  6134 net.cpp:96] Setting up conv2
I0224 20:58:50.531064  6134 net.cpp:103] Top shape: 100 256 14 14 (5017600)
I0224 20:58:50.531081  6134 net.cpp:67] Creating Layer relu_conv2
I0224 20:58:50.531087  6134 net.cpp:394] relu_conv2 <- conv2
I0224 20:58:50.531095  6134 net.cpp:345] relu_conv2 -> conv2 (in-place)
I0224 20:58:50.531102  6134 net.cpp:96] Setting up relu_conv2
I0224 20:58:50.531107  6134 net.cpp:103] Top shape: 100 256 14 14 (5017600)
I0224 20:58:50.531113  6134 net.cpp:67] Creating Layer pool2
I0224 20:58:50.531118  6134 net.cpp:394] pool2 <- conv2
I0224 20:58:50.531124  6134 net.cpp:356] pool2 -> pool2
I0224 20:58:50.531150  6134 net.cpp:96] Setting up pool2
I0224 20:58:50.531159  6134 net.cpp:103] Top shape: 100 256 7 7 (1254400)
I0224 20:58:50.531167  6134 net.cpp:67] Creating Layer conv3
I0224 20:58:50.531173  6134 net.cpp:394] conv3 <- pool2
I0224 20:58:50.531180  6134 net.cpp:356] conv3 -> conv3
I0224 20:58:50.531188  6134 net.cpp:96] Setting up conv3
I0224 20:58:50.534564  6134 net.cpp:103] Top shape: 100 64 4 4 (102400)
I0224 20:58:50.534585  6134 net.cpp:67] Creating Layer relu_conv3
I0224 20:58:50.534610  6134 net.cpp:394] relu_conv3 <- conv3
I0224 20:58:50.534618  6134 net.cpp:345] relu_conv3 -> conv3 (in-place)
I0224 20:58:50.534626  6134 net.cpp:96] Setting up relu_conv3
I0224 20:58:50.534631  6134 net.cpp:103] Top shape: 100 64 4 4 (102400)
I0224 20:58:50.534639  6134 net.cpp:67] Creating Layer ip1
I0224 20:58:50.534644  6134 net.cpp:394] ip1 <- conv3
I0224 20:58:50.534651  6134 net.cpp:356] ip1 -> ip1
I0224 20:58:50.534661  6134 net.cpp:96] Setting up ip1
I0224 20:58:50.538080  6134 net.cpp:103] Top shape: 100 256 1 1 (25600)
I0224 20:58:50.538097  6134 net.cpp:67] Creating Layer relu1
I0224 20:58:50.538103  6134 net.cpp:394] relu1 <- ip1
I0224 20:58:50.538110  6134 net.cpp:345] relu1 -> ip1 (in-place)
I0224 20:58:50.538118  6134 net.cpp:96] Setting up relu1
I0224 20:58:50.538123  6134 net.cpp:103] Top shape: 100 256 1 1 (25600)
I0224 20:58:50.538130  6134 net.cpp:67] Creating Layer ip2
I0224 20:58:50.538136  6134 net.cpp:394] ip2 <- ip1
I0224 20:58:50.538161  6134 net.cpp:356] ip2 -> ip2
I0224 20:58:50.538172  6134 net.cpp:96] Setting up ip2
I0224 20:58:50.538959  6134 net.cpp:103] Top shape: 100 256 1 1 (25600)
I0224 20:58:50.538977  6134 net.cpp:67] Creating Layer relu2
I0224 20:58:50.538983  6134 net.cpp:394] relu2 <- ip2
I0224 20:58:50.538990  6134 net.cpp:345] relu2 -> ip2 (in-place)
I0224 20:58:50.538997  6134 net.cpp:96] Setting up relu2
I0224 20:58:50.539001  6134 net.cpp:103] Top shape: 100 256 1 1 (25600)
I0224 20:58:50.539012  6134 net.cpp:67] Creating Layer ip3
I0224 20:58:50.539017  6134 net.cpp:394] ip3 <- ip2
I0224 20:58:50.539024  6134 net.cpp:356] ip3 -> ip3
I0224 20:58:50.539031  6134 net.cpp:96] Setting up ip3
I0224 20:58:50.539047  6134 net.cpp:103] Top shape: 100 2 1 1 (200)
I0224 20:58:50.539078  6134 net.cpp:67] Creating Layer loss
I0224 20:58:50.539086  6134 net.cpp:394] loss <- ip3
I0224 20:58:50.539096  6134 net.cpp:394] loss <- label
I0224 20:58:50.539101  6134 net.cpp:394] loss <- sample_weight
I0224 20:58:50.539108  6134 net.cpp:356] loss -> loss
I0224 20:58:50.539115  6134 net.cpp:96] Setting up loss
I0224 20:58:50.539125  6134 net.cpp:103] Top shape: 1 1 1 1 (1)
I0224 20:58:50.539130  6134 net.cpp:109]     with loss weight 1
I0224 20:58:50.539206  6134 net.cpp:170] loss needs backward computation.
I0224 20:58:50.539212  6134 net.cpp:170] ip3 needs backward computation.
I0224 20:58:50.539217  6134 net.cpp:170] relu2 needs backward computation.
I0224 20:58:50.539222  6134 net.cpp:170] ip2 needs backward computation.
I0224 20:58:50.539227  6134 net.cpp:170] relu1 needs backward computation.
…
I0224 20:58:50.544179  6134 solver.cpp:151] Creating test net (#0) specified by net file: examples/singleNet/train_val_v0.3.prototxt
I0224 20:58:50.544212  6134 net.cpp:275] The NetState phase (1) differed from the phase (0) specified by a rule in layer data
I0224 20:58:50.544378  6134 net.cpp:39] Initializing net from parameters: 
name: "LogisticRegressionNet"
layers {
  top: "data"
  top: "label"
  top: "sample_weight"
  name: "data"
  type: HDF5_DATA
  hdf5_data_param {
    source: "/share/project/shapes/caffe-weighted-samples/examples/singleNet/testFileList.txt"
    batch_size: 60
  }
  include {
    phase: TEST
  }
}
layers {
  bottom: "data"
  top: "conv1"
  name: "conv1"
  type: CONVOLUTION
  blobs_lr: 1
  blobs_lr: 2
  convolution_param {
    num_output: 96
    kernel_size: 4
    stride: 1
    weight_filler {
      type: "xavier"
    }
    bias_filler {
      type: "constant"
    }
  }
}
layers {
  bottom: "conv1"
  top: "conv1"
  name: "relu_conv1"
  type: RELU
}
layers {
  bottom: "conv1"
  top: "pool1"
  name: "pool1"
  type: POOLING
  pooling_param {
    pool: MAX
    kernel_size: 2
    stride: 2
  }
}
layers {
  bottom: "pool1"
  top: "conv2"
  name: "conv2"
  type: CONVOLUTION
  blobs_lr: 1
  blobs_lr: 2
  convolution_param {
    num_output: 256
    kernel_size: 3
    stride: 1
    weight_filler {
      type: "xavier"
    }
    bias_filler {
      type: "constant"
    }
  }
}
layers {
  bottom: "conv2"
  top: "conv2"
  name: "relu_conv2"
  type: RELU
}
layers {
  bottom: "conv2"
  top: "pool2"
  name: "pool2"
  type: POOLING
  pooling_param {
    pool: MAX
    kernel_size: 2
    stride: 2
  }
}
layers {
  bottom: "pool2"
  top: "conv3"
  name: "conv3"
  type: CONVOLUTION
  blobs_lr: 1
  blobs_lr: 2
  convolution_param {
    num_output: 64
    kernel_size: 4
    stride: 1
    weight_filler {
      type: "xavier"
    }
    bias_filler {
      type: "constant"
    }
  }
}
layers {
  bottom: "conv3"
  top: "conv3"
  name: "relu_conv3"
  type: RELU
}
layers {
  bottom: "conv3"
  top: "ip1"
  name: "ip1"
  type: INNER_PRODUCT
  blobs_lr: 1
  blobs_lr: 2
  inner_product_param {
    num_output: 256
    weight_filler {
      type: "xavier"
    }
    bias_filler {
      type: "constant"
    }
  }
}
layers {
  bottom: "ip1"
  top: "ip1"
  name: "relu1"
  type: RELU
}
layers {
  bottom: "ip1"
  top: "ip2"
  name: "ip2"
  type: INNER_PRODUCT
  blobs_lr: 1
  blobs_lr: 2
  inner_product_param {
    num_output: 256
    weight_filler {
      type: "xavier"
    }
    bias_filler {
      type: "constant"
    }
  }
}
layers {
  bottom: "ip2"
  top: "ip2"
  name: "relu2"
  type: RELU
}
layers {
  bottom: "ip2"
  top: "ip3"
  name: "ip3"
  type: INNER_PRODUCT
  blobs_lr: 1
  blobs_lr: 2
  inner_product_param {
    num_output: 2
    weight_filler {
      type: "xavier"
    }
    bias_filler {
      type: "constant"
    }
  }
}
layers {
  bottom: "ip3"
  bottom: "label"
  top: "accuracy"
  name: "accuracy"
  type: ACCURACY
  include {
    phase: TEST
  }
}
layers {
  bottom: "ip3"
  bottom: "label"
  bottom: "sample_weight"
  top: "loss"
  name: "loss"
  type: SOFTMAX_LOSS
}
state {
  phase: TEST
}
I0224 20:58:50.544580  6134 net.cpp:67] Creating Layer data
I0224 20:58:50.544591  6134 net.cpp:356] data -> data
I0224 20:58:50.544601  6134 net.cpp:356] data -> label
I0224 20:58:50.544610  6134 net.cpp:356] data -> sample_weight
I0224 20:58:50.544618  6134 net.cpp:96] Setting up data
I0224 20:58:50.544623  6134 hdf5_data_layer.cpp:63] Loading filename from /share/project/shapes/caffe-weighted-samples/examples/singleNet/testFileList.txt
I0224 20:58:50.616390  6134 hdf5_data_layer.cpp:75] Number of files: 1
I0224 20:58:50.616422  6134 hdf5_data_layer.cpp:29] Loading HDF5 file/scratch/stephenchen/shapes/singleNet/hdf5/test_batch_35x35/testHDF_1_35x35.h5
I0224 20:59:02.093894  6134 hdf5_data_layer.cpp:55] Successully loaded 59000 rows
I0224 20:59:02.093925  6134 hdf5_data_layer.cpp:89] output data size: 60,4,35,35
I0224 20:59:02.093935  6134 net.cpp:103] Top shape: 60 4 35 35 (294000)
I0224 20:59:02.093940  6134 net.cpp:103] Top shape: 60 1 1 1 (60)
I0224 20:59:02.093945  6134 net.cpp:103] Top shape: 60 1 1 1 (60)
I0224 20:59:02.093960  6134 net.cpp:67] Creating Layer label_data_1_split
I0224 20:59:02.093966  6134 net.cpp:394] label_data_1_split <- label
I0224 20:59:02.093974  6134 net.cpp:356] label_data_1_split -> label_data_1_split_0
I0224 20:59:02.093987  6134 net.cpp:356] label_data_1_split -> label_data_1_split_1
I0224 20:59:02.093996  6134 net.cpp:96] Setting up label_data_1_split
I0224 20:59:02.094002  6134 net.cpp:103] Top shape: 60 1 1 1 (60)
I0224 20:59:02.094007  6134 net.cpp:103] Top shape: 60 1 1 1 (60)
I0224 20:59:02.094017  6134 net.cpp:67] Creating Layer conv1
I0224 20:59:02.094022  6134 net.cpp:394] conv1 <- data
I0224 20:59:02.094029  6134 net.cpp:356] conv1 -> conv1
I0224 20:59:02.094038  6134 net.cpp:96] Setting up conv1
I0224 20:59:02.094120  6134 net.cpp:103] Top shape: 60 96 32 32 (5898240)
I0224 20:59:02.094137  6134 net.cpp:67] Creating Layer relu_conv1
I0224 20:59:02.094143  6134 net.cpp:394] relu_conv1 <- conv1
I0224 20:59:02.094151  6134 net.cpp:345] relu_conv1 -> conv1 (in-place)
I0224 20:59:02.094157  6134 net.cpp:96] Setting up relu_conv1
I0224 20:59:02.094162  6134 net.cpp:103] Top shape: 60 96 32 32 (5898240)
I0224 20:59:02.094172  6134 net.cpp:67] Creating Layer pool1
I0224 20:59:02.094177  6134 net.cpp:394] pool1 <- conv1
I0224 20:59:02.094183  6134 net.cpp:356] pool1 -> pool1
I0224 20:59:02.094190  6134 net.cpp:96] Setting up pool1
I0224 20:59:02.094197  6134 net.cpp:103] Top shape: 60 96 16 16 (1474560)
I0224 20:59:02.094205  6134 net.cpp:67] Creating Layer conv2
I0224 20:59:02.094210  6134 net.cpp:394] conv2 <- pool1
I0224 20:59:02.094218  6134 net.cpp:356] conv2 -> conv2
I0224 20:59:02.094224  6134 net.cpp:96] Setting up conv2
I0224 20:59:02.096918  6134 net.cpp:103] Top shape: 60 256 14 14 (3010560)
I0224 20:59:02.096961  6134 net.cpp:67] Creating Layer relu_conv2
I0224 20:59:02.096968  6134 net.cpp:394] relu_conv2 <- conv2
I0224 20:59:02.096976  6134 net.cpp:345] relu_conv2 -> conv2 (in-place)
I0224 20:59:02.096995  6134 net.cpp:96] Setting up relu_conv2
I0224 20:59:02.097002  6134 net.cpp:103] Top shape: 60 256 14 14 (3010560)
I0224 20:59:02.097008  6134 net.cpp:67] Creating Layer pool2
I0224 20:59:02.097013  6134 net.cpp:394] pool2 <- conv2
I0224 20:59:02.097020  6134 net.cpp:356] pool2 -> pool2
I0224 20:59:02.097030  6134 net.cpp:96] Setting up pool2
I0224 20:59:02.097039  6134 net.cpp:103] Top shape: 60 256 7 7 (752640)
I0224 20:59:02.097050  6134 net.cpp:67] Creating Layer conv3
I0224 20:59:02.097055  6134 net.cpp:394] conv3 <- pool2
I0224 20:59:02.097062  6134 net.cpp:356] conv3 -> conv3
I0224 20:59:02.097070  6134 net.cpp:96] Setting up conv3
I0224 20:59:02.101570  6134 net.cpp:103] Top shape: 60 64 4 4 (61440)
I0224 20:59:02.101624  6134 net.cpp:67] Creating Layer relu_conv3
I0224 20:59:02.101631  6134 net.cpp:394] relu_conv3 <- conv3
I0224 20:59:02.101641  6134 net.cpp:345] relu_conv3 -> conv3 (in-place)
I0224 20:59:02.101651  6134 net.cpp:96] Setting up relu_conv3
I0224 20:59:02.101656  6134 net.cpp:103] Top shape: 60 64 4 4 (61440)
I0224 20:59:02.101665  6134 net.cpp:67] Creating Layer ip1
I0224 20:59:02.101670  6134 net.cpp:394] ip1 <- conv3
I0224 20:59:02.101677  6134 net.cpp:356] ip1 -> ip1
I0224 20:59:02.101686  6134 net.cpp:96] Setting up ip1
I0224 20:59:02.105103  6134 net.cpp:103] Top shape: 60 256 1 1 (15360)
I0224 20:59:02.105147  6134 net.cpp:67] Creating Layer relu1
I0224 20:59:02.105155  6134 net.cpp:394] relu1 <- ip1
I0224 20:59:02.105165  6134 net.cpp:345] relu1 -> ip1 (in-place)
I0224 20:59:02.105175  6134 net.cpp:96] Setting up relu1
I0224 20:59:02.105180  6134 net.cpp:103] Top shape: 60 256 1 1 (15360)
I0224 20:59:02.105188  6134 net.cpp:67] Creating Layer ip2
I0224 20:59:02.105193  6134 net.cpp:394] ip2 <- ip1
I0224 20:59:02.105201  6134 net.cpp:356] ip2 -> ip2
I0224 20:59:02.105209  6134 net.cpp:96] Setting up ip2
I0224 20:59:02.105944  6134 net.cpp:103] Top shape: 60 256 1 1 (15360)
I0224 20:59:02.105985  6134 net.cpp:67] Creating Layer relu2
I0224 20:59:02.105993  6134 net.cpp:394] relu2 <- ip2
I0224 20:59:02.106001  6134 net.cpp:345] relu2 -> ip2 (in-place)
I0224 20:59:02.106010  6134 net.cpp:96] Setting up relu2
I0224 20:59:02.106015  6134 net.cpp:103] Top shape: 60 256 1 1 (15360)
I0224 20:59:02.106024  6134 net.cpp:67] Creating Layer ip3
I0224 20:59:02.106029  6134 net.cpp:394] ip3 <- ip2
I0224 20:59:02.106035  6134 net.cpp:356] ip3 -> ip3
I0224 20:59:02.106045  6134 net.cpp:96] Setting up ip3
I0224 20:59:02.106061  6134 net.cpp:103] Top shape: 60 2 1 1 (120)
I0224 20:59:02.106071  6134 net.cpp:67] Creating Layer ip3_ip3_0_split
I0224 20:59:02.106076  6134 net.cpp:394] ip3_ip3_0_split <- ip3
I0224 20:59:02.106083  6134 net.cpp:356] ip3_ip3_0_split -> ip3_ip3_0_split_0
I0224 20:59:02.106091  6134 net.cpp:356] ip3_ip3_0_split -> ip3_ip3_0_split_1
I0224 20:59:02.106098  6134 net.cpp:96] Setting up ip3_ip3_0_split
I0224 20:59:02.106104  6134 net.cpp:103] Top shape: 60 2 1 1 (120)
I0224 20:59:02.106109  6134 net.cpp:103] Top shape: 60 2 1 1 (120)
I0224 20:59:02.106119  6134 net.cpp:67] Creating Layer accuracy
I0224 20:59:02.106125  6134 net.cpp:394] accuracy <- ip3_ip3_0_split_0
I0224 20:59:02.106132  6134 net.cpp:394] accuracy <- label_data_1_split_0
I0224 20:59:02.106138  6134 net.cpp:356] accuracy -> accuracy
I0224 20:59:02.106147  6134 net.cpp:96] Setting up accuracy
I0224 20:59:02.106151  6134 net.cpp:103] Top shape: 1 1 1 1 (1)
I0224 20:59:02.106159  6134 net.cpp:67] Creating Layer loss
I0224 20:59:02.106164  6134 net.cpp:394] loss <- ip3_ip3_0_split_1
I0224 20:59:02.106171  6134 net.cpp:394] loss <- label_data_1_split_1
I0224 20:59:02.106178  6134 net.cpp:394] loss <- sample_weight
I0224 20:59:02.106184  6134 net.cpp:356] loss -> loss
I0224 20:59:02.106192  6134 net.cpp:96] Setting up loss
I0224 20:59:02.106202  6134 net.cpp:103] Top shape: 1 1 1 1 (1)
I0224 20:59:02.106207  6134 net.cpp:109]     with loss weight 1
I0224 20:59:02.106223  6134 net.cpp:170] loss needs backward computation.
I0224 20:59:02.106228  6134 net.cpp:172] accuracy does not need backward computation.
I0224 20:59:02.106245  6134 net.cpp:170] ip3_ip3_0_split needs backward computation.
I0224 20:59:02.106251  6134 net.cpp:170] ip3 needs backward computation.
I0224 20:59:02.106256  6134 net.cpp:170] relu2 needs backward computation.
…
