…
I0204 22:54:01.714375 15129 net.cpp:275] The NetState phase (0) differed from the phase (1) specified by a rule in layer data
I0204 22:54:01.714411 15129 net.cpp:275] The NetState phase (0) differed from the phase (1) specified by a rule in layer accuracy
I0204 22:54:01.714694 15129 net.cpp:39] Initializing net from parameters: 
name: "LogisticRegressionNet"
layers {
  top: "data"
  top: "label"
  top: "sample_weight"
  name: "data"
  type: HDF5_DATA
  hdf5_data_param {
    source: "/share/project/shapes/caffe-weighted-samples/examples/singleNet/trainFileList.txt"
    batch_size: 100
  }
  include {
    phase: TRAIN
  }
}
layers {
  bottom: "data"
  top: "conv1"
  name: "conv1"
  type: CONVOLUTION
  blobs_lr: 1
  blobs_lr: 2
  convolution_param {
    num_output: 96
    kernel_size: 4
    stride: 1
    weight_filler {
      type: "xavier"
    }
    bias_filler {
      type: "constant"
    }
  }
}
layers {
  bottom: "conv1"
  top: "conv1"
  name: "relu_conv1"
  type: RELU
}
layers {
  bottom: "conv1"
  top: "pool1"
  name: "pool1"
  type: POOLING
  pooling_param {
    pool: MAX
    kernel_size: 2
    stride: 2
  }
}
layers {
  bottom: "pool1"
  top: "conv2"
  name: "conv2"
  type: CONVOLUTION
  blobs_lr: 1
  blobs_lr: 2
  convolution_param {
    num_output: 256
    kernel_size: 3
    stride: 1
    weight_filler {
      type: "xavier"
    }
    bias_filler {
      type: "constant"
    }
  }
}
layers {
  bottom: "conv2"
  top: "conv2"
  name: "relu_conv2"
  type: RELU
}
layers {
  bottom: "conv2"
  top: "pool2"
  name: "pool2"
  type: POOLING
  pooling_param {
    pool: MAX
    kernel_size: 2
    stride: 2
  }
}
layers {
  bottom: "pool2"
  top: "conv3"
  name: "conv3"
  type: CONVOLUTION
  blobs_lr: 1
  blobs_lr: 2
  convolution_param {
    num_output: 64
    kernel_size: 4
    stride: 1
    weight_filler {
      type: "xavier"
    }
    bias_filler {
      type: "constant"
    }
  }
}
layers {
  bottom: "conv3"
  top: "conv3"
  name: "relu_conv3"
  type: RELU
}
layers {
  bottom: "conv3"
  top: "ip1"
  name: "ip1"
  type: INNER_PRODUCT
  blobs_lr: 1
  blobs_lr: 2
  inner_product_param {
    num_output: 1024
    weight_filler {
      type: "xavier"
    }
    bias_filler {
      type: "constant"
    }
  }
}
layers {
  bottom: "ip1"
  top: "ip1"
  name: "relu1"
  type: RELU
}
layers {
  bottom: "ip1"
  top: "ip2"
  name: "ip2"
  type: INNER_PRODUCT
  blobs_lr: 1
  blobs_lr: 2
  inner_product_param {
    num_output: 1024
    weight_filler {
      type: "xavier"
    }
    bias_filler {
      type: "constant"
    }
  }
}
layers {
  bottom: "ip2"
  top: "ip2"
  name: "relu2"
  type: RELU
}
layers {
  bottom: "ip2"
  top: "ip3"
  name: "ip3"
  type: INNER_PRODUCT
  blobs_lr: 1
  blobs_lr: 2
  inner_product_param {
    num_output: 2
    weight_filler {
      type: "xavier"
    }
    bias_filler {
      type: "constant"
    }
  }
}
layers {
  bottom: "ip3"
  bottom: "label"
  bottom: "sample_weight"
  top: "loss"
  name: "loss"
  type: SOFTMAX_LOSS
}
state {
  phase: TRAIN
}
I0204 22:54:01.714972 15129 net.cpp:67] Creating Layer data
I0204 22:54:01.714993 15129 net.cpp:356] data -> data
I0204 22:54:01.715033 15129 net.cpp:356] data -> label
I0204 22:54:01.715060 15129 net.cpp:356] data -> sample_weight
I0204 22:54:01.715075 15129 net.cpp:96] Setting up data
I0204 22:54:01.715088 15129 hdf5_data_layer.cpp:63] Loading filename from /share/project/shapes/caffe-weighted-samples/examples/singleNet/trainFileList.txt
I0204 22:54:01.743854 15129 hdf5_data_layer.cpp:75] Number of files: 15
I0204 22:54:01.743886 15129 hdf5_data_layer.cpp:29] Loading HDF5 file/scratch/stephenchen/shapes/singleNet/hdf5/train_batch_35x35/trainHDF_1_35x35.h5
I0204 22:54:43.085115 15129 hdf5_data_layer.cpp:55] Successully loaded 220600 rows
I0204 22:54:43.090093 15129 hdf5_data_layer.cpp:89] output data size: 100,4,35,35
I0204 22:54:43.090186 15129 net.cpp:103] Top shape: 100 4 35 35 (490000)
I0204 22:54:43.090199 15129 net.cpp:103] Top shape: 100 1 1 1 (100)
I0204 22:54:43.090209 15129 net.cpp:103] Top shape: 100 1 1 1 (100)
I0204 22:54:43.090260 15129 net.cpp:67] Creating Layer conv1
I0204 22:54:43.090272 15129 net.cpp:394] conv1 <- data
I0204 22:54:43.090303 15129 net.cpp:356] conv1 -> conv1
I0204 22:54:43.090322 15129 net.cpp:96] Setting up conv1
I0204 22:54:43.091724 15129 net.cpp:103] Top shape: 100 96 32 32 (9830400)
I0204 22:54:43.091815 15129 net.cpp:67] Creating Layer relu_conv1
I0204 22:54:43.091850 15129 net.cpp:394] relu_conv1 <- conv1
I0204 22:54:43.091863 15129 net.cpp:345] relu_conv1 -> conv1 (in-place)
I0204 22:54:43.091876 15129 net.cpp:96] Setting up relu_conv1
I0204 22:54:43.091886 15129 net.cpp:103] Top shape: 100 96 32 32 (9830400)
I0204 22:54:43.091898 15129 net.cpp:67] Creating Layer pool1
I0204 22:54:43.091907 15129 net.cpp:394] pool1 <- conv1
I0204 22:54:43.091918 15129 net.cpp:356] pool1 -> pool1
I0204 22:54:43.091931 15129 net.cpp:96] Setting up pool1
I0204 22:54:43.091985 15129 net.cpp:103] Top shape: 100 96 16 16 (2457600)
I0204 22:54:43.092005 15129 net.cpp:67] Creating Layer conv2
I0204 22:54:43.092015 15129 net.cpp:394] conv2 <- pool1
I0204 22:54:43.092027 15129 net.cpp:356] conv2 -> conv2
I0204 22:54:43.092041 15129 net.cpp:96] Setting up conv2
I0204 22:54:43.097139 15129 net.cpp:103] Top shape: 100 256 14 14 (5017600)
I0204 22:54:43.097201 15129 net.cpp:67] Creating Layer relu_conv2
I0204 22:54:43.097213 15129 net.cpp:394] relu_conv2 <- conv2
I0204 22:54:43.097224 15129 net.cpp:345] relu_conv2 -> conv2 (in-place)
I0204 22:54:43.097237 15129 net.cpp:96] Setting up relu_conv2
I0204 22:54:43.097246 15129 net.cpp:103] Top shape: 100 256 14 14 (5017600)
I0204 22:54:43.097259 15129 net.cpp:67] Creating Layer pool2
I0204 22:54:43.097285 15129 net.cpp:394] pool2 <- conv2
I0204 22:54:43.097301 15129 net.cpp:356] pool2 -> pool2
I0204 22:54:43.097314 15129 net.cpp:96] Setting up pool2
I0204 22:54:43.097326 15129 net.cpp:103] Top shape: 100 256 7 7 (1254400)
I0204 22:54:43.097339 15129 net.cpp:67] Creating Layer conv3
I0204 22:54:43.097348 15129 net.cpp:394] conv3 <- pool2
I0204 22:54:43.097359 15129 net.cpp:356] conv3 -> conv3
I0204 22:54:43.097373 15129 net.cpp:96] Setting up conv3
I0204 22:54:43.100893 15129 net.cpp:103] Top shape: 100 64 4 4 (102400)
I0204 22:54:43.100921 15129 net.cpp:67] Creating Layer relu_conv3
I0204 22:54:43.100927 15129 net.cpp:394] relu_conv3 <- conv3
I0204 22:54:43.100934 15129 net.cpp:345] relu_conv3 -> conv3 (in-place)
I0204 22:54:43.100942 15129 net.cpp:96] Setting up relu_conv3
I0204 22:54:43.100947 15129 net.cpp:103] Top shape: 100 64 4 4 (102400)
I0204 22:54:43.100976 15129 net.cpp:67] Creating Layer ip1
I0204 22:54:43.100983 15129 net.cpp:394] ip1 <- conv3
I0204 22:54:43.100991 15129 net.cpp:356] ip1 -> ip1
I0204 22:54:43.100999 15129 net.cpp:96] Setting up ip1
I0204 22:54:43.114421 15129 net.cpp:103] Top shape: 100 1024 1 1 (102400)
I0204 22:54:43.114461 15129 net.cpp:67] Creating Layer relu1
I0204 22:54:43.114469 15129 net.cpp:394] relu1 <- ip1
I0204 22:54:43.114478 15129 net.cpp:345] relu1 -> ip1 (in-place)
I0204 22:54:43.114522 15129 net.cpp:96] Setting up relu1
I0204 22:54:43.114532 15129 net.cpp:103] Top shape: 100 1024 1 1 (102400)
I0204 22:54:43.114542 15129 net.cpp:67] Creating Layer ip2
I0204 22:54:43.114547 15129 net.cpp:394] ip2 <- ip1
I0204 22:54:43.114554 15129 net.cpp:356] ip2 -> ip2
I0204 22:54:43.114562 15129 net.cpp:96] Setting up ip2
I0204 22:54:43.128072 15129 net.cpp:103] Top shape: 100 1024 1 1 (102400)
I0204 22:54:43.128123 15129 net.cpp:67] Creating Layer relu2
I0204 22:54:43.128129 15129 net.cpp:394] relu2 <- ip2
I0204 22:54:43.128139 15129 net.cpp:345] relu2 -> ip2 (in-place)
I0204 22:54:43.128147 15129 net.cpp:96] Setting up relu2
I0204 22:54:43.128173 15129 net.cpp:103] Top shape: 100 1024 1 1 (102400)
I0204 22:54:43.128182 15129 net.cpp:67] Creating Layer ip3
I0204 22:54:43.128187 15129 net.cpp:394] ip3 <- ip2
I0204 22:54:43.128196 15129 net.cpp:356] ip3 -> ip3
I0204 22:54:43.128204 15129 net.cpp:96] Setting up ip3
I0204 22:54:43.128237 15129 net.cpp:103] Top shape: 100 2 1 1 (200)
I0204 22:54:43.128257 15129 net.cpp:67] Creating Layer loss
I0204 22:54:43.128262 15129 net.cpp:394] loss <- ip3
I0204 22:54:43.128268 15129 net.cpp:394] loss <- label
I0204 22:54:43.128289 15129 net.cpp:394] loss <- sample_weight
I0204 22:54:43.128298 15129 net.cpp:356] loss -> loss
I0204 22:54:43.128306 15129 net.cpp:96] Setting up loss
I0204 22:54:43.128317 15129 net.cpp:103] Top shape: 1 1 1 1 (1)
I0204 22:54:43.128322 15129 net.cpp:109]     with loss weight 1
I0204 22:54:43.128420 15129 net.cpp:170] loss needs backward computation.
I0204 22:54:43.128427 15129 net.cpp:170] ip3 needs backward computation.
I0204 22:54:43.128432 15129 net.cpp:170] relu2 needs backward computation.
I0204 22:54:43.128437 15129 net.cpp:170] ip2 needs backward computation.
I0204 22:54:43.128443 15129 net.cpp:170] relu1 needs backward computation.
…
I0204 22:54:43.162565 15129 solver.cpp:151] Creating test net (#0) specified by net file: examples/singleNet/train_val_v0.2.prototxt
I0204 22:54:43.162660 15129 net.cpp:275] The NetState phase (1) differed from the phase (0) specified by a rule in layer data
I0204 22:54:43.163023 15129 net.cpp:39] Initializing net from parameters: 
name: "LogisticRegressionNet"
layers {
  top: "data"
  top: "label"
  top: "sample_weight"
  name: "data"
  type: HDF5_DATA
  hdf5_data_param {
    source: "/share/project/shapes/caffe-weighted-samples/examples/singleNet/testFileList.txt"
    batch_size: 10
  }
  include {
    phase: TEST
  }
}
layers {
  bottom: "data"
  top: "conv1"
  name: "conv1"
  type: CONVOLUTION
  blobs_lr: 1
  blobs_lr: 2
  convolution_param {
    num_output: 96
    kernel_size: 4
    stride: 1
    weight_filler {
      type: "xavier"
    }
    bias_filler {
      type: "constant"
    }
  }
}
layers {
  bottom: "conv1"
  top: "conv1"
  name: "relu_conv1"
  type: RELU
}
layers {
  bottom: "conv1"
  top: "pool1"
  name: "pool1"
  type: POOLING
  pooling_param {
    pool: MAX
    kernel_size: 2
    stride: 2
  }
}
layers {
  bottom: "pool1"
  top: "conv2"
  name: "conv2"
  type: CONVOLUTION
  blobs_lr: 1
  blobs_lr: 2
  convolution_param {
    num_output: 256
    kernel_size: 3
    stride: 1
    weight_filler {
      type: "xavier"
    }
    bias_filler {
      type: "constant"
    }
  }
}
layers {
  bottom: "conv2"
  top: "conv2"
  name: "relu_conv2"
  type: RELU
}
layers {
  bottom: "conv2"
  top: "pool2"
  name: "pool2"
  type: POOLING
  pooling_param {
    pool: MAX
    kernel_size: 2
    stride: 2
  }
}
layers {
  bottom: "pool2"
  top: "conv3"
  name: "conv3"
  type: CONVOLUTION
  blobs_lr: 1
  blobs_lr: 2
  convolution_param {
    num_output: 64
    kernel_size: 4
    stride: 1
    weight_filler {
      type: "xavier"
    }
    bias_filler {
      type: "constant"
    }
  }
}
layers {
  bottom: "conv3"
  top: "conv3"
  name: "relu_conv3"
  type: RELU
}
layers {
  bottom: "conv3"
  top: "ip1"
  name: "ip1"
  type: INNER_PRODUCT
  blobs_lr: 1
  blobs_lr: 2
  inner_product_param {
    num_output: 1024
    weight_filler {
      type: "xavier"
    }
    bias_filler {
      type: "constant"
    }
  }
}
layers {
  bottom: "ip1"
  top: "ip1"
  name: "relu1"
  type: RELU
}
layers {
  bottom: "ip1"
  top: "ip2"
  name: "ip2"
  type: INNER_PRODUCT
  blobs_lr: 1
  blobs_lr: 2
  inner_product_param {
    num_output: 1024
    weight_filler {
      type: "xavier"
    }
    bias_filler {
      type: "constant"
    }
  }
}
layers {
  bottom: "ip2"
  top: "ip2"
  name: "relu2"
  type: RELU
}
layers {
  bottom: "ip2"
  top: "ip3"
  name: "ip3"
  type: INNER_PRODUCT
  blobs_lr: 1
  blobs_lr: 2
  inner_product_param {
    num_output: 2
    weight_filler {
      type: "xavier"
    }
    bias_filler {
      type: "constant"
    }
  }
}
layers {
  bottom: "ip3"
  bottom: "label"
  top: "accuracy"
  name: "accuracy"
  type: ACCURACY
  include {
    phase: TEST
  }
}
layers {
  bottom: "ip3"
  bottom: "label"
  bottom: "sample_weight"
  top: "loss"
  name: "loss"
  type: SOFTMAX_LOSS
}
state {
  phase: TEST
}
I0204 22:54:43.163455 15129 net.cpp:67] Creating Layer data
I0204 22:54:43.163475 15129 net.cpp:356] data -> data
I0204 22:54:43.163494 15129 net.cpp:356] data -> label
I0204 22:54:43.163542 15129 net.cpp:356] data -> sample_weight
I0204 22:54:43.163586 15129 net.cpp:96] Setting up data
I0204 22:54:43.163596 15129 hdf5_data_layer.cpp:63] Loading filename from /share/project/shapes/caffe-weighted-samples/examples/singleNet/testFileList.txt
I0204 22:54:43.578145 15129 hdf5_data_layer.cpp:75] Number of files: 4
I0204 22:54:43.578176 15129 hdf5_data_layer.cpp:29] Loading HDF5 file/scratch/stephenchen/shapes/singleNet/hdf5/test_batch_35x35/testHDF_1_35x35.h5
I0204 22:55:08.473088 15129 hdf5_data_layer.cpp:55] Successully loaded 112600 rows
I0204 22:55:08.473114 15129 hdf5_data_layer.cpp:89] output data size: 10,4,35,35
I0204 22:55:08.473122 15129 net.cpp:103] Top shape: 10 4 35 35 (49000)
I0204 22:55:08.473129 15129 net.cpp:103] Top shape: 10 1 1 1 (10)
I0204 22:55:08.473134 15129 net.cpp:103] Top shape: 10 1 1 1 (10)
I0204 22:55:08.473147 15129 net.cpp:67] Creating Layer label_data_1_split
I0204 22:55:08.473153 15129 net.cpp:394] label_data_1_split <- label
I0204 22:55:08.473162 15129 net.cpp:356] label_data_1_split -> label_data_1_split_0
I0204 22:55:08.473175 15129 net.cpp:356] label_data_1_split -> label_data_1_split_1
I0204 22:55:08.473182 15129 net.cpp:96] Setting up label_data_1_split
I0204 22:55:08.473188 15129 net.cpp:103] Top shape: 10 1 1 1 (10)
I0204 22:55:08.473194 15129 net.cpp:103] Top shape: 10 1 1 1 (10)
I0204 22:55:08.473203 15129 net.cpp:67] Creating Layer conv1
I0204 22:55:08.473208 15129 net.cpp:394] conv1 <- data
I0204 22:55:08.473217 15129 net.cpp:356] conv1 -> conv1
I0204 22:55:08.473224 15129 net.cpp:96] Setting up conv1
I0204 22:55:08.473304 15129 net.cpp:103] Top shape: 10 96 32 32 (983040)
I0204 22:55:08.473320 15129 net.cpp:67] Creating Layer relu_conv1
I0204 22:55:08.473326 15129 net.cpp:394] relu_conv1 <- conv1
I0204 22:55:08.473332 15129 net.cpp:345] relu_conv1 -> conv1 (in-place)
I0204 22:55:08.473340 15129 net.cpp:96] Setting up relu_conv1
I0204 22:55:08.473345 15129 net.cpp:103] Top shape: 10 96 32 32 (983040)
I0204 22:55:08.473353 15129 net.cpp:67] Creating Layer pool1
I0204 22:55:08.473358 15129 net.cpp:394] pool1 <- conv1
I0204 22:55:08.473366 15129 net.cpp:356] pool1 -> pool1
I0204 22:55:08.473372 15129 net.cpp:96] Setting up pool1
I0204 22:55:08.473379 15129 net.cpp:103] Top shape: 10 96 16 16 (245760)
I0204 22:55:08.473387 15129 net.cpp:67] Creating Layer conv2
I0204 22:55:08.473392 15129 net.cpp:394] conv2 <- pool1
I0204 22:55:08.473399 15129 net.cpp:356] conv2 -> conv2
I0204 22:55:08.473407 15129 net.cpp:96] Setting up conv2
I0204 22:55:08.475891 15129 net.cpp:103] Top shape: 10 256 14 14 (501760)
I0204 22:55:08.475908 15129 net.cpp:67] Creating Layer relu_conv2
I0204 22:55:08.475914 15129 net.cpp:394] relu_conv2 <- conv2
I0204 22:55:08.475920 15129 net.cpp:345] relu_conv2 -> conv2 (in-place)
I0204 22:55:08.475930 15129 net.cpp:96] Setting up relu_conv2
I0204 22:55:08.475935 15129 net.cpp:103] Top shape: 10 256 14 14 (501760)
I0204 22:55:08.475941 15129 net.cpp:67] Creating Layer pool2
I0204 22:55:08.475946 15129 net.cpp:394] pool2 <- conv2
I0204 22:55:08.475953 15129 net.cpp:356] pool2 -> pool2
I0204 22:55:08.475960 15129 net.cpp:96] Setting up pool2
I0204 22:55:08.475967 15129 net.cpp:103] Top shape: 10 256 7 7 (125440)
I0204 22:55:08.475975 15129 net.cpp:67] Creating Layer conv3
I0204 22:55:08.475980 15129 net.cpp:394] conv3 <- pool2
I0204 22:55:08.475987 15129 net.cpp:356] conv3 -> conv3
I0204 22:55:08.475994 15129 net.cpp:96] Setting up conv3
I0204 22:55:08.478869 15129 net.cpp:103] Top shape: 10 64 4 4 (10240)
I0204 22:55:08.478888 15129 net.cpp:67] Creating Layer relu_conv3
I0204 22:55:08.478893 15129 net.cpp:394] relu_conv3 <- conv3
I0204 22:55:08.478899 15129 net.cpp:345] relu_conv3 -> conv3 (in-place)
I0204 22:55:08.478906 15129 net.cpp:96] Setting up relu_conv3
I0204 22:55:08.478910 15129 net.cpp:103] Top shape: 10 64 4 4 (10240)
I0204 22:55:08.478919 15129 net.cpp:67] Creating Layer ip1
I0204 22:55:08.478922 15129 net.cpp:394] ip1 <- conv3
I0204 22:55:08.478929 15129 net.cpp:356] ip1 -> ip1
I0204 22:55:08.478936 15129 net.cpp:96] Setting up ip1
I0204 22:55:08.490645 15129 net.cpp:103] Top shape: 10 1024 1 1 (10240)
I0204 22:55:08.490672 15129 net.cpp:67] Creating Layer relu1
I0204 22:55:08.490679 15129 net.cpp:394] relu1 <- ip1
I0204 22:55:08.490686 15129 net.cpp:345] relu1 -> ip1 (in-place)
I0204 22:55:08.490694 15129 net.cpp:96] Setting up relu1
I0204 22:55:08.490700 15129 net.cpp:103] Top shape: 10 1024 1 1 (10240)
I0204 22:55:08.490706 15129 net.cpp:67] Creating Layer ip2
I0204 22:55:08.490711 15129 net.cpp:394] ip2 <- ip1
I0204 22:55:08.490718 15129 net.cpp:356] ip2 -> ip2
I0204 22:55:08.490726 15129 net.cpp:96] Setting up ip2
I0204 22:55:08.502358 15129 net.cpp:103] Top shape: 10 1024 1 1 (10240)
I0204 22:55:08.502382 15129 net.cpp:67] Creating Layer relu2
I0204 22:55:08.502388 15129 net.cpp:394] relu2 <- ip2
I0204 22:55:08.502395 15129 net.cpp:345] relu2 -> ip2 (in-place)
I0204 22:55:08.502403 15129 net.cpp:96] Setting up relu2
I0204 22:55:08.502408 15129 net.cpp:103] Top shape: 10 1024 1 1 (10240)
I0204 22:55:08.502415 15129 net.cpp:67] Creating Layer ip3
I0204 22:55:08.502419 15129 net.cpp:394] ip3 <- ip2
I0204 22:55:08.502426 15129 net.cpp:356] ip3 -> ip3
I0204 22:55:08.502434 15129 net.cpp:96] Setting up ip3
I0204 22:55:08.502466 15129 net.cpp:103] Top shape: 10 2 1 1 (20)
I0204 22:55:08.502475 15129 net.cpp:67] Creating Layer ip3_ip3_0_split
I0204 22:55:08.502480 15129 net.cpp:394] ip3_ip3_0_split <- ip3
I0204 22:55:08.502487 15129 net.cpp:356] ip3_ip3_0_split -> ip3_ip3_0_split_0
I0204 22:55:08.502496 15129 net.cpp:356] ip3_ip3_0_split -> ip3_ip3_0_split_1
I0204 22:55:08.502502 15129 net.cpp:96] Setting up ip3_ip3_0_split
I0204 22:55:08.502507 15129 net.cpp:103] Top shape: 10 2 1 1 (20)
I0204 22:55:08.502512 15129 net.cpp:103] Top shape: 10 2 1 1 (20)
I0204 22:55:08.502522 15129 net.cpp:67] Creating Layer accuracy
I0204 22:55:08.502527 15129 net.cpp:394] accuracy <- ip3_ip3_0_split_0
I0204 22:55:08.502533 15129 net.cpp:394] accuracy <- label_data_1_split_0
I0204 22:55:08.502539 15129 net.cpp:356] accuracy -> accuracy
I0204 22:55:08.502558 15129 net.cpp:96] Setting up accuracy
I0204 22:55:08.502564 15129 net.cpp:103] Top shape: 1 1 1 1 (1)
I0204 22:55:08.502573 15129 net.cpp:67] Creating Layer loss
I0204 22:55:08.502578 15129 net.cpp:394] loss <- ip3_ip3_0_split_1
I0204 22:55:08.502583 15129 net.cpp:394] loss <- label_data_1_split_1
I0204 22:55:08.502589 15129 net.cpp:394] loss <- sample_weight
I0204 22:55:08.502595 15129 net.cpp:356] loss -> loss
I0204 22:55:08.502604 15129 net.cpp:96] Setting up loss
I0204 22:55:08.502612 15129 net.cpp:103] Top shape: 1 1 1 1 (1)
I0204 22:55:08.502619 15129 net.cpp:109]     with loss weight 1
I0204 22:55:08.502631 15129 net.cpp:170] loss needs backward computation.
I0204 22:55:08.502637 15129 net.cpp:172] accuracy does not need backward computation.
I0204 22:55:08.502646 15129 net.cpp:170] ip3_ip3_0_split needs backward computation.
I0204 22:55:08.502652 15129 net.cpp:170] ip3 needs backward computation.
I0204 22:55:08.502656 15129 net.cpp:170] relu2 needs backward computation.
…
